Project/Assets/ML-Agents/Examples/Soccer/TFModels/fixed.onnx (onnx, 34035 bytes, 6 tensors)

_logits._model.0.weight f4 [4, 80]
00000000: 0ec4 1b3a 911f 20bd 9d79 14b9 e671 5bbd
00000010: 8c82 8b3b 184a 343d 513f 8fbb 4a7c 423b
00000020: 3d96 bcba 844b c5b9 5565 8f3e e190 8f3b
00000030: 4da0 c5bc 3a31 533d bab1 5eba 7d78 fe3e
00000040: dbd5 49bd a2f5 87ba d0b7 9f3d 98a3 61ba
00000050: b86c 40bb 0c54 32be f89b 4cb9 949d 613b
00000060: 40bf e53c 5ce8 0f38 4e56 bcbb 4d87 18bb
00000070: bf66 8a39 577a 173c 90d3 b0bb 77b0 4cbd
00000080: d8b7 54bb cf09 4e3b 3678 7fbd 4075 1c3b
00000090: 56d4 9bba c141 153b b125 87bb fc86 2cbe
000000a0: 4da2 c3b9 90db d23d 7f0e b5ba c091 48bd
000000b0: 4795 333b b201 a93b 1ef9 d2ba 09e7 ac39
000000c0: 50e5 023b dbcd 76ba a75f 6bbb d61b aa3a
000000d0: 6a7d 243b a507 79ba 13a1 43bb 6c43 c3bd
000000e0: f128 b839 6b02 843b 88ab 893b 13b0 d43a
000000f0: 61ce 223e 1165 e6b8 26f9 cf3c ecda 2c39
00000100: ef57 11bb 7942 76b8 aa8a 353d a80b 8fba
00000110: 2cd0 ddbe 2d8f 1c3b edf8 c4ba 85d6 1dbb
00000120: b668 9539 94aa 21bb 8503 71ba 8f09 a53c
00000130: 8e48 8bb9 85db 0c3b b66f 963c 13c8 14ba
00000140: ee19 92b8 422e 263e f2f9 393b a547 123a
00000150: c98b 65bb 92e6 d63d 9ba5 3fbb fa38 7abb
00000160: 5152 26bb 15e9 7ebb 9cc8 223e 5c1d b7ba
00000170: e7ba bbbd aed2 df3d aac6 59bb d587 4ebe
00000180: 58dd 1d3d 0f9b 7dba 1f7b d23e 4e6e 1c3b
00000190: a3e2 2a3b 98f7 be3e d29b a9b9 a0ca cebc
000001a0: 25e4 4f3d 3be7 cf3a 7778 6139 970a b93a
000001b0: ba86 13bb 71f4 ddbd eb77 92b9 b722 d03c
000001c0: d0ba 1b3b 20f5 8e37 7c70 96bc 5624 ae3a
000001d0: 6562 8a3b 816f 81bb 99e7 173b 5901 e0bd
000001e0: fa14 553b 9937 42be 37a4 613b dbcc bcba
000001f0: 3797 91bb 9da9 a6b8 f442 d0ba 7f8a 79bb
00000200: 3001 96b9 25b4 5dbb 4735 f8ba d6b1 0dbb
00000210: db50 53ba 3d58 cb39 b10d 023b 5c33 1f3e
00000220: 5cdc 74bb abcd 9abb 6994 93bb 1daf 1bbb
00000230: 07fc 9f3e b66e 5dbb aec5 d3b9 c3dc 053b
00000240: 9bce 02ba dac1 e9b7 987f 3e3e 0702 a93b
00000250: 1e1e 38be b3b9 093a 931d afba 85e7 6bb9
00000260: 03ef 833a fc05 09ba 5052 df39 3e5a 1d3c
00000270: 2643 4b3a c826 20bb 3913 51bc e0f5 17bb
00000280: 8716 b53b 66f5 823e 96b9 933b a282 413c
00000290: a33d f2bb f73f 43be 53ba 843b d7ca bcbb
000002a0: 96f8 c1ba 13e7 993b 573e 5cbe 8cd1 c6bb
000002b0: 55d8 9c3d 843f 39be 1d36 29b6 052e 01be
000002c0: 5896 50be a2ee bfba b9a4 083e ad9a d8b9
000002d0: e907 ce3b fd27 66bd 2494 d0b9 ef60 473d
000002e0: 1cce 6abd c882 b1ba de63 283c 4c07 b03a
000002f0: a8ef f539 c751 8b3e df99 c03b ebe3 50be
00000300: a52e da3b 88d1 90bb 1a8a 9a3d 7722 91bb
00000310: cbee f03b 5bc8 00bc f09a 233c a635 a53d
00000320: 5037 9f39 9f93 acbe e5fa 5f3b 2111 8abd
00000330: 3c2d e7bb 5014 9bbb d8a5 143a 1f0c 9abb
00000340: fb92 663a 106c 99bb d7e0 b43b d0ca d83b
00000350: 4faf 99bb 11bf 50bb be41 5d3c c469 e03c
00000360: 822e 953a 6a01 dbbb 94d9 a1bb fc9f e9bb
00000370: 0129 053e 28fe 113a d549 10be bc9f cb3b
00000380: 4f87 453b 1135 d0b8 d4f5 5abc cb31 a13b
00000390: 09c8 d53e 6cc5 dfbb f4f9 923a fa31 a33b
000003a0: fac3 6d3b 0e5d 6b39 dfe3 babb e82d 6abe
000003b0: c64e c03b d380 e0bb dee5 22ba bdce b5bb
000003c0: fd0d afbb 5447 8d3e d02f d739 ffab 0cbe
000003d0: cf6f 3e3b c6d5 b5be 99b7 ddbb fcc6 7b3a
000003e0: bcd7 8c3a f9f3 553a 8d49 3dbe d3b0 a3ba
000003f0: af95 9b3e fe41 e1be 6c30 a0bb b9ea 85be
0.0005941995 -0.039092604 -0.00014159684 -0.05357542 0.0042575058 0.044015974 -0.0043715616 0.0029676133
-0.0014388036 -0.00037631032 0.28006998 0.0043812846 -0.024124289 0.051560618 -0.0008495111 0.497013
-0.049276214 -0.0010372887 0.07798731 -0.0008607446 -0.0029361676 -0.17414874 -0.00019513059 0.00344262
0.028045297 3.431026e-05 -0.005747593 -0.0023274005 0.00026397963 0.009245477 -0.005396314 -0.049972977
-0.0032458212 0.0031438952 -0.0623705 0.0023873597 -0.0011888843 0.0022774788 -0.004124366 -0.16848367
-0.00037314222 0.102957845 -0.0013813524 -0.048967123 0.0027402209 0.005157673 -0.0016095971 0.0003297853
0.0019973107 -0.000941483 -0.0035915168 0.0012978266 0.0025099167 -0.00094997353 -0.0029850646 -0.09534344
0.0003512572 0.0040286086 0.0042013563 0.0016226791 0.1589904 -0.0001098608 0.025387358 0.00016484753
-0.0022177657 -5.8712878e-05 0.044321693 -0.0010913508 -0.43322885 0.002388905 -0.0015027799 -0.0024084162
0.0002849751 -0.0024668323 -0.0009193945 0.02014616 -0.00026566203 0.0021493149 0.018363815 -0.00056755653
-6.966652e-05 0.16228583 0.0028377739 0.0005580134 -0.0035025945 0.104931965 -0.0029242996 -0.0038180933
-0.0025378654 -0.0038896252 0.15896839 -0.0013970542 -0.09166508 0.10928856 -0.0033229985 -0.20169003
0.038541168 -0.00096742896 0.4110956 0.0023869458 0.0026075027 0.37298274 -0.00032350287 -0.025243104
0.050754685 0.0015861759 0.00021502549 0.0014117536 -0.0022510723 -0.10837639 -0.00027936636 0.025407178
0.0023762472 1.7041864e-05 -0.018364184 0.0013285975 0.0042231553 -0.00395006 0.0023178814 -0.10937757
0.0032513724 -0.18966521 0.0034430155 -0.0014404313 -0.004443075 -7.94709e-05 -0.0015889094 -0.0038076935
-0.00028611114 -0.0033829298 -0.0018936776 -0.002162089 -0.00080610596 0.0003878492 0.0019844586 0.15546936
-0.003736279 -0.0047242246 -0.004503776 -0.0023755499 0.3124697 -0.0033787913 -0.0004039234 0.0020425774
-0.0004989893 -2.7866034e-05 0.1860336 0.0051577124 -0.17980239 0.00052538066 -0.0013360254 -0.00022497594
0.0010065738 -0.0005227027 0.00042595202 0.009604035 0.00077538413 -0.0024437178 -0.012760931 -0.0023187324
0.005526367 0.2557785 0.0045082076 0.01181093 -0.0073926016 -0.1906737 0.004050532 -0.005761485
-0.0014798816 0.0046967356 -0.21508156 -0.0060674604 0.076584496 -0.18090636 -2.521446e-06 -0.12615211
-0.20369852 -0.0014643262 0.13344087 -0.00041313973 0.006287564 -0.05619048 -0.00039783225 0.048676427
-0.057325467 -0.0013543004 0.010277716 0.0013429909 0.000469086 0.2721083 0.005877718 -0.20399444
0.0066583925 -0.0044195093 0.07545872 -0.0044291574 0.007352685 -0.0078602685 0.00998567 0.08066873
0.00030368054 -0.33706376 0.0034176644 -0.06741548 -0.007054953 -0.004732646 0.00056704646 -0.004701152
0.00087957055 -0.0046820715 0.005519967 0.006615974 -0.004690088 -0.0031852166 0.013504444 0.027394183
0.0011381658 -0.006683518 -0.0049392674 -0.0071296673 0.13003923 0.0005569183 -0.14090665 0.00621411
0.0030140465 -9.928097e-05 -0.013364274 0.004919266 0.41754177 -0.0068289544 0.0011213408 0.004980323
0.0036280141 0.00022446012 -0.005703434 -0.22869074 0.0058687655 -0.0068512945 -0.00062140625 -0.0055483268
-0.0053422437 0.27593482 0.0004104362 -0.13737486 0.0029058342 -0.3551466 -0.0067662713 0.0009604541
0.0010745446 0.000816166 -0.18485089 -0.0012488611 0.30387637 -0.4399566 -0.004888585 -0.26155642

_logits._model.0.bias f4 [4]
00000000: 573a 5bbe e6c4 d0bd 1d15 793e 133f ba3e
-0.21408974 -0.101938054 0.2432446 0.36376247

_hidden_layers.0._model.0.weight f4 [80, 13]
00000000: 976d 993d d97d 923d d615 803d bdfb b93f
00000010: f35f b5be 1f3d 93be a2d5 593d 1c95 a5be
00000020: b129 0a3e cef1 de3e c6bb 91be 5968 b73f
00000030: 4772 1e3d e57b 82be add9 f3bd af31 d0bd
00000040: 3880 adbe d0bc 183e ed82 edbd 0b41 2ebd
00000050: 2f4b e23e 4331 753f f1dd 53bf 6e12 973d
00000060: 4fa9 05bf dfef 4a3f 5a95 af3e edbe b23c
00000070: 293a 7cbd a991 433f 61d3 c83e 751e e4be
00000080: 77ce ac3d e071 303e ad1e 823e 7e07 aa3f
00000090: 8f78 01bf bc45 b53f c794 e33d e87a 333d
000000a0: efa5 cbbd ef78 a43d 1625 543e 822a 0bbe
000000b0: 4cab b53e 9e88 cd3e e50d 523d 9841 a03d
000000c0: ba24 08bf 36d6 91be ae50 08bf d640 2b3f
000000d0: 54cd dcbd 2e2b 593d d8bb c33e 6536 91bc
000000e0: bea0 693e 3685 ca3c e4a2 76bc a26b 74be
000000f0: 211a 37bf c331 d8bf 6c70 23bf 7f6e 0dbf
00000100: 1fe3 1d3f 5c28 4fbd f0d1 e6be c6cb e0bd
00000110: 1b9c 87bf 5775 493d e385 e53e fc4f 723d
00000120: ba80 d43e b042 463e beac 3d3e 0bec 063f
00000130: d4a5 9c3f d43f 963d 2462 30bf 026b 0abf
00000140: f8f7 0a3e 1241 433e d814 f33e 888c e4be
00000150: 1d08 333f 0e2c 333f 35e0 2d3f d7da eb3b
00000160: 8e1e 15c0 1cbb 7abe 508c b2be f8de 123e
00000170: ea46 81be a77b 1e3e c058 0bbf c820 033f
00000180: 9a02 913e 4dd1 ec3b 7b02 83be 91d2 023f
00000190: e4c4 a03f 4184 0e3f 3322 ca3e 95aa 94be
000001a0: a6bd 483e 044b 28be 36b6 843e cca5 cd3e
000001b0: f785 953d c6c7 023e c8cc 4b3d c9cc d4bd
000001c0: 970c 353f 7925 0cbf 83c1 283f 98dd 39bf
000001d0: 0f14 f5be 67a1 babd cca9 ef3e a0a8 d83e
000001e0: 80e2 a93e fb69 1cbf b7d7 62be 3332 4f3e
000001f0: fe5a 95be 344c b73e eefd e0bd cc29 25bf
00000200: 8645 62bf 344f 073f 748a d1bd 2110 3b3c
00000210: e0b1 c3bd 783a 6a3c e7c3 d1be 1a1c 053f
00000220: f5e9 f6bb 1f7b 15bc b814 b03c 8f80 783f
00000230: 899f 83bf 5b1f 4ebf 458f 7bbe 852c 653e
00000240: 54a1 6cbe da00 0c3e ceae 373f 199c 733e
00000250: 3877 17be 7370 68bd 278f c93e 07df 09bf
00000260: 6b96 b23e 2500 62be 9ae6 a63e 14b9 563f
00000270: e69d dfbd 8c33 0d3f 18f7 053d f7de 96be
00000280: 6e60 233e cdf0 2dbe d15c abbe 20e8 d33e
00000290: 4c49 17bd 50cf b3bf db7b 8d3e 48c7 46bf
000002a0: 279d 693e 32dc 083e 1087 b43e 56ee 9c3d
000002b0: 9516 c2be ee51 d23e 2269 33bd 336b 04be
000002c0: 1952 2dbe 1b75 37be e264 313f bffe 5a3f
000002d0: a9b3 943e 5eb8 0cc0 e505 29bf f8ab 03bf
000002e0: 34bd b4be de34 643d b2ad ef3e ba7a 04be
000002f0: fb7c c8be 0d86 983e ba64 93be df28 5a3e
00000300: 5b53 fcbf 2cdc 4fbe a796 9cbf 9af3 973d
00000310: 872c 01bf 16fd c0be 5f14 693e ab18 543c
00000320: d24b b23e 73e5 5a3f 16e3 21be 8584 13bf
00000330: bd26 333f ba2c 95bf 806c 7e3d ab4e c7bf
00000340: 9264 883d 2413 ffbe b095 a2be 3ec3 2e3e
00000350: fd1b a0be 269e 8fbd c37a 9dbc 7f9a 2bbe
00000360: 8c5f 2a3d 2174 03bf 12d2 283f fe6f a13f
00000370: 3065 fd3e e9a2 343f 94db 463f 0515 d3bd
00000380: c219 0f3f 33f5 5dbe 3189 303e 9a42 9f3e
00000390: 20b2 22bf f445 84be f611 52bf f14c 08bd
000003a0: 03b9 a73e a092 123f 5559 01be 070b 40be
000003b0: fe0b 033d 263a 2c3e 7af7 753b a2c9 933e
000003c0: 7ce1 9bbe 9cb1 863e a279 acbe 12c0 a7bf
000003d0: 0d8a 97bf 2c6f 083f ff23 38bf 3cec 4dbd
000003e0: b4af 803c 171a ffbd 14e8 aebd dd02 22bf
000003f0: db54 a4be 1d68 613e f689 adbe 4c19 18bf
0.07491606 0.0715291 0.06254165 1.452995 -0.35424766 -0.2875757 0.05318225 -0.32340324
0.13492467 0.43543857 -0.28463572 1.4328719 0.038683202 -0.2548515 -0.11906753 -0.101657264
-0.33886886 0.14915776 -0.11597238 -0.0425425 0.44197986 0.9577829 -0.8276053 0.07376562
-0.5221147 0.79272264 0.34293634 0.021819556 -0.061578903 0.76394135 0.3922377 -0.44554487
0.084378175 0.1723094 0.2541403 1.3283536 -0.5057458 1.4161906 0.111123614 0.043818384
-0.09943759 0.08030879 0.20717272 -0.13590434 0.35482252 0.40143293 0.051282782 0.07825011
-0.5318104 -0.28483742 -0.5324811 0.66895807 -0.10781351 0.053019695 0.3822925 -0.017726133
0.22815225 0.024721723 -0.015053485 -0.23869184 -0.71524245 -1.6890186 -0.6384342 -0.5524673
0.61674684 -0.0505756 -0.45082045 -0.10976367 -1.0594515 0.04918417 0.4482871 0.05915831
0.4150446 0.19361377 0.18522927 0.52703923 1.2238107 0.07336393 -0.6889975 -0.5406953
0.13571155 0.19067791 0.4747684 -0.44638467 0.69934255 0.699891 0.6792024 0.0071977186
-2.32999 -0.24485439 -0.34872675 0.14342868 -0.25249416 0.15476857 -0.54432297 0.51221895
0.28322297 0.007227099 -0.2558783 0.5110255 1.2560086 0.55670553 0.39479217 -0.29036394
0.19603595 -0.16434866 0.25920266 0.40165555 0.073009424 0.1277152 0.04975584 -0.10390622
0.70722336 -0.5474468 0.65920275 -0.7260375 -0.47866866 -0.09112816 0.46809232 0.4231615
0.33180618 -0.61099213 -0.22152601 0.20233993 -0.29170984 0.35800326 -0.10985933 -0.645169
-0.88387334 0.5285523 -0.10231486 0.01141742 -0.09555411 0.014296167 -0.40969774 0.51996005
-0.007535214 -0.009123593 0.021494254 0.97071165 -1.0283061 -0.80516595 -0.24566372 0.22380264
-0.23108417 0.136722 0.71751106 0.23790015 -0.14791572 -0.056747865 0.3936703 -0.5385594
0.34880385 -0.22070368 0.3259781 0.83876157 -0.109187886 0.5515678 0.03270635 -0.29466984
0.15954754 -0.1698639 -0.3346925 0.41388035 -0.036935136 -1.4047642 0.27633557 -0.7764783
0.22813855 0.13365248 0.35259295 0.076626465 -0.37907854 0.41078132 -0.043801434 -0.12931518
-0.16925849 -0.17915766 0.6929456 0.8554496 0.2904332 -2.1987529 -0.6602462 -0.5143428
-0.353006 0.05571448 0.46812207 -0.12937441 -0.39157853 0.29789773 -0.28787786 0.21304654
-1.9712938 -0.20298833 -1.2233475 0.0741951 -0.5045857 -0.3769309 0.22761677 0.012945334
0.3482347 0.8550636 -0.15809283 -0.57624084 0.69980985 -1.1654274 0.062115192 -1.5570883
0.06659807 -0.4981929 -0.31754827 0.17066666 -0.31271353 -0.07012586 -0.019223576 -0.16758154
0.041595027 -0.51349074 0.6594554 1.2612302 0.49491262 0.7056108 0.776788 -0.103067435
0.5589868 -0.21675567 0.17239834 0.311055 -0.6355305 -0.2583462 -0.82058656 -0.033276502
0.3275834 0.5725498 -0.12631734 -0.18754207 0.03199386 0.16819057 0.003753154 0.2886477
-0.30445468 0.2630738 -0.33686548 -1.310549 -1.1839005 0.53294635 -0.71929926 -0.05027412
0.015708782 -0.12456148 -0.08540359 -0.6328562 -0.3209599 0.22012372 -0.33894318 -0.594136

_hidden_layers.0._model.0.bias f4 [80]
00000000: fa28 81bd f62a 67bd 119f ffbd bda3 37be
00000010: f89a 113e 317b babd ddba 9bbe b232 1ebe
00000020: 4854 d5bc 532b 203e 40c5 14be 8b36 343d
00000030: 069a 123e a1f4 d83d a4a2 78be e948 d23c
00000040: 737b 94bc a492 903e 714c 0bba 8b5f 123d
00000050: 9109 f4bd dbc0 83bc 0c87 95bd f7e8 fdbd
00000060: b154 91bd 4259 053e e7d0 743e 5d11 b93c
00000070: fdc5 1abe 4925 323d b016 eabd f5b3 b03e
00000080: c51e 8f3e 924d 573e db2b 473c 3128 803d
00000090: 2c06 853d 8057 113d 9b5a de3d d648 c03c
000000a0: eb79 0cbe 83b5 e1bd 42ff b5ba 2ff2 dd3b
000000b0: f621 843b a239 c13d 3e39 093e 5587 3f3e
000000c0: 8709 09bc 0319 173e b9aa 9fbd 4cca 5abd
000000d0: 2d77 24be b8ce 24bd 3311 ae3d df00 823e
000000e0: 0f8e ea3c 2658 0fbe 5ddc 013d 0ee7 28be
000000f0: 064c 60bd c2fa 253e 5a38 5cbe ea58 b2bd
00000100: b393 0d3e 5baf a2bd e6df 8ebd f813 28be
00000110: d5e7 3cbd 079a 533b 9650 12be e715 423d
00000120: 9311 c73d e534 2d3e 567a 223d dced 9bbe
00000130: c1a6 c33e 9bef c9bd 2c21 d3bc 840c 953c
-0.06306644 -0.056437455 -0.124815114 -0.17933555 0.14219272 -0.09105528 -0.30416003 -0.15449026
-0.026041165 0.15641527 -0.1452837 0.04399733 0.14316568 0.10593534 -0.24280792 0.025669532
-0.018125271 0.28236878 -0.000531382 0.035735648 -0.11915887 -0.016083172 -0.07301149 -0.1239795
-0.07096232 0.1302233 0.23907815 0.022591287 -0.15114589 0.04349259 -0.114301085 0.34512296
0.27953163 0.21025684 0.012156452 0.06257666 0.06495318 0.035483837 0.10857125 0.02347223
-0.13718383 -0.11020949 -0.0013885277 0.0067732553 0.004032369 0.09434821 0.13400742 0.18703969
-0.008364088 0.14755635 -0.07796235 -0.05341558 -0.16061087 -0.040236205 0.08499374 0.2539129
0.028632192 -0.1399847 0.031704295 -0.1649439 -0.05476 0.16208938 -0.21505871 -0.08708365
0.13825874 -0.07943603 -0.06976299 -0.16413867 -0.04611953 0.0032287852 -0.14288554 0.04738417
0.09720149 0.16914709 0.03966745 -0.3045491 0.3821316 -0.09860154 -0.025772654 0.018194444

_hidden_layers.1._model.0.weight f4 [80, 80]
00000000: da75 26be 80dc fb3d bbe7 843d bda6 2cbe
00000010: 307f 093d b8f1 0c3e 3774 0c3d d2b4 cbbb
00000020: 1896 cbbd 0f21 f63d a1d6 953d 2671 c0bb
00000030: 137d e9bb 9197 99bd 3a3c 37be b7e2 bb3d
00000040: 1717 c13d 10b4 a8bd 7863 1e3e e2de 1cbd
00000050: 406a c2bd 2545 513e 6ea2 053d c2ab 313c
00000060: d108 fc3d 16e3 adbd 0e3f 8dbd 3915 553e
00000070: c401 903d f210 8a3d c977 0a3e ae50 0a3e
00000080: d3c2 fdbc b1eb 83bd fd74 0f3c dc20 e43d
00000090: c2d2 baba ed8a 453d f848 123d ebca 0fbe
000000a0: d779 8abb 85d3 fc3d 756e ee3d 0e1a 25be
000000b0: 9b4f a6bd e8f6 263d 1867 b7bd d00d 1d3e
000000c0: 0eda 503e 11c0 29be 23fd 593d ff6c 533e
000000d0: 854a 0abd 6a2f e5bb c4ca 90bc 5b13 b5bc
000000e0: 9353 40bc c3cb 193e 9997 16be d12b 02bb
000000f0: cb66 11be 7eed 15be 398b 18be a640 28bc
00000100: a820 4fbd bb61 88bd 040e 6bbd 2b0f b4bd
00000110: da41 abbd bb5e 973c ad7c b03c 0439 023d
00000120: 1b90 723d 8f1b 1d3d 90c1 22be bcb3 83bd
00000130: ae4a 013e 3482 c03d b620 30bd b2a4 e7bd
00000140: 8ef8 76be d51f 49be d9ea 76be ef78 d93d
00000150: d321 4aba 3f72 f8bc 29be 073f ff7d a3be
00000160: ec68 a0be 9bdc bdbe b231 293e 6911 c2bd
00000170: a09d c13c eaf3 9dbd c418 413f 9820 ba3e
00000180: 3449 46bb cb59 adbe cbea 333e bca3 e03e
00000190: 13b1 f13d d405 533d 30ef d23d 9d52 7b3e
000001a0: 4a44 603e b0cc 30be c1e9 91be 9ab8 b7be
000001b0: 4479 a33e 2582 96bc 8731 1e3f 6452 35bf
000001c0: 2cb4 4dbf 0d3a ac3d b63a ccbe 4b25 bf3d
000001d0: 7137 a6bc 7006 9dbe 3591 59bf 3549 933e
000001e0: 051d 13be 3b9f e13d d682 a9be 006c 45bf
000001f0: dcdd 0e3e d603 8cbd e424 e8bd 9393 023e
00000200: 2c43 9dbe e324 10bb 7c64 143f 34cc d73e
00000210: 92cb 9a3e 2d1b 993c 01ba 47be 258b b4bd
00000220: 0ee9 69be ceea 33be 34ba b1be 4342 b1be
00000230: cd50 4cbe 47ac 79bf ecb8 2cbe 2652 b53e
00000240: ee75 4dbe 97b4 623f 1c63 333e 0246 4e3f
00000250: f0e0 2f3f 5f4c a13e 3844 6e3d b352 97bd
00000260: 7617 9abc f760 1dbe 4437 2dbe bdbb 0cbb
00000270: c4b7 b1bd 6397 c4bc ccac 63be af18 333f
00000280: f786 51bd c762 e93d 3122 17be 6421 8cbd
00000290: a945 afbd c427 4abd d9d8 63bd 58f9 493d
000002a0: 2142 ca3d ffc9 143b 06af 30bd c73c 1e3e
000002b0: 02f1 e13d cd1a 0cbd 2c7f ba3c dba1 173d
000002c0: 97c9 b3bd 988f 8bbd 1ec2 39bd 24cc b3bd
000002d0: 3f0f 6e3e 4581 60bd ebbc e43d a718 07be
000002e0: 38c4 093e 6834 013d 8707 553c 035b 6f3c
000002f0: 74fa 08bd 8c94 6d3e 88db 75bc 500a 553c
00000300: d6bf 0b3a f9b7 863c 9d22 dcbd 7ebe d0bb
00000310: 06f4 0fbd 9b50 983c 7292 08bd 8491 0d3e
00000320: c477 92bd c3d3 abbc d523 f1bc 99f5 babd
00000330: f552 1fbe 27c4 b33b 394e 14be d4d0 36be
00000340: f5db eebd fca8 c6bd 2b04 213e 1cb1 77bd
00000350: b8ce a43d d41e 35be a9b4 723d d81d 1bbc
00000360: 57ad 88bd c007 fcbc fd4e 42bc 6dd8 57be
00000370: 47be 1c3d f7b9 b93d 79b7 133e 4430 54b8
00000380: f014 4b3b c669 2fbe 3651 eebc 15b5 7bbd
00000390: 4607 29bd 447f f43c 0f94 e0bd 961f d73c
000003a0: 56b4 103e 6eb6 10be 7914 a8bc 04f6 2a3e
000003b0: f498 ebbc f3ac 82bd 8836 343e 713f 6d3d
000003c0: ad21 94bd 9a86 6dbe cf86 c13e 0197 e33d
000003d0: 9842 7abe 3a20 1fbc 525a 933e 4106 403e
000003e0: 4409 be3c 0de9 3fbe 63f8 c33e 143f b83d
000003f0: 8151 8dbe b7fa f73c 95a0 de3d d72f af3e
-0.16255894 0.122979164 0.064895116 -0.1686048 0.03356856 0.13764083 0.03429052 -0.006216624
-0.099407375 0.12018024 0.07316328 -0.0058728633 -0.0071255057 -0.07499612 -0.17894068 0.09174102
0.09428232 -0.08237469 0.15467632 -0.038298495 -0.09492922 0.20436533 0.03262561 0.010844173
0.12306369 -0.08490579 -0.06896792 0.20808877 0.07031587 0.06741513 0.13522257 0.1350734
-0.030976688 -0.06441439 0.0087559195 0.1113908 -0.0014253485 0.048228193 0.03571412 -0.14042251
-0.00422595 0.12345032 0.11642162 -0.1612322 -0.08120652 0.040762812 -0.089552104 0.153373
0.20395681 -0.16577174 0.053219926 0.20647047 -0.033762474 -0.0069941776 -0.017674811 -0.022103956
-0.011738676 0.15019135 -0.14706267 -0.0019862542 -0.14199369 -0.14641377 -0.14896859 -0.01026932
-0.050568253 -0.066592656 -0.057386413 -0.087919556 -0.083621696 0.018477788 0.021543825 0.031792656
0.05921946 0.03835636 -0.1589415 -0.06430766 0.12626144 0.09399834 -0.042999946 -0.1131071
-0.24118254 -0.19641049 -0.24113025 0.106187694 -0.00077107287 -0.030327914 0.53024536 -0.31932065
-0.3133005 -0.3708237 0.16522864 -0.09475977 0.023634732 -0.077125385 0.75428414 0.36352992
-0.0030256035 -0.3385757 0.17570035 0.4387492 0.11801352 0.05151923 0.10299528 0.24543233
0.2190105 -0.17265582 -0.28498653 -0.35883027 0.31928456 -0.018372605 0.6179432 -0.70828843
-0.80353045 0.0840951 -0.39888543 0.09333285 -0.020290108 -0.30668974 -0.84987193 0.2876679
-0.14366539 0.11016699 -0.33107632 -0.7711792 0.1395182 -0.06836669 -0.11335161 0.12751608
-0.3071531 -0.0021994642 0.57965827 0.42147982 0.30233437 0.018689716 -0.19504549 -0.08815602
-0.2284281 -0.1757004 -0.34712374 -0.34620866 -0.19952698 -0.975285 -0.16867417 0.35414237
-0.20064518 0.8855681 0.17518276 0.80575573 0.687026 0.3150358 0.058170527 -0.073888205
-0.018810015 -0.1536902 -0.16915613 -0.0021474205 -0.08677629 -0.023997968 -0.22233886 0.6995954
-0.051154103 0.113957934 -0.14759137 -0.06842306 -0.085582085 -0.04935433 -0.055626724 0.04931006
0.09875894 0.0022703407 -0.043135665 0.15452872 0.11032297 -0.034205247 0.022765718 0.03701959
-0.087786846 -0.06814498 -0.04535114 -0.08779171 0.23248003 -0.05481078 0.11168846 -0.13192998
0.13453758 0.03154412 0.013002283 0.014609101 -0.033441976 0.23201197 -0.015005954 0.013002947
0.0005331015 0.016445147 -0.107487895 -0.0063703647 -0.03514483 0.018593123 -0.033342786 0.13825041
-0.0715175 -0.020975 -0.029436031 -0.09128875 -0.1555899 0.0054860297 -0.14482965 -0.17853099
-0.11663047 -0.097002 0.15724246 -0.06047164 0.08047241 -0.17687541 0.059254322 -0.0094675645
-0.06673687 -0.030765414 -0.011859653 -0.21078654 0.0382674 0.09068673 0.14425458 -5.058969e-05
0.0030987822 -0.17130193 -0.029091459 -0.06145199 -0.041266702 0.029845841 -0.1096574 0.026260179
0.14131293 -0.14132091 -0.020517575 0.1669541 -0.028759457 -0.06380644 0.17598927 0.05792183
-0.07232986 -0.23195878 0.37798163 0.11112786 -0.24439466 -0.009712273 0.28779846 0.18752386
0.023197778 -0.18741246 0.38275442 0.08996406 -0.27601245 0.030270917 0.10870472 0.34216186

_hidden_layers.1._model.0.bias f4 [80]
00000000: 9776 e1bc b45d 98be 645d 993c 1186 35be
00000010: 8ac7 b8bc 23c1 66bc 2613 0f3c e8fe 46bc
00000020: f946 95bd 314d 2b3c 43a4 a3be de85 0a3c
00000030: 0ca6 f63d 407c 013e 27d8 69bc d4ca 693e
00000040: 0c00 bdbe d23e 1b3d 7aad b63e 6115 44bc
00000050: 847d 023d 1c86 eebd 3ad1 51bd 6ea0 4f3e
00000060: 2073 2c3e 9e96 7fbb f3b2 15bc ae61 ec3c
00000070: 01d3 d2bc 993c 84be 8a22 b2bd afef b4bc
00000080: 1323 b2bc 214b 633d cdd9 683e 741d 003d
00000090: b451 97bc adc7 9abd 4cae ff3c 4be7 293e
000000a0: d6a8 503c bb2b 9a3e 30a2 8fbc d14f 213c
000000b0: 9a9c e33c bbe9 963d fd17 33bd 7310 3bbd
000000c0: 27e4 b8bc f376 2b3d bfb1 5abc bda7 d63b
000000d0: 8a3e 92bd 5fc3 bbbc 3dde 8c3c eec7 e7bd
000000e0: 80b2 2abd 099f 04bc a443 f6bb f8d4 7c3d
000000f0: e8cc 413b d9ea 5d3c b8e1 56bd 9b27 69bd
00000100: 0e47 35bd 0b88 c83a 532e 073e af63 13bb
00000110: 00b2 9dbe 9bcc 0b3d 438d 02bd a0c0 e63b
00000120: 1377 36bd 632b 873b a252 87bd 690a 60be
00000130: 3b86 223c 4e43 703c c251 993a 56f9 29bd
-0.027522368 -0.2975899 0.01872129 -0.17726924 -0.022556085 -0.014084133 0.008732593 -0.012145735
-0.072889276 0.010455416 -0.3196126 0.008454768 0.1204339 0.12645054 -0.014272726 0.22831279
-0.36914098 0.037901707 0.35679227 -0.011967988 0.031857982 -0.11646673 -0.051224925 0.20276043
0.16840792 -0.0038999687 -0.009136903 0.028855171 -0.02573538 -0.25827482 -0.08697994 -0.022086946
-0.02174524 0.05549157 0.22739334 0.03127809 -0.018471576 -0.075576164 0.03121104 0.16592138
0.012735566 0.3011149 -0.017533392 0.00984569 0.027784634 0.07368799 -0.04372405 -0.045669984
-0.022569729 0.041861486 -0.013348042 0.0065507577 -0.07140835 -0.022920309 0.017195815 -0.113174304
-0.041674137 -0.008094558 -0.0075153876 0.06172654 0.0029571597 0.013544762 -0.052461356 -0.056922536
-0.044257216 0.0015299333 0.13201265 -0.0022489836 -0.30799866 0.034130674 -0.031873 0.0070420057
-0.04454715 0.004125045 -0.06607558 -0.21878971 0.009919698 0.014664484 0.0011697339 -0.04149755
