Project/Assets/ML-Agents/Examples/Soccer/TFModels/latest_PurplePlayer - Copy.onnx (onnx, 34035 bytes, 6 tensors)

_logits._model.0.weight f4 [4, 80]
00000000: 0779 113d 771d 0a3b 31ad bc3c 885a afbd
00000010: 0045 f73c e982 bdbd 6f93 223e 4108 96bb
00000020: 8d06 9a3d 4baf a7bc 4ff8 efbc ec67 1f3c
00000030: 1daf 033c 5d37 8bbd 02ad 163e b7bb 96bd
00000040: 777d 54ba 18cd ef3c dc46 a93c 75e8 07bc
00000050: aa2e 98bc 4424 15be d841 99bd 19ed a0bc
00000060: 8285 5fbb 702e 943c 457c aeb9 904f d53c
00000070: 8a38 263d 182c 3f3b 4972 0bbc b28e ab3d
00000080: 39ae cfb9 d7c6 5cbc 490e 83bd 0583 ba3c
00000090: dfbd b83b a8b8 8abc 27d7 c13b 9ffb 4ebc
000000a0: 58e3 b43a c7db 213c d453 803d c1c9 0ebb
000000b0: 7383 003d 541a bbbc f878 2f3c d0ea f0bc
000000c0: e53d b23c 74f3 3b3a 2902 5a3e 189f 83bb
000000d0: 1207 1dbd 8fac 4e3d 576e 9d3c 5b73 75bc
000000e0: 3317 bdbc c79e 8b3a dc37 c8bb 8411 99bd
000000f0: 7108 7abc 5b6b 7734 66ad 003d 4028 cebc
00000100: 9f4c 4abd f4bb ae3d 60a4 3dbc 146a 943b
00000110: 0984 873d ffaa bf3a b703 d43c 06f5 e23a
00000120: 4f3d 08bb 3b01 6c3b 0071 2bbc 75bf 0cb8
00000130: 80b4 9fbc 6c25 893a 300f 6aba b30b af3b
00000140: cbee 09bd 68bb d63c 9b97 29bc e8d9 5b3c
00000150: dc16 85ba 6a47 c1bd eff5 a03c f23d ab3a
00000160: b2d4 aebc bef9 c6bb 552c d2bc 57d6 e2bb
00000170: fc54 06bc 781e 253c 9da5 50be ee3d 143e
00000180: cfb3 863d 25a9 98bb cd1f 86bd 2451 c239
00000190: edd1 dfbc 468a 22be 4cb6 563e b369 ab39
000001a0: 8941 ba39 938e 11bc aa68 923b 1b9a 533c
000001b0: 7cfc 5e3b 821e 183c 4697 48b8 79eb 923e
000001c0: 9b9e 873c 5636 af3c 6113 ed3c d091 9cbb
000001d0: 1f3b 063a a645 1c3c 6ebd a93c b188 163a
000001e0: ed83 ea3c bb14 003a 8a87 7c3c b3bd 32bb
000001f0: 761f e3bb 0976 28bc 76ac 39bb 423b 0d3c
00000200: d293 ce3b 2221 1abb c658 76bc 5f9b 0fbb
00000210: 1a47 f73b 4b62 db3b d6c2 20bc 4d07 dc3b
00000220: 2909 4f3c 5173 e3bb c8d0 353a b46b e83b
00000230: 3ba1 f43b e391 3cba 7d17 343c 9740 9a3c
00000240: a6d4 55bd e445 14bc d5f9 59bc 9b48 d9ba
00000250: d6ec 56bc 6be5 e93b 09aa 913b 1932 313b
00000260: 1520 7abb 6635 b63b 44ff a63b 1994 0bba
00000270: 03a1 f83d d2d3 793c 39d1 acb9 80c4 5b3c
00000280: 7539 6f3d 9ddb 9bbd 09f2 913d 8cd3 1e3e
00000290: 948e 96bd 8489 923d d41c 30be 890a f0bd
000002a0: 8a7b 613d 1dd0 103e 1063 5e3e 9c05 11be
000002b0: 9e50 bfbc f917 d23d 040a a7bd ac0b 103e
000002c0: f834 523d dd2f a1bd a9af 74bd f66e 8bbd
000002d0: 69d1 9e3d 80fd a53d fabf 01be f4e2 e73c
000002e0: 604f e83a ee21 4ebd 4beb 693b 617e 5d3e
000002f0: 0572 623e 55c7 ecbd fcff 863d 7447 853d
00000300: 960c 6bbe 51f3 32be 7c1d 8ebc 7916 5b3e
00000310: f933 fe3d 3d40 05be 8f2e 3bbe 1514 f33c
00000320: 5647 f9bd 312b b33d b48f 28be fa26 68bc
00000330: a1b1 d7bd 56fc 0d3e 9ebc 64bc 8ee0 863d
00000340: 4101 273e 6d0d 1f3d ae7a 3abe 1d67 06bd
00000350: 66a4 2a3c 0f18 5fbe ee45 643e 754f 1e3e
00000360: 92ad 893c 46b9 08bd 43c6 b93a 85fb 953d
00000370: d471 f4bd e144 c8ba e606 543e b9bd cebd
00000380: 5723 e83d c0fb 153d e523 2abe 2ef2 23bc
00000390: fd56 4dbd 4fe4 8bbc b85c a1bd 24d1 ae3b
000003a0: 9235 843c 6b1c 37bd d29e 803d c669 03bc
000003b0: 10c2 0f3e 77b7 3dbe 219d 233c d4fb f03d
000003c0: 191b 3f3e 7fe6 26be 9a41 123c 7087 2f3c
000003d0: ba5f dbbd 34b7 343e 1895 ac3d 19c8 0fbb
000003e0: 2e4e 173e a283 723d fa86 4b3e 6524 c2bd
000003f0: 04cb 10be 1d67 9e3d 0044 a2bd 961f c6bb
0.03551581 0.0021074691 0.023031803 -0.08562189 0.030184269 -0.09253485 0.15876554 -0.0045786207
0.07520781 -0.020469328 -0.029293207 0.009729367 0.008037356 -0.06797669 0.14714435 -0.073600225
-0.0008105854 0.029272601 0.020663671 -0.008295168 -0.018576939 -0.14564615 -0.07483262 -0.019644307
-0.0034106676 0.01808855 -0.00033280454 0.026038915 0.040581264 0.002917057 -0.008511134 0.08376826
-0.00039611923 -0.0134751415 -0.06399209 0.022767553 0.005637869 -0.016933754 0.0059155407 -0.012633233
0.0013800664 0.009879059 0.06265989 -0.0021787735 0.03137536 -0.022839703 0.010709994 -0.029408842
0.02175803 0.0007169761 0.21289887 -0.004016768 -0.03833682 0.050457533 0.019217653 -0.014981116
-0.023082351 0.0010652178 -0.0061101746 -0.07474044 -0.015260802 2.3042723e-07 0.031415366 -0.025165677
-0.049389478 0.08531943 -0.011574835 0.004529247 0.066169806 0.0014623104 0.025880678 0.0017315454
-0.0020788496 0.0036011476 -0.010463953 -3.355691e-05 -0.019495249 0.0010463423 -0.0008928655 0.005341971
-0.033674996 0.02621241 -0.010351087 0.013418652 -0.0010153907 -0.09437449 0.01964852 0.0013064726
-0.021341655 -0.006072252 -0.025655905 -0.006922524 -0.008198973 0.010078065 -0.20375676 0.1447675
0.065772645 -0.0046588355 -0.06549034 0.00037063018 -0.02732178 -0.1587306 0.20967978 0.00032694414
0.00035525512 -0.00888409 0.0044680433 0.01291516 0.0034025004 0.009284617 -4.78246e-05 0.28695276
0.016555121 0.021388214 0.028939905 -0.0047781244 0.0005120504 0.00953809 0.02072021 0.00057424145
0.02862736 0.00048859016 0.015413174 -0.0027273714 -0.0069312407 -0.010282048 -0.0028331554 0.008620085
0.0063042426 -0.0023518284 -0.015035814 -0.0021912677 0.0075463178 0.006695067 -0.0098120775 0.0067147375
0.012636461 -0.006941237 0.0006935713 0.0070929173 0.007465509 -0.00071933697 0.010991928 0.018829627
-0.05220475 -0.009049866 -0.0133041935 -0.0016577424 -0.0131179895 0.0071379445 0.0044453186 0.0027037917
-0.0038166095 0.005560565 0.005096348 -0.00053244975 0.121400855 0.015248256 -0.0003296228 0.0134135485
0.058404405 -0.07610247 0.07126243 0.15510386 -0.07351413 0.07155135 -0.17198497 -0.117207594
0.055049457 0.14141889 0.21717477 -0.14162296 -0.023353871 0.10258479 -0.08156207 0.14066952
0.051320046 -0.07870457 -0.059737835 -0.068082735 0.077547856 0.08104992 -0.1267089 0.028306462
0.0017723851 -0.050325327 0.0035693224 0.21630241 0.22113807 -0.11561457 0.06591794 0.06507769
-0.2295402 -0.1747563 -0.017348044 0.21395291 0.12412257 -0.13012786 -0.1827948 0.029672662
-0.121718094 0.087484725 -0.16461068 -0.014169449 -0.10531927 0.1386579 -0.0139609855 0.06585799
0.16309072 0.038831163 -0.18210861 -0.03281318 0.010415172 -0.21786521 0.22292301 0.15459998
0.016806398 -0.033379816 0.0014173466 0.07323364 -0.119357735 -0.0015279317 0.20705757 -0.100947805
0.113348655 0.03661704 -0.16615255 -0.010006471 -0.050131787 -0.01707664 -0.07879013 0.00533499
0.016138826 -0.044704836 0.062802926 -0.008020824 0.14038873 -0.18527018 0.009986193 0.117667824
0.1866268 -0.16298865 0.008926773 0.010713443 -0.10711618 0.17648011 0.08426875 -0.0021939336
0.14775917 0.059207566 0.19875708 -0.09479598 -0.14139944 0.07734511 -0.07923126 -0.006046246

_logits._model.0.bias f4 [4]
00000000: 5640 c13d 7bce 853d dea0 c3bc f355 a13c
0.09436099 0.06533524 -0.023880418 0.019694304

_hidden_layers.0._model.0.weight f4 [80, 13]
00000000: 34b8 573c 65b0 3c3e 18e9 51be efd0 ca3d
00000010: 1f3a 06be afc3 e23e 119b 053f f581 533e
00000020: c8c1 bfbd bd1c 74be b47c 63be 6d97 093f
00000030: 27d8 823e a094 d83e daa6 b1be 3ba2 42bc
00000040: 5d2c 9e3d 2172 713e 0f9c 133e c6a2 a1be
00000050: 97da b33e 4c8a 093f e344 fe3e 8e4b 32be
00000060: 15ec 3c3d 231a 34bf 7e9f b0be 367b 073f
00000070: 5e1c 853e 7b71 d93d 3711 993e bd0a 553e
00000080: 8c64 383f 1982 613e 22ce 88be 6a97 183b
00000090: 07da d03d a01b b2be 3ca1 25bf df27 83be
000000a0: b43a af3d 0450 efbd d8c5 303f ffa9 7d3e
000000b0: 31f4 59be 43d1 3abf 5cea d73e 3aa0 7ebe
000000c0: 6c97 d63e b18c 6a3c 8ca6 693d 7f64 31be
000000d0: 0e27 b5be 4b4e 3dbd 6b52 333a 096a b43e
000000e0: bf55 e73c 587e 7cbd d6f6 793e e649 edbe
000000f0: ef87 4f3e 544c bb3d da78 f73e d44b 5c3e
00000100: 2fec 1cbd 6b65 fdbe dafd e33e 90cf 0fbe
00000110: f18a c6bd 4aeb 403c c7a0 fa3d b796 333f
00000120: ab66 c03e d1d8 933e bc97 b7be ea39 9a3d
00000130: 9e4e debe 8bdf f9bc a800 1d3e 0820 da3d
00000140: 21eb 993e feb8 1abe fbce 453d d93c 98be
00000150: 1073 71be 5aae c63e af2f b23d 254f 01bd
00000160: 8ecc dabe 95c0 673f b1f7 09be f3d5 8e3c
00000170: c510 323e ecb8 043f 6f21 2d3c a4b9 cbbe
00000180: 32bb f1be 6e98 643d 921a 0c3f d968 5cbe
00000190: fa8c e03e 7cf2 5f3f abfa e3be d9ec 193d
000001a0: a097 4e3c d46b ff3d bb4f a83d a026 e53d
000001b0: d4bf f3bd bbbc d2be 2be2 743e 8c41 cc3e
000001c0: 9f03 64bf f52a 103f 6776 ab3e cd47 413e
000001d0: 7605 0f3f 2312 a2be 3da4 df3e 483f dd3e
000001e0: 7a8e 54bc 0771 f73e 8db2 15be 4bbe 813e
000001f0: c02b 6dbe 60e1 68be 3f2b 593a e3db 8bbd
00000200: 2f49 75be 6ed1 77bf 4463 3dbe 5b52 b63d
00000210: 3177 963e ebcf 41bf 20e4 86bd a9d1 fb3b
00000220: a9d2 2a3c d10f b3bd fb81 b0be 3a0e acbe
00000230: 5d56 05bf 6577 09bf a411 82be a738 023e
00000240: 9039 86be 93b2 663c 0b4d 17bf 747a 563c
00000250: bfc2 d93d c1e9 00be cccc 08be 54fe 0cbf
00000260: 2d85 0dbf c5a5 9dbe f14a 913e dcc8 753f
00000270: b405 dd3c 6562 e93d 8477 83bd d2ef 1abf
00000280: 2f3d b9be 7e73 033f c3a4 9a3e b497 9e3e
00000290: f2c3 c5be 6a32 4cbe 1d68 de3e 5c4b 853e
000002a0: efcb 233e d3b4 dfbe 00d1 3e3e 47f7 383d
000002b0: 9c27 723e dde9 c3be 445e 9bbc 3ed8 0e3f
000002c0: 06d3 40bd c3f1 0e3e 03e5 f63d dbd6 a03e
000002d0: d2ca a3be 4d61 e83e 2080 72bd 2955 1ebe
000002e0: 0fdf 643e 27c9 093f b034 f4be 7f6d 75bd
000002f0: 58f4 31bf 18ed ef3d 1a26 0c3e ac7e b53d
00000300: 7b6c 2f3d b8f5 393f 4d10 eb3d a361 a03c
00000310: c032 113f 2365 b63d d31e 163f b4fa da3e
00000320: 07a0 9abe b821 fdbe eedf 843d 2c24 59bc
00000330: ecd9 b4bd f87c d0be b2e8 0b3f cba5 2d3e
00000340: 5ef0 d43e f69a 18be d245 febd df20 41bc
00000350: d123 a3be e1b2 4a3e 4373 4f3f 0d4d 51be
00000360: a87d 303f 6ff8 873e 6e7a acbe 5e9a 8fbe
00000370: d036 c9be 5ded 97bd 0a2d 39be 9088 be3e
00000380: 04fd 30bf bb8d 79bd 579c 243f 3744 7a3d
00000390: dd07 2ebe d5f7 94bc d8a2 f3be c824 c4bd
000003a0: 9a1a a43e 7864 9f3d 09b1 983d ca12 65bd
000003b0: 3c58 74bd fc8a a7be 3d8f a8bb 1b4c 64be
000003c0: fe83 65bf d945 fa3d 765b d5be eb95 003e
000003d0: 8c6a fabd 571b 313f 265b ad3e 147f 033e
000003e0: b219 b4bd 343b fbbd 8530 923e 651e 15be
000003f0: d1b1 0f3c cfc1 cf3e 654f 473e b78c 813f
0.013166476 0.18426664 -0.20499074 0.09903132 -0.13108109 0.4428992 0.5218974 0.20655043
-0.09363133 -0.23839088 -0.22215539 0.5374668 0.25555536 0.42300892 -0.3469761 -0.011879499
0.077233054 0.23578693 0.14415 -0.315695 0.35127708 0.5372665 0.4966193 -0.17411634
0.046123583 -0.7035238 -0.34496683 0.5292238 0.25998205 0.10617348 0.29895946 0.20804878
0.7202842 0.22022285 -0.26719767 0.002328361 0.101978354 -0.347867 -0.6469915 -0.25616357
0.085561186 -0.11685184 0.69051886 0.2477188 -0.21284558 -0.7297556 0.4217099 -0.24865809
0.419124 0.01431577 0.057043597 -0.17323492 -0.3538136 -0.046217244 0.00068405893 0.35237148
0.02823913 -0.06164393 0.24410567 -0.46345443 0.20266698 0.09145418 0.4833439 0.21513301
-0.03831118 -0.49491438 0.4452961 -0.14044023 -0.0969447 0.011774847 0.12237697 0.7015185
0.3757833 0.28876355 -0.35857952 0.075305775 -0.43419355 -0.030502101 0.15332282 0.10650641
0.30062202 -0.15109631 0.048293095 -0.29733923 -0.23579049 0.38804895 0.08700501 -0.03156962
-0.42734188 0.9052823 -0.13473393 0.017436003 0.1738921 0.5184467 0.010567053 -0.3979007
-0.4721313 0.05580943 0.54728043 -0.21524371 0.43857557 0.87479377 -0.44527182 0.03757939
0.012609392 0.124717385 0.082183324 0.11189008 -0.11901823 -0.41159615 0.23914401 0.39893758
-0.89068025 0.5631555 0.3348877 0.18875046 0.5586771 -0.31654462 0.4367999 0.43212342
-0.012973422 0.4832842 -0.14618893 0.25340495 -0.2316122 -0.22742224 0.0008284337 -0.068290494
-0.23953699 -0.9680394 -0.18494898 0.08902427 0.2938781 -0.7570788 -0.0658648 0.0076849055
0.010426202 -0.08743251 -0.34474167 -0.33604604 -0.52084905 -0.53697807 -0.25404084 0.12716924
-0.26215792 0.014080661 -0.59101933 0.013090719 0.10632848 -0.1258917 -0.13359374 -0.55075574
-0.55281335 -0.30790535 0.28377488 0.9600961 0.026980259 0.113957204 -0.0641928 -0.60522187
-0.36179492 0.513481 0.30203828 0.30975115 -0.38626057 -0.19941106 0.43438807 0.26034057
0.15995763 -0.43692645 0.18634415 0.045157697 0.23647922 -0.3826436 -0.018965848 0.5579871
-0.047076248 0.13959412 0.12055399 0.31413922 -0.31990677 0.45386735 -0.05920422 -0.15462174
0.22350715 0.5382256 -0.47696447 -0.059918877 -0.69513464 0.11715144 0.1368641 0.08862051
0.042828064 0.7264056 0.114777185 0.019577807 0.56718063 0.08906009 0.58640784 0.42769396
-0.30200216 -0.49439788 0.06488024 -0.013253253 -0.08830628 -0.40720344 0.5465194 0.16957776
0.41589636 -0.14902863 -0.12415661 -0.011787622 -0.31863263 0.197948 0.8103525 -0.20439549
0.68941736 0.26556727 -0.33687156 -0.2804746 -0.3929963 -0.0741832 -0.18083587 0.37213564
-0.6913607 -0.06092618 0.64301056 0.06110021 -0.16995187 -0.018184582 -0.47585177 -0.09577328
0.32051545 0.07782835 0.07455642 -0.05592612 -0.05965446 -0.32723224 -0.0051440285 -0.22294657
-0.8965453 0.12220354 -0.41671342 0.12557189 -0.122273535 0.6918234 0.33858603 0.12841445
-0.087939635 -0.122671515 0.28552642 -0.14562376 0.008770422 0.40577552 0.1946388 1.0121068

_hidden_layers.0._model.0.bias f4 [80]
00000000: 8038 0d3c f66b adbd 6dc8 263d 191a c83c
00000010: fc44 09be 2011 9bbb 691b 30bd b144 98bd
00000020: f2f2 a33d 73b7 113e 2300 27bd b8e8 b93c
00000030: 3ebf a83c a686 1bbc 6eb5 5fbd 7d29 8d3d
00000040: 3931 a93d e50b babd 498c 6ebd 7bde f23c
00000050: d858 d1bc db7a 07bd 633b ad3d 0c81 eebc
00000060: e4e7 76bb b348 913d a441 183d e315 4c3c
00000070: 69ef ad3d bbf3 8abd 5db9 8a3d 8c3a 5abd
00000080: 5590 b53d d7d4 803d bea2 b13c 3926 f63d
00000090: 18c8 17be 88fb 28be eb23 b7bd a5e0 233e
000000a0: bcad 393c b07c dd3d 9468 b2bc df2b dabc
000000b0: 003d 4cbd 61fe ffbd b020 c53d 9053 783d
000000c0: b4f8 44bc 27b3 95bd 7fbb 83bc ae47 fc3d
000000d0: 32a5 bcba 7119 67bc ddb9 3d3b ee7a 283d
000000e0: 2292 d13c 63ff 9c3d 39bc 363d 3bea cfbc
000000f0: 73f7 cbbd 7363 6dbd 9746 82bc ec72 02be
00000100: acb5 2cbe 3539 1d3e 07f2 55bd 0162 94bd
00000110: 02aa ce3d 2872 dbbd 2e75 dfbd 6d66 483e
00000120: 9548 ff3d b6e2 3abd 6334 743c 6453 8b3c
00000130: d8f9 f5bd 8445 20be 28c7 ea3c e31a eebb
0.008619428 -0.084678575 0.040718485 0.024426507 -0.13405222 -0.004732266 -0.04299489 -0.07434977
0.080053225 0.14230137 -0.040771615 0.022693977 0.020599004 -0.009492552 -0.054616384 0.06892679
0.082613416 -0.090843 -0.058239255 0.029647103 -0.02555506 -0.03307615 0.08458593 -0.029114269
-0.0037674839 0.070939444 0.037171975 0.01245639 0.084929295 -0.06784769 0.067736365 -0.05327849
0.0886542 0.06290596 0.021684047 0.12019009 -0.14822423 -0.16502202 -0.08942398 0.16003664
0.011332925 0.10814798 -0.021778382 -0.026632247 -0.04986286 -0.12499691 0.09625375 0.060626566
-0.012022186 -0.07309561 -0.016080616 0.12318359 -0.0014392494 -0.014105187 0.0028949894 0.04113286
0.025582377 0.07665899 0.044613097 -0.025380244 -0.099593066 -0.05795617 -0.0159028 -0.12739152
-0.16866177 0.15353854 -0.05223277 -0.07245255 0.1009102 -0.10715133 -0.10911022 0.19570322
0.12465016 -0.045626365 0.014905068 0.017007537 -0.120105445 -0.15651518 0.028659418 -0.0072663887

_hidden_layers.1._model.0.weight f4 [80, 80]
00000000: debb 0bbe c130 06be 6004 b5bd 6f91 963d
00000010: c6fe 783e e068 94bd b56b 623e 48b1 1f3c
00000020: 5101 573e 1354 2fbe 8ef4 293b 30f7 28be
00000030: f7ac 81be 74da 53bd f53c 6b3e ed45 783e
00000040: 2736 4cbe 409c 69be 908f 4e3e 07c8 f33d
00000050: 15c9 293e 6119 e83d 4ea6 7fbd e1e4 fdbd
00000060: 2739 79be 1bd9 aa3e 3cde e23d fb8c 22be
00000070: 73b2 00be d5e4 a33d 7452 5f3e 3df8 2bbe
00000080: da2c b9bb 226f 87bb 984e b13d 439a cdbc
00000090: b214 69be e178 acbd 9706 893d 2b42 c3bd
000000a0: b5b7 7cbe 70ce 18bd 0ec2 8cbd 6df0 ffbb
000000b0: 3c84 f5bd b2b4 ce3c de0a 343e 6879 fc3d
000000c0: b75c c53e 425d 75b9 aa15 3f3c 6541 173e
000000d0: 10c8 a0be aac6 003e c0df e83b 986f 183e
000000e0: 131d 0e3e bb89 d43d 4757 23be 8ca8 933c
000000f0: e3f2 13be 847a 92bb af68 6ebd 9596 4bbd
00000100: 25e3 2fbd 5f2c c7bc 7e55 1a3e d1fc 40be
00000110: ae93 dc3c c0a5 febd d34d c63c 888e 41bd
00000120: 27b5 dabd dc47 533e 6e70 3abe ab5f fdbd
00000130: 7413 fabd 2a95 a2be 95c3 6a3e 6717 7dbe
00000140: 9456 17be ed52 20be fa78 c23d a8ba 09be
00000150: 57cf cb3c 1615 2e3e d2e7 68bd e5e5 dc3d
00000160: 34c3 023e 0776 223e 29d9 a43d 52be b1bd
00000170: 0aa4 353e b3b8 2ebd 82d0 fc3c 893a bcbe
00000180: 6571 c9bd 3350 92bd 1f9f ddbd dcea efbd
00000190: e1b6 4dbe 3454 833d 8938 69be eb06 913e
000001a0: 74dc 533e c043 ec39 eb13 303d d90b 1c3e
000001b0: 215c 84bd 5e59 e13c e6d1 883d 0f5f c5be
000001c0: 5a02 85be f842 d63d 84ef aabd fea8 febd
000001d0: 3297 7cbe ba5e 09be 633c 883e 021e b43c
000001e0: 2408 253e 4b10 e5bd f439 55be 03a3 423e
000001f0: 109c 723d 7ef2 5d3d ffa1 603d fd40 a23c
00000200: 1613 a7bd b8b5 423e b7c1 94bb ef0f d43d
00000210: 41b5 21bd 9bb4 09be bc76 72bd adbe 08be
00000220: bff2 b63d d364 6e3e 9b68 95bd 53c3 3c3b
00000230: 8924 d73e 2398 7b3e 072a dbbc 5c4d 53be
00000240: 86b5 473d ce65 413e c479 88be 0497 703d
00000250: 4494 6a3c 0148 723e 9c54 b33e 4ee5 09be
00000260: d835 45be 7d83 67be 6048 51be ad7c c3bd
00000270: 7fd6 da3d ceb2 ff3d e444 0ebd 504a 4d3d
00000280: 44ad 36be 71d9 473d c8c1 c83d 7672 a53c
00000290: 1f14 cfbd 47e3 acbd e704 31be be62 003e
000002a0: 8fb3 f83b 222f d13d 477e 913e 8316 603d
000002b0: e4ef 3abe f546 28be f494 9abc 0939 debd
000002c0: 450f 603e ae5e e23d 21d7 bc3a b133 1cbe
000002d0: 5644 623c 6b30 1d3e 3b91 a53b 0347 65bd
000002e0: e32c 863d 10bf 883d 6f6c 16bd 1cec 49bd
000002f0: f30a b7bc 0400 b73c 056e 183c cd4b 60bc
00000300: 2a00 81bb 1692 2dbe 6dcf de3d 6205 fa3d
00000310: 8993 1f3e c84c f8bd 2c4d cdbc 2535 0fbd
00000320: e6ac 223e 31b7 ffbc c717 35bd d847 273e
00000330: 8bd2 07be 7caa c43d df99 ca3e ee8a aa3e
00000340: 0326 3bbe 1f3f 4cbe 615c 6c3d 7a63 86bd
00000350: 7322 403e 6ada 61be 6f8a 643c f036 9abd
00000360: 478b 173d da53 803d b704 863e 1da1 123e
00000370: 5c7e f2bd 7b4e dcbd f1b2 55bd c354 b63d
00000380: fcc0 f7bd cf3f 063c a7d0 60be d6e2 a43e
00000390: 01e5 6dbc e7b3 91bc 0022 58bd 3f7c 7a3e
000003a0: 83a5 bebd 2e92 353e 8c8d e1bd 878c e7bc
000003b0: 56f3 323e 2020 efbd d13e 18bd a814 103e
000003c0: 268b a1be 6abe 933e 10d4 6b3d 2db7 173e
000003d0: 6e3f a13d bc21 32be 3593 a3bb 149a 0dba
000003e0: cfe3 07be 60a8 683e bb5b 843e 60ec 3cbe
000003f0: d737 003c 2d5c 9dbe 5150 133e 3d10 35bc
-0.13645884 -0.13104536 -0.08838725 0.07351958 0.24315938 -0.07246566 0.221114 0.009746857
0.20996596 -0.17121916 0.002593312 -0.16500545 -0.25327274 -0.051722005 0.22972472 0.24245425
-0.19942532 -0.22813511 0.20171952 0.119033866 0.16580613 0.11332966 -0.06241446 -0.12397171
-0.24338208 0.33368763 0.11077544 -0.15874092 -0.12568073 0.080026306 0.21808797 -0.16793914
-0.0056510987 -0.004133121 0.08657569 -0.025097972 -0.22761801 -0.08421493 0.0669071 -0.09534105
-0.24679454 -0.03730625 -0.068729505 -0.0078106434 -0.11988112 0.025232647 0.1758227 0.12327844
0.38547298 -0.00023399762 0.01166288 0.1477104 -0.31402636 0.12575784 0.007106751 0.1488632
0.13878278 0.103778325 -0.15951262 0.018024705 -0.14448123 -0.0044701714 -0.058205303 -0.049704153
-0.04294123 -0.02431315 0.15071675 -0.18846442 0.026925888 -0.12433958 0.024207031 -0.04725507
-0.10679083 0.20632881 -0.18206951 -0.12371763 -0.12210742 -0.31754428 0.22926171 -0.24715959
-0.1477912 -0.15656634 0.09495731 -0.1345011 0.02487914 0.17000231 -0.056861706 0.107860364
0.12769777 0.15865336 0.080492325 -0.08678879 0.17738357 -0.04265661 0.030861143 -0.3676341
-0.098360814 -0.07144203 -0.108213656 -0.11714718 -0.20089294 0.06412545 -0.22775473 0.2832559
0.20689565 0.00045063905 0.042987745 0.15238895 -0.06462885 0.027508434 0.0668066 -0.38549086
-0.25978357 0.10461992 -0.08346465 -0.124345765 -0.24667051 -0.13415042 0.2660857 0.021986965
0.16116387 -0.11184748 -0.20822889 0.19007497 0.059230864 0.054186337 0.05484199 0.01980638
-0.08157937 0.19014633 -0.004539694 0.103546016 -0.039479498 -0.13447802 -0.059195265 -0.13353987
0.08933019 0.23280649 -0.072953425 0.0028802946 0.42020062 0.24569754 -0.026753439 -0.20634979
0.0487571 0.18886492 -0.266554 0.05873777 0.014317576 0.2366028 0.3502549 -0.13466379
-0.19258821 -0.22608753 -0.20437765 -0.095452644 0.10685443 0.12485276 -0.034733668 0.050119698
-0.17839533 0.048791353 0.09802586 0.02019618 -0.1011126 -0.08441787 -0.17287026 0.12537667
0.0075897644 0.10214068 0.28416654 0.05470897 -0.18255574 -0.16433318 -0.018869855 -0.10850722
0.21880825 0.11053215 0.0014407375 -0.15254094 0.013810238 0.15350501 0.005052713 -0.055975925
0.0655153 0.06677067 -0.036724504 -0.049297437 -0.022344088 0.022338875 0.009303574 -0.013689947
-0.003936787 -0.16950259 0.10879407 0.12208058 0.15583624 -0.1212402 -0.025061212 -0.034962792
0.15886268 -0.031215282 -0.04421213 0.16336 -0.1326391 0.0960283 0.3957052 0.3330912
-0.18276219 -0.19945954 0.057705287 -0.065619424 0.18763141 -0.22055975 0.013949021 -0.0753001
0.03699806 0.062659934 0.26175472 0.14319272 -0.118405074 -0.107571565 -0.052172605 0.08902886
-0.12097356 0.008193924 -0.21954595 0.32204312 -0.014519931 -0.01778598 -0.0527668 0.24461459
-0.093089126 0.17731544 -0.11013326 -0.02826525 0.17475638 -0.11676049 -0.03716928 0.1407038
-0.31551474 0.28856212 0.057575285 0.1481597 0.078734264 -0.17395681 -0.0049919137 -0.00054016826
-0.13270496 0.2272048 0.25851235 -0.18449545 0.007825813 -0.30734387 0.14386107 -0.011051235

_hidden_layers.1._model.0.bias f4 [80]
00000000: d5d6 6d3d 6d84 3ebc c63e 1c3d 3ee4 18be
00000010: fc49 c83c 4b2f f1bd ddb4 4d3d 5f7f 01bc
00000020: 005d ac3d 86cc b33d a21c 123d 726b 03be
00000030: c958 61bb 3fbe adbd d244 3c3e f0c1 86bd
00000040: 8cb3 5ebb 6e88 f83a d5f3 acbb 9a71 a13d
00000050: c7e2 323c 45da e6bd f745 08bc 5c69 a9bd
00000060: 0af6 393d 7e21 35bd b5e0 2f3d 262d 233e
00000070: c715 613e 7bbb c7bd 89ee 3abd 590c 073e
00000080: abff 54be 0028 893d aef6 eebd 1608 9b3c
00000090: 4adc 993d 8fcc 423d c675 59be 9151 53bc
000000a0: 86fd c6bd 2a6f f93c bc4a 4c3e 5b74 cbbc
000000b0: 47f3 5abd d72f a23c 0442 02bc 494b 01bd
000000c0: 8f15 0b3e 030f bfbc 6595 ae3e 2ba1 21bc
000000d0: d888 4fbd f408 453e 2ded f23d 1499 28be
000000e0: 9eaf 9ebd 3f7f 4b3c 5c25 8b3d 4988 cebd
000000f0: 99c7 7c3c 89df 28bc 5b29 093e de11 4cbe
00000100: 3144 4fbd 4fbd 213d 7df1 e8bd f275 09bc
00000110: 9310 f9bb 5106 a7bd f90c f93b d363 4e3c
00000120: ca0a 3b3d 104e 15bc b29e d43c 4700 3e3d
00000130: 54b8 da3c 3cbc 3ebe afaf 83bb e827 c63d
0.058066208 -0.011628252 0.038145803 -0.14930817 0.024449341 -0.117765985 0.050221313 -0.007903903
0.08416176 0.08779244 0.035671838 -0.12833956 -0.0034385195 -0.08483552 0.18385628 -0.065799594
-0.003398153 0.0018961558 -0.0052780905 0.07882996 0.010918326 -0.112721 -0.008317462 -0.08272049
0.045400657 -0.044221394 0.042938907 0.15935192 0.21980964 -0.09752556 -0.04563764 0.13188304
-0.20800655 0.066970825 -0.11668144 0.018924754 0.0751272 0.047558364 -0.21236333 -0.012897865
-0.097163245 0.030448515 0.19950384 -0.024835756 -0.053454664 0.019798202 -0.00795031 -0.03156594
0.13582443 -0.023322588 0.34098354 -0.009865086 -0.050667614 0.19241697 0.11861644 -0.16464645
-0.0774834 0.012420475 0.06794235 -0.10084588 0.015428447 -0.010307201 0.13394682 -0.19928691
-0.05060214 0.03948718 -0.11374185 -0.008389937 -0.0076008528 -0.08155502 0.0076004234 0.012597042
0.045664586 -0.00911285 0.025954578 0.046386983 0.026699223 -0.18626493 -0.004018746 0.0967558
