Project/Assets/ML-Agents/Examples/Soccer/TFModels/latest_PurplePlayer.onnx (onnx, 34035 bytes, 6 tensors)

_logits._model.0.weight f4 [4, 80]
-0.0030311877 -0.08099188 0.018623326 -0.004942602 0.008070386 -0.07828188 0.11907004 -0.013276302
0.016175162 0.020098804 -0.008712504 -0.0015088182 0.017998066 -0.0055313 0.08122846 -0.048283905
-0.0048279525 -0.0075556203 0.00802525 -0.0023594429 0.013775914 -0.19459127 -0.11718484 -0.011903295
0.0011620646 -0.026236534 -0.00094287266 -0.00868096 0.010139132 -0.003800175 -0.0008292342 0.08618131
0.016297271 -0.059068155 -0.0045753294 0.023861423 -0.00086715736 -0.0060919644 -0.04002387 0.0018943596
-0.033790544 -0.0007144054 0.057756517 -0.0045241793 -0.0012007212 0.0047088005 0.0022670398 0.0062255478
0.012877739 -0.00041924743 0.2156606 -9.9312136e-05 -0.0154437935 0.008642069 0.03528949 -0.012368654
0.014892535 -0.00063841406 -0.0008518573 -0.004310557 -0.009670904 0.0015894335 0.02101115 -0.054402947
-0.01733 0.010165413 -0.0030286072 -0.0011347609 0.0001371728 -0.019041711 0.001038392 -0.0019384066
-0.0043856706 -0.0015632656 0.0044058585 0.0023893525 -0.103329726 -0.017104447 -0.00068421324 0.008755354
-0.019372337 -0.0071067465 0.0057713296 -0.01614582 -0.0065697017 -0.0535396 0.004170235 0.0018661321
-0.011536829 -0.025069868 -0.038012736 -0.002717218 -0.012310903 0.0050452445 -0.21348666 0.13608919
0.04543565 -0.010650775 -0.043943185 -0.016602386 0.01056578 -0.14644726 0.2363169 -0.00613578
-0.01803223 0.0062474925 -0.0014566648 0.023813587 -0.0077560237 -0.0070037753 -0.000106866246 0.18939039
-0.0039078686 0.008090223 0.0029437856 -0.023321835 -0.024214469 -0.0037100145 0.009913291 -0.0043064035
0.009921608 -0.0055257683 0.028975997 -0.006401555 0.010533767 -0.033845134 -0.030308243 -0.022553645
0.011298537 -0.0010864945 -0.02011482 -0.0036045392 -0.016836628 -0.013851908 -0.03830991 0.00077424204
0.017824272 -0.004234942 0.0011034852 -0.005565691 0.0017037061 -0.024700327 0.0025346992 0.031110125
-0.03230914 -0.016817817 -0.02055896 0.0029223706 -0.0026116273 -0.0001943202 -0.0029955078 -0.0009002702
-0.0021694885 -0.0010608955 0.0048998417 -0.0012590155 0.03836141 0.023754207 0.001477897 0.0029368952
0.13343236 -0.5921181 0.26122987 0.17437306 -0.28703552 0.26885772 -0.10789944 -0.40722618
0.20230967 0.71252483 0.9619453 -0.4815345 -0.0582509 0.108609766 0.15554623 0.27936015
0.22779265 0.16692525 -0.261347 -0.015323974 0.33633 0.14127016 -0.18282071 0.11423435
-0.013445415 -0.5830446 -0.053395018 0.6674388 0.6398667 -0.40434512 -0.02085787 0.12334487
-0.9427262 -0.7779873 -0.37282193 0.85555935 0.43455797 -0.27192104 -0.8553073 0.008405017
-0.44411212 0.2864701 -0.8499577 -0.19495548 -0.21606475 0.49198103 -0.0032942868 0.46059856
0.64456105 -0.0076312767 -0.38345152 0.013859018 -0.16449417 -0.92859036 0.8401625 0.8436419
-0.064472124 0.0061659473 -0.011742623 0.04390961 -0.23439407 0.0065490003 0.63525957 -0.6132522
0.31885973 0.25227517 -0.6924783 -0.0033811536 0.00035658057 -0.50749147 -0.045233846 -0.010006584
0.26679024 -0.041697733 0.03177135 -0.021277487 0.2767834 -0.7915569 -0.0014320904 0.54185957
0.34195107 -0.76918536 0.07205446 0.0462154 -0.4890204 0.37278813 0.2927617 -0.18081376
0.48136696 0.46445957 0.9723125 -0.69758993 -0.4904749 -0.12987961 0.08265791 0.030101856
00000000: e4a6 46bb 12df a5bd f28f 983c 8df5 a1bb
00000010: a739 043c 4052 a0bd feda f33d d984 59bc
00000020: c681 843c 3fa6 a43c e4be 0ebc 8ac3 c5ba
00000030: ae70 933c e83f b5bb 1b5b a63d 58c5 45bd
00000040: cd33 9ebb 2395 f7bb 577c 033c e2a0 1abb
00000050: 5fb4 613c ef42 47be 9bfe efbd 0a06 43bc
00000060: 6b50 983a 00ee d6bc 1d2b 77ba 963a 0ebc
00000070: 9a1e 263c 5b0c 79bb f760 59ba d47f b03d
00000080: db81 853c 73f1 71bd a5ec 95bb 0879 c33c
00000090: f251 63ba 1a9f c7bb 12f0 23bd 294c f83a
000000a0: f467 0abd ef46 3bba 1992 6c3d 913f 94bb
000000b0: 8561 9dba 484c 9a3b 9e92 143b aeff cb3b
000000c0: 27fd 523c 70ce dbb9 22d6 5c3e cc45 d0b8
000000d0: f707 7dbc 7797 0d3c b68b 103d e5a5 4abc
000000e0: d2ff 733c 3e5b 27ba 2d4f 5fba 933f 8dbb
000000f0: b672 1ebc 8a54 d03a 931f ac3c a0d5 5ebd
00000100: a5f7 8dbc d58c 263c 997b 46bb 42bc 94ba
00000110: 0bd6 0f39 5dfd 9bbc a71a 883a 2212 feba
00000120: acb5 8fbb 7de6 ccba 055f 903b af96 1c3b
00000130: 899e d3bd a01e 8cbc c65c 33ba 9e72 0f3c
00000140: bcb2 9ebc b6df e8bb 6c1d bd3b 3d44 84bc
00000150: a746 d7bb 574c 5bbd 77a6 883b 0199 f43a
00000160: f804 3dbc 535f cdbc 3eb3 1bbd 5a13 32bb
00000170: abb3 49bc 9452 a53b 3f9c 5abe f75a 0b3e
00000180: bb1a 3a3d 9780 2ebc c5fd 33bd ba01 88bc
00000190: 181c 2d3c 45f6 15be 0ffd 713e a70e c9bb
000001a0: 54b8 93bc c4b7 cc3b 8fed beba b614 c33c
000001b0: 3e26 febb ed7f e5bb 611d e0b8 8eef 413e
000001c0: 940d 80bb db8c 043c 87ec 403b 6f0d bfbc
000001d0: 6c5d c6bc b723 73bb 5b6b 223c bb1c 8dbb
000001e0: 3d8e 223c 8111 b5bb 125f ed3c 23c4 d1bb
000001f0: d295 2c3c 32a1 0abd fe48 f8bc 6cc2 b8bc
00000200: 801d 393c b568 8eba d6c7 a4bc 223a 6cbb
00000210: f8ec 89bc 1df3 62bc daea 1cbd 81f6 4a3a
00000220: 3504 923c 45c5 8abb d2a2 903a 6660 b6bb
00000230: e44e df3a 5758 cabc 321d 263b a9da fe3c
00000240: 9756 04bd 85c5 89bc 446b a8bc 3e85 3f3b
00000250: d627 2bbb 6ec2 4bb9 4850 44bb 1c00 6cba
00000260: fa2d 0ebb bf0d 8bba da8e a03b 8d05 a5ba
00000270: db20 1d3d 2f98 c23c ffb5 c13a ed78 403b
00000280: 7ea2 083e 0d95 17bf ecbf 853e da8e 323e
00000290: 52f6 92be b8a7 893e 62fa dcbd f37f d0be
000002a0: 442a 4f3e 0768 363f 0c42 763f b18b f6be
000002b0: 7f98 6ebd cc6e de3d 8347 1f3e 4b08 8f3e
000002c0: 7a42 693e 74ee 2a3e 46cf 85be 6811 7bbc
000002d0: 7233 ac3e 20a9 103e 5a35 3bbe b3f3 e93d
000002e0: 284a 5cbc 6942 15bf bcb4 5abd 45dd 2a3f
000002f0: 4ece 233f 5306 cfbe 20de aabc 3c9c fc3d
00000300: 8156 71bf 2d2a 47bf 84e2 bebe f005 5b3f
00000310: 627e de3e 3c39 8bbe 6bf5 5abf 32b5 093c
00000320: aa62 e3be 35ac 923e d496 59bf 69a2 47be
00000330: 1440 5dbe f0e4 fb3e f6e4 57bb 93d3 eb3e
00000340: f401 253f ca0f fabb c253 c4be ef10 633c
00000350: 2971 28be 19b8 6dbf e414 573f eaf8 573f
00000360: f609 84bd b70b ca3b 2164 40bc 90da 333d
00000370: 0005 70be ff98 d63b 5fa0 223f 19fe 1cbf
00000380: 9541 a33e 362a 813e 4246 31bf 5896 5dbb
00000390: 6ff3 ba39 f6ea 01bf 2047 39bd a8f2 23bc
000003a0: bb98 883e 3ecb 2abd ad22 023d 204e aebc
000003b0: 8eb6 8d3e 79a3 4abf fbb4 bbba 4fb7 0a3f
000003c0: 3614 af3e 55e9 44bf 4a91 933d 5c4c 3d3d
000003d0: e260 fabe 16de be3e dde4 953e 3e27 39be
000003e0: bb75 f63e a5cd ed3e 79e9 783f 4195 32bf
000003f0: 871f fbbe 29ff 04be 8d48 a93d 2b98 f63c

_logits._model.0.bias f4 [4]
0.105040036 0.040903892 0.18038106 0.44147885
00000000: 3b1f d73d d78a 273d d0b5 383e 8409 e23e

_hidden_layers.0._model.0.weight f4 [80, 13]
-0.16256033 0.2488074 -0.30075368 -0.058249157 -0.13108109 0.5479212 0.73470294 0.17121162
-0.06381496 -0.7477533 -0.5549988 0.8000793 0.23340207 0.42508093 -0.42884126 -0.07456323
0.24610467 0.23578693 0.05539001 -0.4224674 0.43460304 0.75329536 0.6451618 0.09295076
-0.024578493 -0.67995805 -0.4496007 0.6651773 0.34236902 0.20044833 0.29895946 0.29184324
0.9745331 0.104433365 -0.27656865 -0.109733164 0.24513772 -0.5279636 -0.51339483 -0.23640706
0.06540025 -0.10084618 0.54479265 0.2477188 -0.19616361 -0.84216636 0.45617768 -0.43784982
0.7125574 -0.54809004 -0.25627375 -0.20873179 -0.3758962 -0.073206484 -0.14754517 0.44904566
0.02823913 -0.25521207 0.26482886 -0.40712085 0.39955017 0.3911191 0.4016561 -0.03996853
0.036505077 -0.681339 0.5899978 -0.23056448 -0.011443745 0.011774847 0.15195403 0.8722202
0.28456917 0.43261173 -0.2091716 0.1583374 -0.6798985 -0.008981613 0.2608088 0.057044946
0.35838914 -0.13529642 0.048293095 -0.30919325 -0.42382604 0.38143888 -0.00029307374 0.0912938
-0.6607383 1.2832987 -0.17315695 0.06320952 0.06147898 0.63935745 0.012712366 -0.3979007
-0.65662 0.033672582 0.605498 -0.49989754 0.7838452 1.0104606 -0.6827609 0.035766672
-0.030884344 0.19775172 0.30645338 -0.11717378 -0.11901823 -0.32938266 0.15717366 0.25533247
-1.1589086 0.76708215 -0.050556924 0.2944334 0.49862823 -0.2815443 0.6396365 0.5627466
0.08543614 0.4832842 -0.16654271 0.4760723 -0.46723762 -0.18107401 0.5414088 -0.2074157
-0.5126837 -0.8477948 -0.12911749 -0.0065090484 0.42328373 -0.8242325 -0.0658648 -0.06369644
0.045708746 -0.036658503 -0.6810733 -0.67348903 -1.0679001 -0.89000124 -0.2019027 0.09935078
-0.24576668 0.08853102 -0.70282346 0.013090719 0.18868 -0.18296625 -0.15636927 -0.78059477
-1.0175825 -0.25876153 0.3666682 0.87397075 -0.008422732 0.13269006 0.083119646 -0.81161827
-0.36179492 0.7229655 0.28723404 0.2697222 -0.78596586 -0.6812936 -0.05447555 0.40520424
0.15599199 -0.5104642 0.26921016 -0.07815643 0.4871291 -0.3826436 0.01580479 0.7011009
-0.08563355 0.076163426 0.37131155 0.39195332 -0.3652934 0.36102897 0.040666424 -0.24731077
0.27988568 0.5124707 -0.47696447 -0.11152941 -0.829754 0.17630598 0.11183439 0.31465304
-0.3989703 0.9341021 0.035050634 0.13722013 0.61149937 0.19286798 0.5553124 0.42769396
-0.32188264 -0.5162415 -0.0025211135 0.040923204 0.24424058 -0.4494308 0.66548145 0.16849959
0.31708705 -0.08817286 -0.14008105 0.30855146 -0.31863263 0.22886199 0.9413514 -0.23365243
1.0557253 0.4348637 0.16248865 -0.21636778 -0.40731522 0.006050938 -0.25109288 0.3708054
-0.7819954 -0.06092618 0.7194918 0.034695648 -0.12361724 -0.49322492 -0.9085873 -0.56096387
0.11388263 0.058350977 0.23665532 -0.20338756 0.09285204 -0.4408513 -0.0051440285 -0.28464937
-1.0694181 0.22323492 -0.5297962 0.05593491 -0.41946927 0.67231077 0.3232463 0.01893693
-0.074469574 -0.37972876 0.572191 -0.14562376 -0.13532951 0.4826651 0.2076003 1.3128641
00000000: 3776 26be 5ec7 7e3e 63fc 99be ab96 6ebd
00000010: 1f3a 06be 9044 0c3f 7e15 3c3f 1952 2f3e
00000020: 6bb1 82bd c36c 3fbf 6714 0ebf ffd1 4c3f
00000030: f400 6f3e 35a4 d93e 1591 dbbe 9bb4 98bd
00000040: dd02 7c3e 2172 713e a3e0 623d a64d d8be
00000050: 4a84 de3e f7d7 403f 5329 253f f85c be3d
00000060: d658 c9bc bb11 2ebf 1032 e6be 0f49 2a3f
00000070: fe4a af3e 5442 4d3e 3711 993e 7a6c 953e
00000080: 007b 793f 29e1 d53d 689a 8dbe c8bb e0bd
00000090: 6205 7b3e 9f28 07bf d86d 03bf b114 72be
000000a0: 91f0 853d 7188 cebd 8877 0b3f ffa9 7d3e
000000b0: 1ddf 48be 3798 57bf 1f90 e93e da2d e0be
000000c0: 296a 363f a14f 0cbf 5036 83be c9bd 55be
000000d0: 7775 c0be 48ed 95bd 1516 17be 50e9 e53e
000000e0: bf55 e73c 28ab 82be a697 873e 2572 d0be
000000f0: d791 cc3e c340 c83e dea5 cd3e 0bb6 23bd
00000100: 5986 153d 3c6c 2ebf 190a 173f 1819 6cbe
00000110: 8c7e 3bbc 4aeb 403c d699 1b3e d349 5f3f
00000120: 0db3 913e 497f dd3e 1431 56be 3323 223e
00000130: d40d 2ebf 9e27 13bc bb88 853e f6a7 693d
00000140: c87e b73e 258b 0abe fbce 453d 944e 9ebe
00000150: baff d8be f54b c33e b1a7 99b9 3ef8 ba3d
00000160: 2526 29bf 2243 a43f 0e50 31be fe73 813d
00000170: 62d1 7b3d eeac 233f 8747 503c a4b9 cbbe
00000180: 4018 28bf 43ec 093d eb01 1b3f 92f2 ffbe
00000190: 14aa 483f c656 813f 6bc9 2ebf 1380 123d
000001a0: 2a01 fdbc 6d7f 4a3e 75e7 9c3e cff8 efbd
000001b0: d4bf f3bd d8a4 a8be 22f2 203e f0ba 823e
000001c0: 1e57 94bf 7f5f 443f c714 4fbd f9bf 963e
000001d0: 334c ff3e 9326 90be 38bf 233f 2910 103f
000001e0: 25f9 ae3d 0771 f73e 2c8a 2abe c0bf f33e
000001f0: c539 efbe 776b 39be c499 0a3f c864 54be
00000200: 3d3f 03bf 1409 59bf 6037 04be db49 d5bb
00000210: a5b8 d83e e700 53bf 20e4 86bd 4773 82bd
00000220: 1839 3b3d 3a27 16bd d25a 2ebf c769 2cbf
00000230: f3b0 88bf 1fd7 63bf 95bf 4ebe 6c78 cb3d
00000240: 43aa 7bbe c04f b53d 3dec 33bf 747a 563c
00000250: 5435 413e 815b 3bbe 441f 20be 0fd5 47bf
00000260: 2540 82bf 647c 84be efbb bb3e 8cbc 5f3f
00000270: 80ff 09bc e7df 073e a23a aa3d 37c6 4fbf
00000280: 2f3d b9be 4414 393f 5710 933e 0719 8a3e
00000290: 0f35 49bf 4269 2ebf c121 5fbd ee76 cf3e
000002a0: 5dbc 1f3e c8ad 02bf ead5 893e 7a10 a0bd
000002b0: fc68 f93e dde9 c3be 0c79 813c 597b 333f
000002c0: a560 afbd 92fb 9b3d 8c1c be3e 1bae c83e
000002d0: bd07 bbbe cad8 b83e d691 263d 093f 7dbe
000002e0: 2d4d 8f3e 4831 033f b034 f4be 8869 e4bd
000002f0: c26a 54bf 8e89 343e 6e09 e53d 341a a13e
00000300: d645 ccbe 5121 6f3f 4191 0f3d 6f83 0c3e
00000310: 398b 1c3f 2f7f 453e f428 0e3f b4fa da3e
00000320: cdcd a4be 6728 04bf 4439 25bb 179f 273d
00000330: 341a 7a3e cb1b e6be fe5c 2a3f 288b 2c3e
00000340: 3c59 a23e f993 b4bd 6871 0fbe 75fa 9d3e
00000350: d123 a3be cc5a 6a3e 68fc 703f 9542 6fbe
00000360: 0222 873f 74a6 de3e 6d63 263e 848f 5dbe
00000370: 9f8b d0be f246 c63b 3f8f 80be 35da bd3e
00000380: da30 48bf bb8d 79bd 9d30 383f 061d 0e3d
00000390: 092b fdbd fa87 fcbe 2d99 68bf 549b 0fbf
000003a0: 4c3b e93d 6f01 6f3d c655 723e d444 50be
000003b0: 3629 be3d 43b7 e1be 3d8f a8bb 90bd 91be
000003c0: b1e2 88bf b297 643e b9a0 07bf 011c 653d
000003d0: adc4 d6be 8f1c 2c3f 8a80 a53e 9f21 9b3c
000003e0: 8183 98bd cf6b c2be 1c7b 123f 651e 15be
000003f0: d293 0abe e11f f73e 2c95 543e ee0b a83f

_hidden_layers.0._model.0.bias f4 [80]
0.07316946 -0.16654292 0.17667781 0.004264495 -0.1610396 0.13996539 -0.09245624 -0.18676065
0.15308927 0.34512368 -0.1363036 0.0390818 0.0393312 0.07337808 -0.14730665 0.11324972
0.14346878 -0.16110829 -0.20570186 0.04311912 -0.05328333 0.09291106 0.05799416 -0.038342737
0.13740088 0.05624496 0.028720375 0.016917871 0.2616815 -0.053463288 0.05113732 -0.0196993
0.042997647 0.210151 0.17821471 0.24147995 -0.3119902 -0.15485412 -0.26695085 0.348412
0.108514376 0.18983772 -0.014426152 -0.05513893 -0.02956734 -0.18022299 0.08572348 0.091362745
0.0133580305 -0.060245182 -0.095606 0.26710346 0.037273873 -0.011587293 -0.1134223 0.016737837
0.020335173 0.11880386 0.05260434 -0.11456462 -0.13311553 -0.07644971 -0.030963248 -0.24984115
-0.30786568 0.2219181 -0.1255749 -0.14291736 0.18946776 -0.21430756 -0.17637594 0.28018045
0.15792228 -0.087596476 0.0748787 0.0457915 -0.2414616 -0.26021117 -0.03144725 -0.003301307
00000000: dfd9 953d 3a8a 2abe 07eb 343e 2dbd 8b3b
00000010: 91e7 24be 1653 0f3e b259 bdbd 2f3e 3fbe
00000020: 6fc3 1c3e 0db4 b03e 2c93 0bbe 3d14 203d
00000030: c119 213d 3f47 963d 8ed7 16be 78ef e73d
00000040: 7be9 123e 92f9 24be 82a3 52be ad9d 303d
00000050: 9f3f 5abd 2748 be3d 498b 6d3d 460d 1dbd
00000060: d1b2 0c3e 1d61 663d fe46 eb3c 5997 8a3c
00000070: 1efb 853e 52fc 5abd 5e75 513d 6d60 a1bc
00000080: 4d1e 303d d331 573e eb7d 363e 8546 773e
00000090: 2ebd 9fbe 1492 1ebe c8ad 88be 0f63 b23e
000000a0: c93c de3d d264 423e ab5b 6cbc 5cd9 61bd
000000b0: 3537 f2bc 608c 38be cb8f af3d 641c bb3d
000000c0: a4db 5a3c a7c3 76bd 14cd c3bd c9c1 883e
000000d0: 7dac 183d a1d8 3dbc f349 e8bd ca1d 893c
000000e0: f395 a63c 704f f33d a677 573d dba0 eabd
000000f0: 704f 08be aa91 9cbd a3a6 fdbc 5cd6 7fbe
00000100: 92a0 9dbe 803e 633e b596 00be ee58 12be
00000110: d603 423e 7173 5bbe e59b 34be d073 8f3e
00000120: 61b6 213e c865 b3bd 015a 993d de8f 3b3d
00000130: b641 77be 663a 85be d5ce 00bd be5a 58bb

_hidden_layers.1._model.0.weight f4 [80, 80]
-0.44965196 -0.09729477 -0.04838851 0.465995 0.36121696 -0.030894745 0.15256643 -0.12590358
0.018284762 0.018406406 0.11135141 -0.2730268 -0.48978522 -0.087232456 0.46714467 0.33183485
-0.43535772 -0.3361693 0.26884827 0.09704448 0.32327527 0.17200261 -0.08330383 -0.15297934
-0.15792012 0.8155413 -0.062496185 -0.04218323 -0.22041817 -0.046819918 0.25292853 0.068950556
-0.15483288 0.0049793725 -0.0013202361 -0.08878236 -0.15985397 0.090895526 0.054080598 -0.22928907
-0.78003174 0.06273948 0.35910204 -0.17737848 -0.22859605 0.31010357 -0.05123161 0.011225903
0.65277797 0.07485188 -0.25176036 0.17114869 -0.13207841 -0.12728426 -0.07088873 0.27119035
0.56540185 -0.022313233 -0.1923856 0.2524465 -0.40462503 -0.30626747 0.04183212 0.14489157
-0.16243249 -0.092143774 0.39139688 -0.10387977 0.24649581 -0.3567377 -0.13744527 -0.017153274
-0.06148894 0.03050061 -0.04560704 0.18614589 0.029217217 -0.37558615 0.65438616 -0.47472796
-0.1699537 -0.2569479 0.28803924 -0.27051607 -0.08775276 0.15536363 0.069019355 0.47581723
0.4254403 0.19074072 0.58734095 0.03555323 0.33068046 -0.061327804 -4.0462237e-05 -0.35356802
0.004908741 0.22531606 -0.23179671 -0.34890622 -0.32853386 0.21174604 -0.19021179 0.8881752
0.3608236 0.063506864 0.49205336 0.015727842 -0.08990849 0.23380041 -0.34563905 -0.7304109
-0.21012177 0.049070098 0.17499761 -0.21032499 -0.29393375 -0.28092355 0.24039535 -0.011192286
0.27599984 -0.33823955 -0.48441857 0.6147002 0.06939035 0.15660775 0.45534208 0.43235046
-0.46577984 0.4111876 0.11184046 0.2533572 -0.162083 0.04157491 0.020191474 -0.041569524
-0.058464635 0.67951256 -0.05042009 -0.0071280743 1.0651823 0.91872174 -0.23604153 -0.6170529
0.22513683 0.4011494 -0.4344352 -0.0018738727 -0.15243974 0.8595736 0.9954875 -0.17864412
-0.20243867 -0.08213977 -0.7607793 -0.5162281 0.03125633 0.07141656 -0.10200562 0.17989443
-0.14753835 -0.09994955 -0.012031732 -0.14202783 -0.38855252 -0.19354308 -0.06238497 0.1914684
0.37755725 0.098029025 -0.09122528 0.18571939 -0.10295671 -0.08342603 -0.15705219 0.04109658
0.49230516 -0.12702976 -0.07183061 0.09127533 -0.19474937 0.03309327 0.0645288 -0.15836167
-0.0968512 0.22208934 0.15779729 0.13256082 0.108348474 0.15530793 0.21865563 -0.42156747
0.19483735 -0.11424657 0.2367666 0.5008112 -0.17150876 -0.35458872 -0.19962393 0.32925656
0.2413638 0.09145751 -0.0012748471 0.1594351 -0.12000091 -0.45670646 0.822583 0.45610166
-0.09832602 -0.35691264 0.10169232 0.3617624 0.08579098 -0.09383065 0.031553682 0.15516175
0.12050657 0.2627124 0.41420206 -0.0010939648 -0.4382932 -0.11689169 -0.23968264 -0.22907639
-0.2785179 0.16848086 -0.33098668 -0.13983181 -0.045846693 -0.20135655 -0.16943026 0.97867817
-0.17642912 0.30898976 -0.52876115 -0.19355355 -0.28204164 -0.37092775 -0.13420644 0.1797982
-0.5452268 0.354731 0.1853501 0.22868298 0.17004724 -0.071451224 -0.1138831 0.07662751
-0.27015337 0.33378226 0.3861788 -0.35982826 -0.112652145 -0.2057896 0.117356665 -0.1398335
00000000: c838 e6be 7b42 c7bd 0833 46bd e696 ee3e
00000010: 6ef1 b83e fa16 fdbc 603a 1c3e deec 00be
00000020: edc9 953c 08c9 963c 350c e43d 2bca 8bbe
00000030: 21c5 fabe eea6 b2bd 962d ef3e 42e6 a93e
00000040: 35e7 debe 621e acbe 7ba6 893e 42bf c63d
00000050: 5684 a53e 7421 303e 339b aabd 9ea6 1cbe
00000060: d0b5 21be 51c7 503f 00fc 7fbd 53c8 2cbd
00000070: 4db5 61be 3ec6 3fbd d97f 813e f335 8d3d
00000080: 838c 1ebe 012a a33b c60b adba 87d3 b5bd
00000090: c2b0 23be 6f27 ba3d 9e83 5d3d c1ca 6abe
000000a0: 29b0 47bf 8e7d 803d 39dc b73e b4a2 35be
000000b0: 1515 6abe e5c5 9e3e 3dd8 51bd daec 373c
000000c0: 751c 273f f14b 993d bce6 80be 9a41 2f3e
000000d0: 903f 07be ce56 02be 1c2e 91bd 76d9 8a3e
000000e0: 2dbe 103f 3eca b6bc bb00 45be ab40 813e
000000f0: 032b cfbe 17cf 9cbe 2858 2b3d 755e 143e
00000100: b454 26be e0b5 bcbd 2c65 c83e ebbe d4bd
00000110: 6669 7c3e 53a6 b6be 74be 0cbe 0685 8cbc
00000120: d4db 7bbd 6adc f93c 73ce 3abd 079d 3e3e
00000130: f258 ef3c d44c c0be da85 273f 8b0f f3be
00000140: 5808 2ebe ad8e 83be e179 933e 1581 8abe
00000150: b8b7 b3bd a517 1f3e 055a 8d3d 519e f33e
00000160: 50d3 d93e 8951 433e fa5b 163f 44a0 113d
00000170: f34e a93e dd32 7bbd ffb5 29b8 de06 b5be
00000180: 81d9 a03b 41b9 663e 1e5c 6dbe d6a3 b2be
00000190: 9735 a8be f4d3 583e e1c6 42be 735f 633f
000001a0: dfbd b83e e30f 823d 6bee fb3e add7 803c
000001b0: f121 b8bd 6069 6f3e 9af7 b0be 35fc 3abf
000001c0: 292a 57be bafd 483d 9332 333e 6f5f 57be
000001d0: 7c7e 96be 36d5 8fbe 332a 763e da5f 37bc
000001e0: da4f 8d3e bc2d adbe b605 f8be fe5c 1d3f
000001f0: 871c 8e3d c85d 203e 9922 e93e 0a5d dd3e
00000200: b27a eebe 2e87 d23e 9c0c e53d 09b8 813e
00000210: 16f9 25be 744a 2a3d 9768 a53c ce44 2abd
00000220: 9d78 6fbd 89f4 2d3f 4c85 4ebd 9f92 e9bb
00000230: e557 883f 5931 6b3f dfb4 71be 2ef7 1dbf
00000240: 458a 663e 7463 cd3e 4a6e debe bc9c f5ba
00000250: 2a19 1cbe 040d 5c3f 45d8 7e3f 7cee 36be
00000260: 154c 4fbe e538 a8bd 6fc2 42bf 8627 04bf
00000270: a306 003d d842 923d 53e8 d0bd 3f36 383e
00000280: 4b14 17be 5ab2 ccbd be20 45bc be6f 11be
00000290: 5bf0 c6be 2830 46be 6287 7fbd 4b10 443e
000002a0: 2f4f c13e 71c3 c83d 52d4 babd 392d 3e3e
000002b0: f8da d2bd 44db aabd 4ad2 20be e354 283d
000002c0: 6c0f fc3e 1714 02be ed1b 93bd 8fee ba3d
000002d0: 616c 47be cf8c 073d ad27 843d 9029 22be
000002e0: ec59 c6bd 636b 633e 9d95 213e 06be 073e
000002f0: cee5 dd3d 0b09 1f3e 43e7 5f3e b1d7 d7be
00000300: 7183 473e 1bfa e9bd f272 723e 2a35 003f
00000310: fe9f 2fbe a78c b5be 376a 4cbe 5194 a83e
00000320: 1228 773e 134e bb3d c518 a7ba f442 233e
00000330: 09c3 f5bd 6ed5 e9be cd94 523f 2886 e93e
00000340: 275f c9bd 41bd b6be 1044 d03d ec38 b93e
00000350: 2eb3 af3d 492a c0bd 6f3e 013d b9e2 1e3e
00000360: 26cc f63d 3d82 863e 4b12 d43e 5e63 8fba
00000370: f767 e0be e964 efbd 5e6f 75be 0093 6abe
00000380: e699 8ebe 3f86 2c3e 1677 a9be 1230 0fbe
00000390: bec9 3bbd 6930 4ebe 207f 2dbe a78a 7a3f
000003a0: d6a9 34be e833 9e3e e45c 07bf e732 46be
000003b0: c367 90be 3eea bdbe 6a6d 09be 051d 383e
000003c0: fc93 0bbf 4d9f b53e 6bcc 3d3e df2b 6a3e
000003d0: dd20 2e3e 0555 92bd 8b3b e9bd e2ee 9c3d
000003e0: 8b51 8abe 82e5 aa3e 3ab9 c53e 693b b8be
000003f0: 2bb6 e6bd 82ba 52be b158 f03d 8330 0fbe

_hidden_layers.1._model.0.bias f4 [80]
0.22062527 -0.14674918 0.26396704 -0.13103801 -0.24529533 0.053574443 -0.015885007 -0.13385712
0.1361152 0.34268695 -0.0686109 -0.47419992 -0.046769544 -0.08111634 0.1251392 -0.1370379
-0.012705868 -0.07557034 -0.08524517 0.039904475 0.06465653 -0.115785636 -0.10314702 0.09038759
0.08484976 -0.22055861 0.02316223 0.40090042 0.51366854 -0.21574253 -0.05864186 0.14311972
-0.5597734 0.40400723 -0.31728944 -0.023880912 0.13671127 -0.08325262 -0.24080473 -0.00040182113
-0.1863597 -0.043237723 0.35418016 -0.015819674 0.17125231 -0.044540327 -0.027704054 0.079989985
0.36078462 -0.020148683 0.23110801 -0.01610654 -0.16742593 0.5163398 0.14610855 -0.43928194
-0.28965473 0.0074670603 0.115293354 -0.007993535 -0.093461744 -0.009137216 0.3869726 -0.40089235
0.047269925 0.39023814 -0.3291567 -0.06429061 -0.027791971 -0.33500758 0.013292121 -0.005954877
0.22428726 0.03752513 0.020926092 0.06498252 0.004989588 -0.32348692 -0.06048486 0.35359427
00000000: 97eb 613e 6b45 16be b026 873e d42e 06be
00000010: b32e 7bbe e070 5b3d 4621 82bc d711 09be
00000020: c861 0b3e aa74 af3e df83 8cbd 55ca f2be
00000030: 6c91 3fbd 5320 a6bd 7e24 003e aa53 0cbe
00000040: 462c 50bc 9fc4 9abd 0595 aebd e072 233d
00000050: a56a 843d 0521 edbd bf3e d3bd 211d b93d
00000060: b6c5 ad3d 1eda 61be b8be bd3c d242 cd3e
00000070: c87f 033f 9ceb 5cbe 7232 70bd fa8d 123e
00000080: 4f4d 0fbf 09da ce3e c373 a2be e7a1 c3bc
00000090: 0afe 0b3e 5a80 aabd 8495 76be 85ab d2b9
000000a0: 14d5 3ebe 0a1a 31bd 1a57 b53e 4398 81bc
000000b0: c45c 2f3e eb6f 36bd 9df3 e2bc cad1 a33d
000000c0: c3b8 b83e da0e a5bc 94a7 6c3e ddf1 83bc
000000d0: b471 2bbe d82e 043f 7b9d 153e 90e9 e0be
000000e0: a04d 94be 3eae f43b ec1e ec3d 51f7 02bc
000000f0: df68 bfbd 43b4 15bc 4621 c63e c341 cdbe
00000100: 1c9e 413d 4bcd c73e 3a87 a8be ccaa 83bd
00000110: fdab e3bc 1d86 abbe 32c7 593c 2121 c3bb
00000120: 8fab 653e f3b3 193d 326d ab3c 8e15 853d
00000130: b37f a33b 14a0 a5be f9be 77bd 4f0a b53e
