Project/Assets/ML-Agents/Examples/Soccer/TFModels/mlagentmodel.onnx (onnx, 34035 bytes, 6 tensors)

_logits._model.0.weight f4 [4, 80]
00000000: 16b0 df3d d7ad ebbd 2d5d 793e 5a61 b1be
00000010: 8234 7dbd dec3 08bf e7ed 41be c636 efbc
00000020: b97c 52bf 27f3 69be dd43 edbc 98d8 57be
00000030: b2bb 693f 2b34 b23d 52fc 4a3d 8fa6 1ebd
00000040: c99f 98bd 2759 afbe 8bf6 233e 4f73 30bf
00000050: d579 aabd a259 9fbe 2463 da3d 8cab a83e
00000060: 0c17 44be 1928 803e e53f 433e 291d dd3d
00000070: 162e 423e 079e 423c 5622 1cbd 5138 19be
00000080: c131 0dbf e103 ee3d 2b83 903e 922f ab3e
00000090: 1099 533e 6035 8e3f ee8b 82be 3cfe 47be
000000a0: 70a4 a23d bd94 79be 824c bc3f 0324 8ebd
000000b0: 6905 1abc 02ec d9bd 2896 12be e6a7 3c3e
000000c0: 1ec9 103e 766a 30bd af05 17be 9fc7 bbbd
000000d0: fc6b f9be 9bc4 4f3e 84f1 4abe e276 d53e
000000e0: e726 023e 5184 a0bd 9925 5b3e b647 43be
000000f0: d748 503d 6b8c 763e 2a3d 723f a88e 71bd
00000100: d8ec ab3d cbbf 9d3e 57a7 2b3d 52fd a43d
00000110: 3478 81be ff0c 35be 2c15 32be 8436 8d3e
00000120: 634e e83d 12b4 4fbe da8e 573d f9e7 b13d
00000130: 9209 b93e 8399 a0bd 4a9d 273d bc35 433d
00000140: b440 9f3d c57a 36be b1be 8ebe eeac c73e
00000150: e989 513e 65c1 21be 5b08 47bd 16ea adbc
00000160: e157 9e3e 598f 253d 845e 72bc 0f53 3dbe
00000170: b91e c93e d8de 9dbe efb1 e33c d459 bc3e
00000180: c00d 3cbd b0b7 f9bd 644f 073d 8fd3 fabc
00000190: 6240 553e 576d 48bc c8ea 9ebc 28b0 13bd
000001a0: 9bbc 0cbe 7791 4bbe f99e f23d 6587 4b3e
000001b0: a6db 5abe c5b7 2abe f345 88be da3b 8d3d
000001c0: 2ca6 82be 61f2 4dbf 4657 473e 34bd 903d
000001d0: 5e83 113c e006 9ebd 3970 833c c964 c3bd
000001e0: dbbf 3c3e d824 40be 9b5c 1bbf 0fc3 2dbe
000001f0: 7204 32be 4bce 173d 87bd 38be 7dc7 68be
00000200: ffed a6be 6302 5b3c 08ef 1cbe 2282 37be
00000210: 599a 403f 3cfe c53e e58c 36be 7a1c 50be
00000220: df40 2ebe d177 62bf 2f99 dabb ccb8 8c3e
00000230: de08 8fbd 4278 4e3d d613 b9bd e7c0 8c3e
00000240: 8a0f 1bbe 4cfd 903e 78df 73bd d0c9 34bd
00000250: 9f8e 2d3e e094 edbe 3a93 02be 7eca 853e
00000260: 6caf 35bd dfdf 01be 057e 23be 23a6 913e
00000270: 1b61 19bf 9f5b 1a3e 9f70 d73d decf a03d
00000280: b3fc 59be 8f4b 20be 897b 57be 3ac3 403e
00000290: e872 f93c a6fc c63e f720 da3d efd1 1dbe
000002a0: 28a8 5d3e 658c 7f3d a18f 60bd 35e7 793d
000002b0: 50c9 a9be 020a a9be 3cd1 7cbe a7ad dc3d
000002c0: 88c6 db3d f349 6bbe ff50 e53e 4363 9e3c
000002d0: a260 3abd 2753 023e e4b6 d03c f9e9 05be
000002e0: 51ee 04be 19c6 70be 4570 96be 8bfb 443e
000002f0: 428a 6abe 3c27 aa3e 83d4 043e b9b6 35be
00000300: a328 c03d a635 b93e c8c4 c5be a6c4 133b
00000310: a865 563e 8240 9a3e 16b8 1fbe a2ff 8fbe
00000320: 2357 23bd 88dd 6cbd 7e74 9bbe 11f2 863e
00000330: b341 31bd 4431 aabe 1e44 32be 74d2 3abe
00000340: c33c 733e 9595 ed3d b9a5 25be 5c1e edbc
00000350: 9d41 23bc 5e68 24bd d965 9c3e a08e 16be
00000360: d50d 143e 95a9 90bd dec9 633e e6d1 163e
00000370: dd73 d63d a99d e6bd f4db 30be 1a8e 463c
00000380: 123a 9b3d 12cb 66be 69c2 2f3d d931 b9be
00000390: b58a 32be a939 99bd ff10 20be 6327 1ebe
000003a0: 4742 3fbe b3fc 833d b381 78bd ad70 84bd
000003b0: e07a 6e3e 725e 21be 8393 8c3e 2534 fabb
000003c0: 9509 3fbe 1bbb 2bbe 0cd5 0c3e 6a57 233e
000003d0: 4058 65be d41f a93d e6ce c8be 5772 8ebc
000003e0: f61f 493e 20f3 6a3e 44fd 37be c80f f8bd
000003f0: cd54 41be a708 54be 4e39 8fbe 5d6d 343e
0.109222576 -0.11507767 0.2435195 -0.34644586 -0.061817653 -0.5342387 -0.18938409 -0.029200923
-0.8222156 -0.22846662 -0.028963024 -0.21078718 0.91302025 0.087013565 0.049557038 -0.03873306
-0.074523516 -0.34247705 0.16012017 -0.68925947 -0.08324019 -0.31123072 0.10663441 0.3294338
-0.19149417 0.25030592 0.19067343 0.107965775 0.18962893 0.011878497 -0.038118683 -0.14962889
-0.55154043 0.116218336 0.28225073 0.3343473 0.20663857 1.1110039 -0.25497383 -0.19530576
0.0794152 -0.24373145 1.4710848 -0.069404624 -0.009400704 -0.10640718 -0.14315093 0.18423423
0.1413922 -0.04307028 -0.14748262 -0.09168934 -0.48715198 0.20289843 -0.19818693 0.41692263
0.12710153 -0.07837737 0.21401061 -0.19070324 0.050850715 0.24077003 0.9462458 -0.05897394
0.08394784 0.3081039 0.041907635 0.080561295 -0.2528702 -0.17680739 -0.17390889 0.27580655
0.11343076 -0.20283535 0.05262647 0.086868234 0.36140114 -0.0784178 0.040921487 0.047658667
0.07776013 -0.1782027 -0.2787986 0.38999122 0.20462765 -0.1579643 -0.048591953 -0.021229785
0.3092642 0.04041991 -0.014793042 -0.18488716 0.39281252 -0.3083408 0.027794806 0.36787283
-0.04591155 -0.12193239 0.033034697 -0.030618457 0.20825341 -0.0122331 -0.019399062 -0.036056668
-0.13743822 -0.19879709 0.11846728 0.19875868 -0.21372852 -0.16671665 -0.26615867 0.068961814
-0.25517404 -0.80447966 0.19466886 0.07067338 0.008881418 -0.07716155 0.016044723 -0.095407076
0.18432562 -0.18764055 -0.6068818 -0.1696894 -0.17384508 0.03706197 -0.18041049 -0.22732349
-0.32603452 0.013367268 -0.15325558 -0.17920735 0.75235516 0.38670528 -0.17827184 -0.20323363
-0.17016934 -0.88464075 -0.006671093 0.2748474 -0.06984113 0.050407656 -0.090369865 0.27490923
-0.15142646 0.2831825 -0.05953929 -0.044137776 0.16948937 -0.46402645 -0.12751475 0.26131052
-0.04435675 -0.12683056 -0.15966041 0.28447065 -0.59913796 0.15074013 0.10519528 0.078521475
-0.21287803 -0.15653823 -0.21043219 0.18824473 0.0304503 0.3886463 0.10650819 -0.15412115
0.21646178 0.06238975 -0.054824475 0.06101151 -0.33161402 -0.33015448 -0.24689192 0.10775309
0.10731226 -0.22977428 0.44788358 0.019334441 -0.045502312 0.12727033 0.025477834 -0.13077535
-0.12981535 -0.23513068 -0.2938253 0.19236581 -0.22904304 0.33233058 0.12971692 -0.17745484
0.09382751 0.36173743 -0.38626695 0.0022547632 0.20937216 0.3012734 -0.15597567 -0.2812472
-0.039878022 -0.057828456 -0.30362314 0.26356557 -0.043275546 -0.33240712 -0.17408797 -0.18244344
0.23753648 0.11600796 -0.161765 -0.02894514 -0.009964374 -0.040138595 0.30546454 -0.14702845
0.14458402 -0.07063595 0.22244975 0.14728507 0.10471318 -0.1126054 -0.17271405 0.012118841
0.075794354 -0.22538403 0.042910013 -0.36170843 -0.17435725 -0.07481701 -0.15631483 -0.15444712
-0.18677627 0.06444683 -0.060670566 -0.06466804 0.2328906 -0.15758684 0.27456293 -0.0076356106
-0.18655999 -0.16770594 0.13753146 0.15951315 -0.22396946 0.08258024 -0.3922035 -0.017388506
0.19641098 0.22944307 -0.17967707 -0.12112385 -0.18880005 -0.20706426 -0.27973408 0.17619844

_logits._model.0.bias f4 [4]
00000000: 8cf2 92bf 0835 203e 6cdf 0d40 1576 0c40
-1.148027 0.1564523 2.2167616 2.1947072

_hidden_layers.0._model.0.weight f4 [80, 13]
00000000: c821 913d 1fae 31c0 edf4 9c3f a1ef 4040
00000010: a627 113f ba39 933f 2931 da3d 82d4 2240
00000020: 0e36 04bf 290d 8840 69fd 5b40 f63d 623f
00000030: a0f7 83c0 748e aebf 1e31 143f ad2d 9f3f
00000040: 8f2a 283f 724c 133e ed25 56bf 2ddf 3bbf
00000050: 86aa 57bf 5941 8b3f 6daa 2a3f ec4d 98c0
00000060: 7338 7fbf 842b b93f 5f6c c93d 8adc 82bc
00000070: 7b27 f0bf d149 3fbf 69a7 ab3e 7c45 f43f
00000080: 0f3a 91bf e9fb 323f 40f2 8cbe e9f2 cdbf
00000090: 768e 11be 793e 0d40 f9ec 2ec0 a4b8 2fbf
000000a0: c747 9a3c 2e1b 6c3e 3926 14bf 732c c13e
000000b0: 32e8 a7bd 2185 74be d3f6 3f3d d49d 83c0
000000c0: 7fc7 f63d e2a5 82c0 33dd 6bbf ddf6 45c0
000000d0: c9e7 a53e 32b5 aa3d 27d6 08bf 0254 363f
000000e0: 5508 9cbe 3512 c6bf 73a1 b4bf bb88 773d
000000f0: 7663 16c0 6dfb e0be 53d6 56bf 0489 8dbf
00000100: 2d4a 49bf c62c 55bf 01c5 3dbc 3d31 00c0
00000110: 4ba8 0040 ed85 9bbd e427 d0be 82dc 9dbe
00000120: 05a9 9fbc f2bd 39bf f30b 223f aacf 8cc0
00000130: 941c 41be 60ae 9740 c215 8c3f 4219 9dbd
00000140: 26b7 aa3f 6ebf 3bbf bed4 d2bc e369 09be
00000150: 3798 62bf d615 bc3b 0aca 593e 7f1b 03c0
00000160: 1ad1 4440 5d5a bcbf 4f5c 0e3f f75b a8bf
00000170: d8de d63f c52c 29bf ffe4 3ebf a2fd 7ebd
00000180: 0381 e0bf cc6c 443f 8af6 4dbf 1424 0a40
00000190: a2a0 bcbd 9351 8440 e7aa 1cbf 70f0 95be
000001a0: 3e33 2e3f 4ae7 0fbe eb6b 483f 1d42 313e
000001b0: 29a3 223e 1946 c13f 0aee 0840 90bd 913d
000001c0: dfac adbf cddd b8bd 86f4 8540 47b6 d83f
000001d0: 31f5 f5bf 4a51 003f 5151 0ac0 010e 5c3e
000001e0: de3c e1bf 4a87 113e 3575 58c0 5bdb ef3c
000001f0: c81f 1d40 392f 79bf 6a26 b9bf efba 773f
00000200: b42a a2c0 02b4 46bf 7de8 11bf f837 c6bf
00000210: cbbd 13bf 11dd 5fbf d87c afbe 25eb 27c0
00000220: 15b9 69bf 5a7e c23f e7fb a7bf b562 5c3e
00000230: aedf 40bf e67a 2bc0 4347 9b3f 04b8 06bf
00000240: a615 c0bf fbcd ef3e 2f14 cc3d 8878 17be
00000250: 9e18 20bf 3d67 63c0 59ce 373f 2376 473f
00000260: af08 033f 324d a4be 9ae0 d33d cb07 81bf
00000270: 06df 57be f0d2 8f3f ad2a 62bf 2b26 db3d
00000280: 907d 24bd e6ad 763f b1c8 f8bf d759 88bf
00000290: d805 a23f 87e1 11c0 7717 d93f 49c1 9fbe
000002a0: b9b3 dcbf e277 99be d379 a8bf 8bea 83c0
000002b0: d045 dc3d e65b f1be ddb5 a13f fed9 01bf
000002c0: f260 be3f 4f59 54bf 8d40 0b3f 6977 d040
000002d0: 7e11 ddbe 8ee6 59bf 0cd6 ecbc f96b 86bf
000002e0: 13fc f63d fb10 95be 0748 083d 7e43 983f
000002f0: 6d1a 513f b164 7c3f 7c46 80c0 9f68 da3f
00000300: 1a24 e33e 77c8 413f 9582 413f 0655 9bbf
00000310: e1a1 2dc0 f3f8 973f feb7 dc3f 1720 49bd
00000320: ae0b 493f 4511 603e 15cb e83f e244 603f
00000330: df18 0740 bec3 913f c695 8f3d ab24 b23f
00000340: 66f2 7a3f 5346 a13d f658 acbf cb12 64bf
00000350: 2081 353d 0cb2 3440 c3e6 ab3f 378c 20be
00000360: db36 80bf e69c 043f c9ff 233d 0f10 273f
00000370: 7d7b 78bf 5d56 19be 2847 2ac0 158a 80bf
00000380: 8ca1 003f 3632 503e 2ff1 873d 8239 923f
00000390: 60ec 1640 3fd8 2040 e166 ca3f 52e8 b1bf
000003a0: a04a 063e e8cb 9fbe f003 bbbe d4c3 203f
000003b0: 8a7b dbbe ba27 bbbd 7296 85bd 8009 10c0
000003c0: 8e94 00c0 1ad3 32be e46d e6bf cdcc 09bf
000003d0: a4af 4940 69a8 e6bf 9067 ee3f bdbc 39bf
000003e0: e17d 94bf 239b c0bf 7b3d 86be c09b 9abe
000003f0: 9fef bd3f 6c2c a8bf 9a5c ba3f 660d 933f
0.070865214 -2.7762525 1.2262245 3.0146258 0.56701124 1.1501992 0.10653908 2.5442204
-0.5164498 4.2516065 3.437342 0.88375795 -4.1239777 -1.3637223 0.57887447 1.2435814
0.6568994 0.1438463 -0.8365162 -0.73387414 -0.84244573 1.0879318 0.666663 -4.759512
-0.9969551 1.4466405 0.09835123 -0.015974302 -1.8762048 -0.7472201 0.3352616 1.9083705
-1.1345843 0.69915634 -0.27528572 -1.6089755 -0.14214501 2.206938 -2.7332137 -0.68641114
0.018833054 0.23057243 -0.57870823 0.37729225 -0.081985846 -0.2387891 0.04686625 -4.113016
0.120497696 -4.0827494 -0.921344 -3.0931923 0.324034 0.083353415 -0.5345177 0.71221936
-0.30475107 -1.5474306 -1.411177 0.06043313 -2.3498206 -0.43941823 -0.8392078 -1.1057439
-0.7862881 -0.83271444 -0.011582614 -2.0030053 2.0102718 -0.07593904 -0.40655434 -0.30832297
-0.019489774 -0.7255546 0.63299483 -4.4003496 -0.18858558 4.740036 1.094414 -0.07670833
1.3337142 -0.73338974 -0.025736209 -0.13419299 -0.8851351 0.0057399077 0.21268478 -2.0485532
3.0752625 -1.4715077 0.556096 -1.3153065 1.6786757 -0.6608394 -0.7456817 -0.0622536
-1.7539371 0.7672851 -0.80454314 2.158452 -0.09210326 4.134958 -0.61198276 -0.29285002
0.6804694 -0.14053074 0.7828967 0.17310376 0.15882553 1.5099517 2.1395288 0.07116234
-1.3568381 -0.0902668 4.186099 1.6930627 -1.9215451 0.5012404 -2.1612132 0.21489717
-1.75967 0.14211765 -3.3821537 0.029279402 2.4550648 -0.9733768 -1.4464848 0.96769613
-5.067713 -0.7761842 -0.56995374 -1.548583 -0.57711476 -0.87446696 -0.34274936 -2.623727
-0.9129804 1.519481 -1.312375 0.21522029 -0.7534131 -2.6793761 1.2131122 -0.52624536
-1.5006607 0.46836838 0.09964787 -0.14792073 -0.6253756 -3.5531762 0.71799237 0.7791464
0.51185125 -0.32090145 0.10345574 -1.0080503 -0.2108117 1.1236248 -0.8834637 0.10700639
-0.04015881 0.963591 -1.9436246 -1.0652417 1.2658033 -2.27939 1.6960286 -0.31202152
-1.7242347 -0.29974276 -1.3162178 -4.1223807 0.10755503 -0.47140425 1.2633625 -0.50723255
1.4873335 -0.82948774 0.5439537 6.5145764 -0.43177408 -0.85117424 -0.02891066 -1.0501701
0.12059798 -0.29114518 0.033271816 1.1895597 0.8168095 0.9859114 -4.008604 1.7063178
0.4436348 0.7569651 0.7558988 -1.2135322 -2.7130053 1.1872848 1.724365 -0.04910287
0.78533447 0.21881588 1.8186976 0.87605107 2.110893 1.1387861 0.07010989 1.391744
0.9802612 0.078747414 -1.3464649 -0.89091176 0.044312596 2.823367 1.3429798 -0.15678488
-1.001674 0.5180191 0.040038858 0.6525888 -0.9706343 -0.14974351 -2.660593 -1.0042139
0.502465 0.20331654 0.06637799 1.14238 2.3581772 2.5131986 1.5812646 -1.3899024
0.13114405 -0.31210256 -0.36526442 0.6279881 -0.4286769 -0.091384366 -0.06522836 -2.2505798
-2.009067 -0.17463341 -1.8002286 -0.53828126 3.1513453 -1.8020145 1.8625355 -0.72553617
-1.1600915 -1.5047344 -0.2621878 -0.30196953 1.4838752 -1.3138556 1.455951 1.1488464

_hidden_layers.0._model.0.bias f4 [80]
00000000: 80a3 1ec0 8d8c a43f 3927 a7be e1ce 123e
00000010: de74 783d f5d2 193e 6020 31be b2b3 a53f
00000020: 0a51 a6be c0be 17c0 2c21 b2bf b166 76bf
00000030: 9a21 693f 29da 99bf b8fe 73bf 29ba 03c0
00000040: 6b3e 5b3e 15c3 20c0 9a8d ce3e cda3 babf
00000050: 39b9 383f 8a2c 1a3f 2836 0abf ef0a 68be
00000060: f815 12c0 7f45 2440 fa21 1dbd c146 e53f
00000070: 2b39 0140 55b4 b33e 138b 0bc0 80d5 ebbf
00000080: 2374 a83e 8ba6 fe3f b456 5cbf fca6 1940
00000090: a1ad 133f e9e0 c4bf 72e0 ecbf e880 013f
000000a0: 7dae 9abf 82b3 8f3f 3edf debf 4e21 57be
000000b0: c668 243f fcd4 8abf c2fe 89c0 c55d 63bf
000000c0: a26b 503f bead 693e 9d4a 0c3f 9923 0440
000000d0: d6bc e23f 5043 be3f ebfb 93bf ba1f 2740
000000e0: cd89 0c40 641c 253e e50e 43be d553 703f
000000f0: 1758 debb feb8 1240 589b 543f 741f f6bf
00000100: 6ea9 fabf 4d30 7ac0 4976 3640 3636 3ebe
00000110: ac90 5040 9e21 47be c4f4 2340 2f6d 45bf
00000120: 9c27 883e cf38 c13d f3ac 3ac0 e05d aa3f
00000130: 435f ca3f ef38 99bf b86a 0abf 8c5e d3bf
-2.4787292 1.2855393 -0.32647112 0.1433673 0.06065833 0.1502188 -0.17297506 1.2945464
-0.32483703 -2.3710175 -1.3916373 -0.96250445 0.91066897 -1.2019702 -0.95310545 -2.0582373
0.2141053 -2.5119069 0.40342408 -1.4581238 0.7215763 0.6022421 -0.53988886 -0.22660421
-2.2825909 2.5667417 -0.03836248 1.7912217 2.0191143 0.3509852 -2.1803634 -1.842453
0.32901105 1.9894575 -0.860698 2.400817 0.5768681 -1.5381137 -1.8505995 0.5058732
-1.20845 1.1226656 -1.7411878 -0.21008798 0.6422237 -1.0846248 -4.3123484 -0.88814956
0.81414235 0.22820184 0.5480135 2.0646727 1.7713878 1.4864292 -1.1561254 2.6113114
2.1959107 0.16124111 -0.1904865 0.9387792 -0.0067854035 2.292541 0.83049536 -1.9228349
-1.9582956 -3.909198 2.8509696 -0.18575367 3.25883 -0.19446418 2.5618143 -0.77119726
0.2659272 0.094346635 -2.916806 1.3309898 1.5810322 -1.19705 -0.5406909 -1.6513228

_hidden_layers.1._model.0.weight f4 [80, 80]
00000000: 2e7d eebe 4c12 62bf 590a 4abf c376 d3bf
00000010: c76e 203f 54e4 c53f d4d1 2bbf 0a81 863f
00000020: e160 993f a040 d3be bac7 82bf 43ed f53f
00000030: 5724 5b3e 35f1 8d3f 002c 0ebf cf9a 51bf
00000040: c30c 243e d83d 3cbe 7328 d0bf 5f52 89bf
00000050: 3977 f13d f660 673f 0234 0dbf 4459 5c3d
00000060: 3b10 d6be 8dd3 433e 3561 9fbf c742 e93f
00000070: 3a11 c13e ebbc 8f3f 469b 093f 38f5 8ebd
00000080: bb59 863f ca2f 10c0 e19c d13f 5cf1 ddbf
00000090: b1ae 9fbe 10d1 2240 2b45 613e c477 b1be
000000a0: 65e9 e5bf 43fb cfbe 73e1 8bbf cfd1 99bf
000000b0: 308d 103e 817f 42be 6fcb fbbf 2604 57bd
000000c0: d19f 17bf f81f 5bbe 2caa 803d 8bcd b3bf
000000d0: d7dd 51bf 2a61 1cbf 645c 89bf a38a 9d3e
000000e0: 67ab f33e d7ae 6f3f 25c6 85bf 29ce 6a3f
000000f0: d453 0e3f 15cd a03f c0a3 de3e 4e67 a5bf
00000100: 492e 113f c733 b33e 75f3 a33e 250a ca3f
00000110: 4b93 563e 930b 3bbe 4087 0ac0 5a8e b53d
00000120: 7854 30bf b0a9 3e3f 81bf fb3e 872e 9c3e
00000130: f38d 803f 20f2 863d a16d b0bd 6636 3abe
00000140: 99c4 06bf 35f3 ebbe a2af 29be 504a d63d
00000150: b060 5e3f 06cb 1abf d87f bf3f 3b47 ac3e
00000160: 49f2 c2be b747 e7bc f232 89bf a250 f2bf
00000170: 1eed 823f 8a4a 0ebf e762 dfbf c67e 62bd
00000180: 5e9f 283e 7439 c8bf 5077 733f b32a 29bd
00000190: 6e2a b93e 79af 2cbf 581c 17be 7bed 06bf
000001a0: 137e 25bf b54e 3c3e 9130 39be 6fe4 a03d
000001b0: 998d 9d3f 4163 91bf 27f8 49bf ab91 313f
000001c0: edb3 6d3f 4d51 69be 7548 0d40 2c2c 353e
000001d0: a4a9 373f 230c 88bf c167 c7be 97e0 3f3f
000001e0: aabb eebe b7d0 343e 09b7 ff3d 92af 19bf
000001f0: 11a2 00bf db27 193f 9fb2 69bf ca8f 2f3f
00000200: 1a85 fdbf 2f06 e9bb b53f 9e3f a582 9a3f
00000210: a792 52bf 4652 c53e 3737 863f fe1f d53f
00000220: 1c6d cb3e a805 f5be e35b 76be 0ffb 523f
00000230: a315 763f 5ba3 44be 558a 953e 5560 dfbe
00000240: 75a0 d0bc b0a8 5b3f bdce cf3f df81 b0be
00000250: c69c df3e bab9 0ebf 1b08 833d a868 193f
00000260: a598 f93d 1ac6 eebe 723f 0e3f 6dbd 0cc0
00000270: 1495 98be 4ec1 a6be 5650 cb3f b139 813f
00000280: c110 b93f b3b0 2fbf c89f 03bf ad09 3d3f
00000290: 66b8 8bbf 77c2 8f3e d57f a43e 0b00 b13e
000002a0: 0014 90be 7eb9 b1be c5fc 913f 1d84 09bf
000002b0: eb54 fa3e 1107 ef3e 58e2 a43f c8d3 a0bd
000002c0: 7822 083e fec7 cbbd 6bf8 dbbf 011d 5cbf
000002d0: 735c b33e 1892 d2be 31da 1a3f 97df 03bf
000002e0: c926 a1bf 183d 673f d213 25be 9f0e ac3d
000002f0: 7c99 4e3f 774f 00bf 1483 57be 6574 ddbf
00000300: 1c42 90bd 2ede 603f 6ccd f83b 1f50 fabd
00000310: 5042 09be 695f 90bf 2b5d 00bf dc23 dfbe
00000320: 9a62 613f ce7e 2fbf 73ea a03d 4a8c f23d
00000330: 59ae 80be 5fc0 103f bfa7 6fbe baed 0440
00000340: f404 00be efc7 c4bf 4be7 0440 341f af3d
00000350: 49f0 8f3f 109c 9ebf 40d5 cc3f fb59 ce3d
00000360: 9663 a33f 2afa 633f 5efb 96bd 8e3d 08bf
00000370: 2116 993f f4bc 3f3f 94a7 41bf 1146 bdbf
00000380: 0f12 eb3f 8754 473f 8218 6f3f 3edb b7bf
00000390: 0f18 69be da48 82bf 6af6 c23d b722 2e3e
000003a0: e75e d1be 9a75 c93d 773b a73f 9588 463f
000003b0: 1f23 82bf b6a6 d0be 0045 333f ff5b 11be
000003c0: 115f dcbf df75 88bf 4370 9fbe d90d 19bf
000003d0: fea9 0e3f d2ac 2240 fd3c b7bf d76c 4c3e
000003e0: 5971 163f 1745 b73f 7871 5ebf 8acd 763e
000003f0: f411 d9be 6dfa 753f 0b58 0f3f 804a e1be
-0.4657988 -0.8830917 -0.7892204 -1.6520618 0.6266903 1.5460305 -0.6711705 1.050813
1.198269 -0.41260242 -1.0217202 1.9213032 0.21400581 1.1089236 -0.5553589 -0.81876844
0.16020493 -0.18382967 -1.6262344 -1.0728263 0.11790318 0.90382326 -0.5515748 0.053796068
-0.41809258 0.19123669 -1.245154 1.8223504 0.37708455 1.1229528 0.53752553 -0.069803655
1.0496134 -2.2529168 1.6376001 -1.7339282 -0.31187966 2.5440102 0.21999042 -0.34661686
-1.7961851 -0.40621385 -1.0928177 -1.2017154 0.14116359 -0.18993951 -1.9671458 -0.05249419
-0.59228235 -0.21398914 0.06282458 -1.4047102 -0.81979126 -0.6108576 -1.073132 0.30769834
0.47591707 0.9362616 -1.0451094 0.91720825 0.5559666 1.2562586 0.43484306 -1.2922151
0.5671125 0.3500044 0.3202168 1.5784346 0.20954625 -0.18266134 -2.164505 0.08865042
-0.6887889 0.7447767 0.49169543 0.30504248 1.004332 0.065891504 -0.0861466 -0.18184814
-0.52643734 -0.4608399 -0.16570905 0.10463393 0.86866283 -0.6046604 1.496089 0.33648095
-0.38075474 -0.028232438 -1.0718672 -1.8930857 1.0228612 -0.5558249 -1.7452058 -0.05529668
0.16467044 -1.5642533 0.9510393 -0.041300487 0.36165184 -0.6745525 -0.14756906 -0.52706116
-0.646455 0.183894 -0.18084933 0.0785607 1.2308837 -1.1358415 -0.78894275 0.69362897
0.9285267 -0.2278492 2.2075474 0.17692631 0.71743226 -1.0628704 -0.38946345 0.7495207
-0.4662755 0.17657743 0.12486083 -0.60033524 -0.50247294 0.5982644 -0.9128818 0.6857878
-1.9806244 -0.007111333 1.2363192 1.207112 -0.82255024 0.38539332 1.04856 1.6650388
0.3973168 -0.47855878 -0.2405849 0.82414335 0.96126765 -0.1920294 0.292071 -0.43628183
-0.025467137 0.8580427 1.6234967 -0.34474084 0.43674296 -0.55752146 0.0639803 0.5992532
0.12187318 -0.46635514 0.5556556 -2.1990616 -0.29801238 -0.32569355 1.5883892 1.0095731
1.4458238 -0.68628997 -0.5141568 0.7384289 -1.0915649 0.28078052 0.32128778 0.34570345
-0.2814026 -0.34711832 1.1405264 -0.53717214 0.48892912 0.4668508 1.2881575 -0.07852894
0.13294399 -0.09950255 -1.7185186 -0.85981756 0.3503147 -0.41127086 0.60489184 -0.51513046
-1.2589961 0.90327597 -0.16120842 0.08401226 0.8070295 -0.50121254 -0.21046096 -1.7301146
-0.07043859 0.8783902 0.0075928476 -0.12222313 -0.13404202 -1.1279117 -0.50142163 -0.43582046
0.8804108 -0.68552864 0.07857218 0.11843164 -0.25133017 0.56543535 -0.23403834 2.0770097
-0.1250189 -1.5373515 2.076617 0.085508734 1.1245204 -1.2391376 1.6002579 0.10075756
1.2764766 0.89053595 -0.07372163 -0.53218925 1.1959878 0.74897695 -0.7564633 -1.4787008
1.8364886 0.77863353 0.9339677 -1.4363782 -0.22763084 -1.0178483 0.09519656 0.1700543
-0.40892717 0.09836884 1.3065022 0.7755216 -1.0166968 -0.4075219 0.7002716 -0.1419525
-1.7216512 -1.0660971 -0.31140336 -0.59786755 0.5572814 2.541798 -1.4315487 0.19963394
0.58766705 1.431796 -0.8689189 0.24101844 -0.4239651 0.96085244 0.5599372 -0.4400215

_hidden_layers.1._model.0.bias f4 [80]
00000000: 3626 4fc0 3706 8fc0 86df 793f 7af2 4340
00000010: 30bd 04c0 e5cc 9e40 f359 1040 a50a 19bf
00000020: abf0 9540 aed9 5e3f a637 1cc0 1398 20be
00000030: 701b 76c0 40ce f3bf 29b1 83c0 f48a 0f40
00000040: 464f 5ec0 c57b 51bf 11f8 4c40 dfe6 c63f
00000050: beab 06c0 5f53 d43f beb9 9cbf cb44 17c0
00000060: 7255 70c0 c4e8 19c0 e486 9ebe 045b 57be
00000070: da50 01bf e3b4 513f 329f 9a40 9a78 76c0
00000080: a796 fcbc dbdf 1740 9525 dfbf 8392 d0c0
00000090: 2f0f eb3f c18c 0fc0 a423 183f 5b37 66c0
000000a0: 7084 d6bf fa26 073e f2c5 aec0 616a 4540
000000b0: 717c 8dc0 3ea4 f2bf 1305 98bf 07fe d7bf
000000c0: eeb2 773f 15d8 d53f 63a3 9bbe f5b6 473e
000000d0: ea99 c3be 3b03 03c0 7a07 0a40 81ca 79bf
000000e0: 6bfb b33e 66a8 3bbf 11c5 253f 1886 c43f
000000f0: e9d2 4240 4ed4 26be e7bc 97c0 63b6 81c0
00000100: f519 f43f 2176 6fc0 599c 5640 62a6 a6bf
00000110: 03b7 323f 0224 b33f 0a84 193e cf10 f9bf
00000120: 6d7c 4cc0 eadc 08c0 cc62 7bbf 29ae 12c0
00000130: f4d9 84c0 56d4 52c0 490e a43f 6af2 4ec0
-3.2367072 -4.4695086 0.97606695 3.0616746 -2.074047 4.9625115 2.25549 -0.5978187
4.6856284 0.870509 -2.4408965 -0.15683012 -3.8454247 -1.9047318 -4.115376 2.242856
-3.4735885 -0.8182948 3.2026408 1.5539206 -2.1042323 1.6587943 -1.2244184 -2.3635738
-3.7552152 -2.404832 -0.30962288 -0.21030813 -0.50513995 0.81916636 4.831933 -3.851111
-0.030833555 2.373038 -1.7433344 -6.5178847 1.8364009 -2.242966 0.59429383 -3.5971286
-1.6759167 0.13198462 -5.4616632 3.0846179 -4.4214406 -1.8956373 -1.1876549 -1.6874398
0.967574 1.6706568 -0.30398092 0.19503386 -0.38203365 -2.0470722 2.1567063 -0.9757462
0.35152754 -0.7330383 0.64753824 1.5353422 3.044123 -0.16291925 -4.7418094 -4.053514
1.9070421 -3.741585 3.3532927 -1.3019526 0.69810504 1.3995364 0.14991775 -1.9458255
-3.1950943 -2.1384835 -0.9819763 -2.29188 -4.1516056 -3.29421 1.281686 -3.2335458
