Project/Assets/ML-Agents/Examples/Soccer/TFModels/Single.onnx (onnx, 34035 bytes, 6 tensors)

_logits._model.0.weight f4 [4, 80]
00000000: e610 2ebc ca83 dcbc 375f c13d c740 85be
00000010: 95cd b5bc 3485 893d 0668 b5bd 1d46 1d3d
00000020: 95bd 4abc d07e 20be 8ad5 523e 2ec7 25be
00000030: 1d3c afbd 9582 4fbc 8480 7cbd a020 df39
00000040: d3a5 97bc aefb c83d 6b62 38bd c130 993c
00000050: c8e8 47bd c330 dc3c 7a89 ecbc da5a 813d
00000060: 5890 5d3c 09fe 883c 09c8 953c 289a 6aba
00000070: 3dda 093e 0597 823e 40d5 42be 48cb 5ebd
00000080: 7fc2 2cbe 4deb 863d eb25 6dbc d43b 533e
00000090: fa40 9cbb 829a 933e dd1e b93d 1288 113f
000000a0: c14c 9abd 107a fbbc 614d 5fbc 08e6 36be
000000b0: 1b22 e93b 9abd 60ba c5d5 de3c 65f7 78bc
000000c0: 707e b5bd bfff 47bc 1526 acbd f1df 02be
000000d0: 5d9a b5bc 018a 273d 2f0d 74bd d04d 9fbc
000000e0: 4ca8 e8ba 3c5e 50bc 95b7 85bd 09d8 443d
000000f0: 2a34 d93d 7caf d8bd 7d32 eabc ce2c 213a
00000100: 0eef 3f3e b0de 62bd 26c1 5dbc 0368 cc3c
00000110: ffd2 30be edcb a5be 25f6 80bc 22e7 8a3c
00000120: 77d9 96bc 4bce 7c3c ac8f 03bb 5cc5 d7bc
00000130: 7bd1 b8be 9871 85bd ffe3 cbbd 498d 8c3d
00000140: 832d 33bc 01bd 43bd 022c 33bc 5d61 5cbe
00000150: a29f cc3d a9ef fc3d 8ddb b0bd e1a9 2d3d
00000160: e036 163d 036d 93bd abb4 c63d 2821 07bd
00000170: f24f 353c af5b 903d 9ded 5f3c 7b2d 40bd
00000180: e80f 9fbd 8da4 e4bd 5ebf 2c3d 60e6 6ebe
00000190: 34e8 493d 1cf4 2dbe c85d 983d c7c6 433c
000001a0: 9d06 98be 1f39 a83c 5bb0 98bd 6dc3 0a3e
000001b0: b35c 043d 8384 b3bb f204 fa3d 261b 143d
000001c0: 4c4e 0d3e 9403 65bd 0e0f 583d e020 e6be
000001d0: fa72 ffbc 7a59 d8ba 8416 453d 5d8a 19be
000001e0: e773 a33d 473c 11bc 5a7c e83b db4d 3f3e
000001f0: 7ecd 4fbe 1c17 aa3d 68bc 123c e464 7fbb
00000200: 5773 22bd bc18 2f3e 1210 c5bd b367 2ebe
00000210: b543 84bb 5d23 9fbd 0a4a e83a 89e7 d03d
00000220: 2f37 db3c b759 67bd 4ade fd3c a128 233e
00000230: 6be9 d53d 41eb 82be a1fb 2c3d 8df4 0b3c
00000240: fc51 9abd 4c2f 01bd 00b6 213e b89a bc3d
00000250: e81e e73c 2e0d 92bd df8f 2dbd 8909 78bd
00000260: cb57 13bf 4353 10be 63e2 0d3e 2194 e9bd
00000270: 1149 23be e421 21be d4ed 12bd 46e9 813c
00000280: 2185 723d ef11 39bc 7e0a 0dbe 049c 00be
00000290: b4d2 8f3d b436 e03d 26ae 213c 3183 383d
000002a0: c0ed 8fbd a6de 963c c269 3abd 3c2d acbd
000002b0: 1969 eebd 8393 a8bc 8cbf 16be 4dd5 273d
000002c0: 2548 113e f39f 863d 7563 483d b920 93bc
000002d0: 275f 94bc ee47 40bd e572 02bd c55c 0d3e
000002e0: 0dee 6b3d f219 c43d 9391 a0bc 1e71 973d
000002f0: cd90 5b3e 06b2 903c 883b f73d efae e7bd
00000300: f755 d03d 177d 57bd 3658 73bd 351a 0a3d
00000310: 7d1c aebd 86c3 ce3c 7656 bc3d 8246 24bd
00000320: 9c5d f73c c20a 5a3d e7de 9f3d 53a3 95bc
00000330: 56b2 4a3b 5f10 c23d 268f d93d 11b1 a13c
00000340: 7bc3 c0bd 3220 2b3d 1f91 f73c d389 b7bc
00000350: f231 18bd bbee d43d 4493 c63d c3b9 f6bd
00000360: 4904 043c 4fb6 85bd daf2 8ebd 11f4 f03c
00000370: cbcd 82bd 639f 18bd 5dfc 943d 8961 2e3d
00000380: 9220 54bd d26f 273e bfae 973d c03c 5cbd
00000390: d5ec 9f3d e9a4 023e fbc8 b1bd e6ef 9e3d
000003a0: 26d7 b53c 8f91 5cbd 8851 1bbe 72e3 c1bd
000003b0: 787f 073d 6620 093c 9fbb 253b aea8 a8bd
000003c0: 1e8a dd3c 0028 bbbd 64f7 0fbd 925b 1b3d
000003d0: 123f 003e 862e 1dbd c7d3 89bd ac2c 883c
000003e0: 8ab3 cdbd 1044 a9bc 2ef9 1a3d 8f89 38bd
000003f0: d6ab 73be a52b 81bd ae06 6e3c 66f4 d63d
-0.010624146 -0.02691831 0.09441989 -0.26025984 -0.022192756 0.067148596 -0.088577315 0.038396943
-0.012374301 -0.15673375 0.20589271 -0.16189262 -0.085563876 -0.0126654105 -0.061646 0.00042558182
-0.018511688 0.09813629 -0.045015734 0.018700005 -0.048805982 0.02687872 -0.028874148 0.06316157
0.013523184 0.016722696 0.01828386 -0.00089493627 0.13462158 0.25505844 -0.19026661 -0.054393083
-0.1687107 0.06587849 -0.014474372 0.20628291 -0.004768488 0.28828818 0.0903909 0.5684825
-0.07534171 -0.030697852 -0.013629288 -0.17861187 0.0071146614 -0.0008573175 0.027201543 -0.015195702
-0.08862007 -0.012206971 -0.08405701 -0.1278074 -0.022168333 0.040903095 -0.059582885 -0.019446284
-0.0017750352 -0.01271778 -0.06529156 0.04805759 0.10605653 -0.10580346 -0.028588528 0.0006148339
0.18743536 -0.055388153 -0.01353482 0.02495194 -0.17267989 -0.32382146 -0.01574237 0.016955916
-0.018414242 0.015430043 -0.0020074649 -0.026339225 -0.3609732 -0.06515807 -0.09955596 0.068628855
-0.010936144 -0.04778767 -0.010935785 -0.21521516 0.09991385 0.12350399 -0.08635626 0.042398337
0.036673427 -0.07198527 0.097024284 -0.032990605 0.011066424 0.07048737 0.013667491 -0.046918374
-0.07766706 -0.11164198 0.04217469 -0.23330069 0.04929371 -0.16987652 0.07439762 0.011949248
-0.29692546 0.02053505 -0.07455512 0.13551112 0.032314967 -0.005478443 0.122079745 0.036158703
0.13799399 -0.055911615 0.052748732 -0.44946957 -0.031182755 -0.0016506158 0.048117176 -0.14994188
0.07981091 -0.008864469 0.007094902 0.18682043 -0.20293233 0.08305189 0.008956052 -0.0038970048
-0.039660778 0.17099279 -0.09622206 -0.17031746 -0.0040363916 -0.07770417 0.0017722261 0.10200412
0.026759712 -0.056482043 0.030989785 0.15933467 0.104449116 -0.2557011 0.04223216 0.008542192
-0.075351685 -0.031539246 0.15792084 0.09209198 0.02821298 -0.0713142 -0.042373534 -0.06055597
-0.57555836 -0.14094262 0.13855891 -0.114052065 -0.15945841 -0.15735584 -0.03587134 0.015858304
0.059208993 -0.01129578 -0.13773534 -0.12559515 0.0702261 0.10947934 0.00986818 0.04504699
-0.07027769 0.018416714 -0.045511015 -0.08407065 -0.116411395 -0.020578152 -0.14721507 0.040974904
0.14187677 0.06573477 0.048922975 -0.01795994 -0.018111778 -0.046943597 -0.031847853 0.1380492
0.05760007 0.09575261 -0.019600665 0.07394622 0.21441956 0.017663013 0.120719016 -0.11312663
0.101726465 -0.05260953 -0.059410296 0.0337164 -0.085015275 0.025239717 0.091961786 -0.040106304
0.030196004 0.053232916 0.07806187 -0.018266356 0.003092905 0.09475779 0.106230065 0.019737752
-0.09412285 0.04177875 0.030220566 -0.022404587 -0.037157007 0.10397097 0.096960574 -0.1204715
0.008057662 -0.06528913 -0.06979914 0.029413255 -0.06386908 -0.037261378 0.07274697 0.042573486
-0.051788874 0.1635125 0.07406377 -0.053768873 0.07808844 0.1275822 -0.08680912 0.07760601
0.022197317 -0.053849753 -0.1516782 -0.0946721 0.033080548 0.008369541 0.0025288833 -0.08235298
0.027043398 -0.09138489 -0.03514804 0.037929125 0.1252406 -0.038374446 -0.067298464 0.016622864
-0.1004401 -0.020662338 0.037835293 -0.04505306 -0.23796019 -0.06307153 0.01452796 0.10495834

_logits._model.0.bias f4 [4]
00000000: 46c1 80be b5b0 8b3e 7447 0b3f 862f 1d3f
-0.25147456 0.27283254 0.54405904 0.6140064

_hidden_layers.0._model.0.weight f4 [80, 13]
00000000: db27 b73e 7312 9f3f aae6 dc3f d50b c7bf
00000010: d476 703d 5db1 bc3f 366a a83d 24f7 e0bf
00000020: e62f 813e c4d2 aebf 8696 43be 11ce 4940
00000030: 1cd6 e43f 23ae c13f 6042 84bf c067 a13f
00000040: a092 0fbf f20e d9be 4793 983f 5c9d 153e
00000050: ff7e 503f 9b37 9c3f dd3b 7b3f 44a8 1940
00000060: 3b2c 733f e1e0 fa3f 7ba3 a3bd 7763 8ebf
00000070: 9c4a 69bf 3cc6 d03f dfe0 afbd fb12 01be
00000080: 1267 3dbe fc62 5a3e e600 2e40 030f 983f
00000090: e47e 6bbb 9632 9e3d 8f7a f53f d9e2 6abf
000000a0: 4879 c63f 9dd6 af3e c2c3 f4be 06e4 dabe
000000b0: eade 663b 6289 45bf 9548 f0bf 6b36 9f3e
000000c0: d529 0ec0 eb00 593c d8a2 b33e dc1e b9be
000000d0: 3ff2 6d3f 2d2e 84bf 12f0 b6bf 7290 4c3e
000000e0: c5fa 5e3e 20d5 c4bf 7533 c23f 329c b83f
000000f0: 92fe e5be 4083 76be f39c 97bc f670 4d3f
00000100: 1040 593f d217 bbbd 93c2 023f d749 f8bf
00000110: 8095 0fc0 0cc4 b9be 5de6 7ebf 4a27 25be
00000120: 31a9 babe b6c4 c4be b131 e0bf 8d31 3cc0
00000130: 2368 dcbf b942 40c0 026a c63f 5433 6e40
00000140: d6d8 0d3f 6ebd 553f 366e 183f 3df2 9abf
00000150: 092d a53d fe84 48c0 9f85 4fbf f06d 923e
00000160: 6a78 5540 9c61 a83e a53e 1bbf 4051 03bf
00000170: e35c 083f 1d39 5ebf 59b4 98be 4d0f cabe
00000180: 8602 73be 39de 91bc ffa2 0ebf ab32 97bf
00000190: d1d2 1040 351b 79be 91db 73bf 2609 92c0
000001a0: 7b85 383f 20f3 1f3f c96c 0440 3568 723f
000001b0: 3f3f 6dbe cb54 a3bd c534 4e3d 124e 1abf
000001c0: 5138 1440 7a49 babe 6434 ea3f 17c3 f33e
000001d0: 9c98 983f 1c5f 77bd 500c 5e3f 3059 4e40
000001e0: 50e9 e4bd 2774 bdbd 9c1a 7cbf 6d28 abbe
000001f0: 7fe4 97bf 15a8 963e 2987 b53f 8ae0 31c0
00000200: 5c1c 66bf 4896 2240 1a63 99bf 882e 02c0
00000210: c52d 99bf 7ab5 893d 8e94 f1bc c903 b9bf
00000220: 10d3 6abf 56c3 3340 47dc 1e3e 2f48 923e
00000230: 0b1a 3dbf e570 a2be b81c 0dc0 799f 72bd
00000240: 2269 fb3e 48a7 01c0 22dd 123e 5002 1b3f
00000250: 0605 1d3f 8eef 383f f643 5abe 2b8f 53c0
00000260: 4027 ce3d c905 60c0 9d4d 20bf 2dc0 66c0
00000270: 8caa 053f 433d 4c3f 3fab a2bd 4a66 5c3e
00000280: 4f5d 423d 2825 33c0 6bd9 943f eb65 adbf
00000290: d55a b2be dcd5 4f3f fba9 e2be fc78 06c0
000002a0: a285 0cc0 5a92 77be bc51 49c0 1865 583f
000002b0: 3241 e43f dffc aabe d7ab aebf cb6e b93e
000002c0: b1b3 7340 e1de fb3b f313 8d3f c993 893e
000002d0: ae50 efbf 2021 5c40 1bfd 983e 13f2 c63e
000002e0: a53f 413f 39c7 03c0 b68c 9a3d 0747 2a3f
000002f0: 7f6b a53f 12cb 91bf 57f1 6ebf 08f4 98bf
00000300: aac1 70bf 3456 b63f 8dee c3be ddaf 903f
00000310: 5444 cd3f 2467 74bf fcda 87bf f965 9cbe
00000320: 51c9 883f c2d5 0d3f a9eb 14bf 1a06 c23f
00000330: 3539 07bf 90ff 14c0 27da 8f3f f63a 4dc0
00000340: 5d1a 723d b4a5 e4bf cf5b b33f 5c49 17c0
00000350: a1de 253e 081c fbbf ff61 0dbe e8d7 d53f
00000360: 56da c73e 19d6 123f f6eb bcbf a56e d9bf
00000370: 6b01 863f c886 933f 4ca0 5ebf 706e 7fbe
00000380: 5d4f 093f acfb dabd 13ed c93f 9e96 e8bf
00000390: bb46 7a3f 6c55 94bd ed8e eabe c57a 72bf
000003a0: 6ca4 853f c981 043f e376 963f 55a3 333f
000003b0: 3ef2 36be a9d6 fabe d360 ed3c acb9 0840
000003c0: cc7b f23d 0534 f9be 2847 c93f 4835 7e3f
000003d0: 4bd8 49bf ea43 cc3f 6aaa 62bf d4c0 abbe
000003e0: 4fe4 d23f 3203 06c0 4bdf 76be edd1 0e3e
000003f0: d3c7 24c0 688f 3f3e e294 55bf 7526 353f
0.35772595 1.2427505 1.7257893 -1.5550486 0.058707073 1.4741627 0.08223383 -1.7575421
0.25231856 -1.365807 -0.19100389 3.1532023 1.7877841 1.5131267 -1.0332756 1.2609787
-0.56083107 -0.42394215 1.1919945 0.14610809 0.8144378 1.220447 0.9813822 2.400895
0.94989365 1.9599878 -0.07990166 -1.1124104 -0.9112947 1.6310496 -0.08587813 -0.12604897
-0.1849635 0.21326822 2.7188048 1.1879581 -0.0035933787 0.07724492 1.9178027 -0.9175239
1.5505762 0.34343424 -0.478056 -0.42752093 0.0035228082 -0.77162755 -1.877215 0.31096205
-2.2213032 0.013244848 0.35085177 -0.36156356 0.92947763 -1.0326592 -1.4292014 0.19976977
0.21775348 -1.537754 1.5171953 1.4422667 -0.44920784 -0.24073505 -0.018507456 0.8025049
0.84863377 -0.09135403 0.51078147 -1.9397534 -2.2434998 -0.36282384 -0.99570256 -0.16128269
-0.36457208 -0.3843133 -1.7515165 -2.9405243 -1.721928 -3.0040724 1.5501101 3.7218828
0.5540899 0.8349217 0.5954317 -1.2105175 0.080652304 -3.1331172 -0.81063265 0.285995
3.3354745 0.3288697 -0.6064246 -0.5129585 0.53266734 -0.868059 -0.29825094 -0.394648
-0.23731431 -0.01780616 -0.5571746 -1.1812338 2.2628672 -0.24326785 -0.95256907 -4.5636168
0.72078675 0.62480354 2.0691397 0.9469026 -0.23168658 -0.07975157 0.050343294 -0.60275376
2.3159373 -0.36384183 1.8297238 0.4760978 1.1921573 -0.060393438 0.8673754 3.2241936
-0.11177313 -0.0925067 -0.984781 -0.3342928 -1.1866606 0.2942511 1.4181873 -2.7793298
-0.8988702 2.5404224 -1.1983368 -2.03409 -1.1967093 0.06724067 -0.029489782 -1.445428
-0.91728306 2.8087974 0.15513717 0.28570697 -0.73867863 -0.31726757 -2.2048779 -0.059234116
0.49103647 -2.025835 0.14342168 0.60550404 0.6133579 0.7224053 -0.21314988 -3.3056133
0.1006608 -3.500353 -0.6261843 -3.6054795 0.5221336 0.7978098 -0.07942819 0.21523395
0.047452267 -2.7991428 1.1628851 -1.3546728 -0.34834924 0.811857 -0.4427031 -2.1011343
-2.1956563 -0.24176922 -3.1456137 0.84529257 1.7832396 -0.3339605 -1.3646191 0.3621734
3.8078425 0.0076864813 1.1021713 0.26870564 -1.8696496 3.4395218 0.29880604 0.38856563
0.7548774 -2.0590346 0.0754637 0.6651463 1.292343 -1.1390097 -0.93337005 -1.1949472
-0.9404551 1.4245057 -0.38267937 1.1303669 1.6036477 -0.9546988 -1.0613704 -0.3054655
1.0686437 0.55404294 -0.5817209 1.5158112 -0.52821666 -2.3280983 1.123845 -3.2067237
0.059107173 -1.7863069 1.4012393 -2.3638525 0.16198207 -1.961793 -0.13806914 1.6706514
0.39033765 0.5735794 -1.475951 -1.6986891 1.0469183 1.1525507 -0.86963344 -0.24944472
0.53636724 -0.10692534 1.5775474 -1.8170965 0.97764176 -0.072428554 -0.4581217 -0.9471858
1.0440803 0.51760536 1.1755031 0.701711 -0.17865846 -0.48991898 0.028976833 2.1363325
0.11840019 -0.486725 1.572484 0.9930005 -0.7884566 1.5958226 -0.8854128 -0.33545554
1.6475924 -2.093945 -0.24108617 0.13947268 -2.5746963 0.18707049 -0.834303 0.70761806

_hidden_layers.0._model.0.bias f4 [80]
00000000: ce57 9e3f cd6f 56bf 801e ddbe 2d92 d13f
00000010: f68e b1bf 19ac c23e 9766 5e40 0d79 103f
00000020: 1249 833e 5d80 a73f f97d 17c0 218f ce3e
00000030: c81c 853f 3157 49c0 a80c 533f 9525 6e3f
00000040: 8440 f1bf a415 80bf b949 393f 0b3d dc3f
00000050: b916 e7bf af86 babf 8b2c dabf afb3 5940
00000060: 4a9b 86bf aaae 523f dee6 63bf 1136 44bf
00000070: a8bc 9cbe a80f 903f 8d7e 2d40 3561 f6bf
00000080: 4a41 2140 c7bb dd3e d570 b93f f6f1 00c0
00000090: 1df9 b13e a119 4bbf b62f 3abf 7158 1a40
000000a0: da1a 16be 5cf2 4840 4ff7 273f a126 c33f
000000b0: 4b57 6d3f 5179 f83e cd68 e73f da5f 8f3f
000000c0: fff9 c2bc 5154 803e ff02 1d3f 08e3 0c40
000000d0: a605 0540 bcfc 483f 0b0a 34bf 741a b4bf
000000e0: d7eb 953f 6671 cd3f 9806 0c3f f697 2040
000000f0: 60f1 0640 0f90 4840 d56c d7be 4313 d93e
00000100: 22d9 08bf 3b6f 51be 9c44 6fbf 92e8 02c0
00000110: 4378 35c0 b9f1 ef3e 43dc 163f 9109 a1bf
00000120: aa50 b5bf 1b20 f6bf 7ef8 9dbf b42f c8bf
00000130: 91a0 e03f 5208 733f cabb b13e 17d5 b43f
1.2370546 -0.83764344 -0.43187332 1.6372734 -1.3871753 0.38021925 3.4750116 0.5643471
0.25641686 1.3086048 -2.3670638 0.40343574 1.0399408 -3.1459467 0.82441187 0.93026096
-1.8847814 -1.0006604 0.72378117 1.7206129 -1.805381 -1.4572352 -1.7044843 3.401592
-1.051614 0.82297766 -0.8902415 -0.76645 -0.30612683 1.1254778 2.710849 -1.9248415
2.51961 0.43307325 1.4487559 -2.0147681 0.3476037 -0.7933598 -0.7272905 2.411648
-0.1465868 3.1397924 0.6561174 1.5246164 0.92711323 0.48530057 1.8078858 1.1201127
-0.023800848 0.25064328 0.61332697 2.201357 2.0784698 0.7851064 -0.70327824 -1.4070573
1.1712598 1.6050231 0.5469756 2.509275 2.1084824 3.1337926 -0.4207522 0.42397508
-0.5345632 -0.20452587 -0.93464065 -2.045445 -2.8354652 0.46864107 0.5892984 -1.2581044
-1.4165242 -1.9228548 -1.2341459 -1.5639558 1.7549001 0.9493457 0.34713584 1.412753

_hidden_layers.1._model.0.weight f4 [80, 80]
00000000: 6072 7fbe 7a30 b5bc 1ebb d93e ae4f cb3e
00000010: cc0d 293c fafe 45be 4911 47be 9aad 603f
00000020: 048a d13e ed3c dc3e cc4f 78bf cfbc 0a3f
00000030: fcf7 253e 936d ac3e 135b 9f3e ddb0 e13e
00000040: 3630 9fbd b996 eabe d828 88bc 919c 5b3f
00000050: 8ba4 c939 e931 6dbf 1162 85bf 77cd 9b3f
00000060: b367 08bf 073f f0be 2148 a4be b261 27bf
00000070: 0dec 0abf 2871 0dbf 2129 c53e 02da 20bf
00000080: a5b6 603e ce9f 833e af2b 9f3f 1c05 7abf
00000090: 99cd 7cbe f772 113e 03c0 ee3e 1a9a 083e
000000a0: 1a4c 0bbe ccf7 edbe ec32 783e 9a58 28bf
000000b0: 8d61 9cbf deeb ccbe bc48 513f ec1d 4ebd
000000c0: 6bb2 cd3e 32d7 0a3f 5d3e 33bf 0e6b 1d3f
000000d0: cf57 223f c1a6 39bf f204 233f 1945 15bf
000000e0: e307 23bf 64ca 87be 62f1 2c3f 7e60 27bf
000000f0: 51bb c3be e28e 2f3d 0b80 2c3e 31ee 663b
00000100: 66ad febd 67dd 893e 28f3 b33d 461c 5a3f
00000110: 0dab 3f3e c799 393f 2ec9 debe a760 bd3d
00000120: 6dd4 9e3e f027 abbe 9a0d 543e 37bd d5be
00000130: 57f2 ff3e 0f86 09bf eed9 0dbf 0d4b 80be
00000140: 9f6e 14bf e36a 953e 76a2 46be b486 15be
00000150: 1c5e bbbe 1e03 323f f1fb fbbc 6fcf fe3e
00000160: ff65 7abe 0e9c e4bd 6135 e3bc 4462 8f3f
00000170: 5418 57bd 351f abbf 62c7 c3be 8b1e 053f
00000180: b87d 5e3e 4164 32be ebe5 893e e670 3a3e
00000190: f8a1 ffbd 4aba fa3d e355 e13e 9897 323c
000001a0: f4df 94be 089a 373d b07a 31bf 0450 303f
000001b0: 31c1 fabd d474 093f 54bf a0be 54ae 13bf
000001c0: a5ab 69bd 2fb9 8b3e b115 1dbe 7796 033f
000001d0: 93b4 2a3e 5da8 14bd 1994 7c3e 57f0 96be
000001e0: bc4b a53e b4f3 15bd 0c72 1dbd 56f1 f43e
000001f0: 4b50 b03e 944c a8be 598d 54be 9eca abbd
00000200: b357 7b3f 8158 8d3e ec58 c23e 86f8 673e
00000210: 94e5 703e 59f9 90bd 768f e43e f20c 2f3f
00000220: 64ab b93e 5034 b7be 7d26 31bf cf68 ebbe
00000230: 677b cebe ee3b d7bd 8ec2 113f de1a f2be
00000240: 8b1a 99bd 0ccf 393f 6bbd 133f b96f dfbc
00000250: 8e66 65be 6ad7 583f fab8 043f eccb a2be
00000260: bbf7 863e baa6 653e 05f8 3e3f 3016 fd3e
00000270: 05b1 903e 3ac8 f5be 8f97 443d d424 34be
00000280: c817 1cbe 29ae ef3e 8381 733f 6856 72bf
00000290: f7ec ee3e dcca 7b3e 4317 a53e bd14 6ebf
000002a0: 7dc6 1a3f 732c 81bf 941f 97bd 1434 95bf
000002b0: fde4 b3be 3ebe 333c 97bf 7dbf efa4 0e3e
000002c0: c70f acbf a5af 793f 4bfd 15bf 0230 c93c
000002d0: e289 da3e 7bcd 87be 927d fb3d bbb3 c0bf
000002e0: 9e62 f03f bb41 503f bee4 783e 76bc b6bd
000002f0: 63f8 d53d 4ae8 57bf 6a56 fabf dd96 823d
00000300: b307 423e dbb0 2e3c f1d3 5a3f f9a9 36be
00000310: 3972 87bf e884 afbf 6cbb 7dbf 8c04 8bbf
00000320: 0c3d e8be 9666 103f 737b a2bf 35e8 36bf
00000330: 6137 4dbe 9d84 98bf 6149 77bf 9ddb 45bf
00000340: a26f 71be cdea e9bf eb1c 41bf 8125 a2bf
00000350: 88f0 a8bf 290f d93d ba55 52bf 7d46 94bf
00000360: d2c0 d23e 7488 94bd ba95 d83e 63e5 f5bf
00000370: 0066 5b3f e22d 51bf 598f 1bbf b15c ba3f
00000380: e491 d13d 98fd b53c c67f b63e 8ff2 5a3f
00000390: 59bb ffbe d87b a2bf 2d2a 36be a3fd c7bd
000003a0: 125a 903f 63b9 90be 06ad 04c0 a270 30be
000003b0: af2e 643e 41f8 46bf bbc8 12bf e8fd 8bbe
000003c0: 7110 31be 0ec5 ad3d 1853 0b40 fff4 02bf
000003d0: f5eb 27bd b092 47bf f89d cd3e fb73 483f
000003e0: b3c6 2b3f 31a2 23c0 c207 c5be e28e ec3d
000003f0: 224c 3d3d 66f4 fe3c a9b5 5abf 02f6 2c3f
-0.24945974 -0.022117842 0.42525572 0.39709228 0.010318231 -0.19335547 -0.19440188 0.87764895
0.4092561 0.43015233 -0.9699676 0.5419435 0.1620788 0.33677348 0.31124172 0.44080248
-0.077728674 -0.45818117 -0.016621038 0.85785776 0.00038460302 -0.9265428 -1.0420552 1.2172078
-0.5328323 -0.46923086 -0.3208628 -0.65383446 -0.54266435 -0.5525079 0.3850794 -0.62832654
0.21944673 0.2570786 1.2435206 -0.97664046 -0.24687804 0.14204012 0.46630868 0.13340035
-0.13603249 -0.46478117 0.24238175 -0.65760195 -1.221727 -0.40023702 0.8175161 -0.050321504
0.40175185 0.5423461 -0.70017034 0.6149148 0.63415235 -0.7252007 0.6367942 -0.5830856
-0.6368391 -0.265216 0.6755582 -0.6538161 -0.3822885 0.042860873 0.1684572 0.0035237188
-0.12435417 0.2692673 0.08786613 0.8519939 0.18717594 0.7250027 -0.43512863 0.092469506
0.31021443 -0.33428907 0.20708314 -0.41745922 0.49989578 -0.5372018 -0.5541066 -0.2505726
-0.57981294 0.2918311 -0.19397911 -0.14602166 -0.36595237 0.69536006 -0.030759783 0.49767634
-0.24452971 -0.111625776 -0.027735414 1.1201863 -0.052513435 -1.3368899 -0.38238055 0.5199973
0.21727645 -0.17421056 0.26933226 0.1820713 -0.12482065 0.12242563 0.4401084 0.010900401
-0.29077113 0.04482463 -0.6932783 0.68872094 -0.122438796 0.5369389 -0.31395972 -0.5768788
-0.05704846 0.2728972 -0.15340306 0.51401466 0.16670446 -0.036293376 0.2466587 -0.2948024
0.32284343 -0.036609367 -0.03843884 0.47840375 0.3443626 -0.32870924 -0.20757045 -0.083882555
0.98180693 0.27606586 0.37958467 0.22653398 0.23525077 -0.07078809 0.44640702 0.6837913
0.36263573 -0.357821 -0.69199353 -0.459784 -0.40328524 -0.105094776 0.5693749 -0.47286123
-0.07475766 0.72581553 0.57710904 -0.027274953 -0.22402403 0.84703696 0.5184475 -0.31796205
0.26360878 0.22426882 0.745972 0.4943099 0.28260055 -0.48004323 0.0479961 -0.17592174
-0.15243447 0.4681256 0.95119494 -0.94663095 0.46665165 0.24589103 0.3224431 -0.93000394
0.6045912 -1.009169 -0.0737907 -1.1656518 -0.35135642 0.01097065 -0.9912047 0.13930105
-1.3442315 0.9753364 -0.5858962 0.024559025 0.4268332 -0.26523957 0.1227981 -1.5054849
1.8780096 0.81350297 0.24306008 -0.08922665 0.10447767 -0.8433882 -1.9557621 0.06376431
0.1894825 0.010662283 0.85479647 -0.17838277 -1.0581733 -1.3712435 -0.9911411 -1.0860763
-0.45359075 0.56406534 -1.2693924 -0.7144807 -0.20040657 -1.191547 -0.9659634 -0.7728823
-0.23577741 -1.827478 -0.7543475 -1.2667695 -1.3198404 0.10598595 -0.8216206 -1.1584011
0.41162735 -0.07252589 0.42301732 -1.9210628 0.85702515 -0.81710637 -0.60765606 1.4559537
0.102329046 0.02221565 0.35644358 0.85526365 -0.49947622 -1.2694044 -0.17789526 -0.09765174
1.1277487 -0.2826644 -2.0730605 -0.17230466 0.22283433 -0.77722555 -0.5733754 -0.27342153
-0.17291428 0.08484851 2.1769466 -0.51155084 -0.04099651 -0.779582 0.40159583 0.7830197
0.67100066 -2.5567744 -0.3848248 0.1155069 0.046215184 0.031122398 -0.8543344 0.6756288

_hidden_layers.1._model.0.bias f4 [80]
00000000: 648a 133f fe11 17bf 64e5 c1bf 7c4a 07bf
00000010: 3def 3e3f db09 063f e1cc 583f 4a81 043e
00000020: 1ccc 00bf c9de 633f 844f cd3f c754 dcbf
00000030: ae58 c4bf 5c89 32be 38d1 72bf b4b1 6a3f
00000040: 2b30 3f40 df15 b73e 4155 0f40 49e8 8f3e
00000050: 4ddc a9bf 0d00 9cbf 0a3a a03d e133 953e
00000060: 3b68 cbbe abb7 7d3e cc3d 483f 4fd5 0d3f
00000070: 12fe 8c3f eb9e 1fbf 048f f43f eb3e adbf
00000080: 84f7 963f cf9b 2840 02fa 9c3f e155 5b3f
00000090: 2464 75be 78cb 653f 5add 4b3f 494a b93f
000000a0: 8803 0f3e 1055 d03d ebcf 103e 9269 e03f
000000b0: 90ed 90be b6a2 983e 627c 2d3f a60d 81bc
000000c0: 358d 29bf 23a3 d33f 1b8f 00bf 587a e0be
000000d0: 2b55 66bc 6ea8 d33c be6c 06bf 2a61 8dbf
000000e0: 0cc2 5c3e c0d6 a7bc 42ab 84be ab67 ab3e
000000f0: 35c3 07c0 d131 9dbf ee8d ea3e e6f7 d2be
00000100: 912b 88bf 5f87 fbb9 bd6d 2940 f618 8ebe
00000110: a085 ad3f 5de5 56bf b5b3 2cbd 1900 93be
00000120: 82ed 92bf 4f7f 5fbf 5491 93be b9a3 98bf
00000130: 0922 6640 1c58 dabf ee51 d43f 528c 17c0
0.5763304 -0.5901183 -1.514813 -0.5284803 0.745838 0.5235879 0.8468762 0.12939945
-0.50311446 0.8901182 1.6039891 -1.7213372 -1.5339563 -0.17435211 -0.9485049 0.91677403
2.987315 0.35758874 2.2395785 0.28106907 -1.3270355 -1.2187515 0.0782357 0.29141143
-0.3972796 0.24777095 0.78219295 0.5540361 1.1015036 -0.62351865 1.9106145 -1.3534826
1.1794286 2.6345098 1.2263796 0.85677916 -0.23963982 0.89763594 0.7963463 1.4475795
0.13966191 0.101724744 0.14141814 1.7532218 -0.28306246 0.2981164 0.6776792 -0.015753578
-0.6623109 1.653416 -0.5021836 -0.4384334 -0.014058392 0.02583715 -0.5250968 -1.1045277
0.21558398 -0.020488143 -0.2591191 0.3347753 -2.1212895 -1.2280828 0.4581141 -0.41204756
-1.0638295 -0.0004797531 2.647323 -0.2775342 1.3556404 -0.8394373 -0.04216357 -0.28711012
-1.1478732 -0.8730363 -0.28821814 -1.1924964 3.5958273 -1.7058139 1.6587503 -2.3679395
