rllib/models/newest/model.onnx (onnx, 33884 bytes, 6 tensors)

_logits._model.0.weight f4 [4, 80]
0.0041962788 -0.044515576 0.0017773724 0.08945929 -0.0011412982 -0.03233401 -0.00083338947 -0.002250563
0.0023282946 -0.0047473097 0.28379932 -0.0033180558 0.009407457 0.17318098 -0.027019499 0.46247613
0.054034453 -0.0014559284 0.26734525 9.80481e-05 -0.0016754307 -0.15436934 -0.0011750532 0.024715103
0.06235339 0.0018341532 0.0036482573 0.00010959728 -0.00036836186 0.10020332 0.0015345839 -0.055328447
0.0020937596 -0.0026562852 0.12044374 -0.000743896 -0.001279962 0.0014978923 0.0017660267 -0.12026892
-0.0044888523 0.033420835 -0.0031802275 0.060248952 -0.009445878 0.0017426676 -0.0024735471 0.0029401404
-0.022333486 0.002120463 0.0074773594 -0.002571268 -0.0046350937 -4.3051812e-05 0.00070968585 -0.13063134
0.0035128305 -0.00027379076 -0.0029543482 -0.0013883624 0.08007333 -0.0022808155 -0.0153266825 0.0016524163
0.00018982509 -0.0019533925 0.11729998 -0.003098655 -0.3907847 0.00054258894 -0.00092737423 0.0005633984
0.0016325869 0.0011225962 -0.004701473 -0.043268714 0.00013784756 0.0026811084 -0.04475741 -0.00097611034
0.001701286 0.19281325 0.00025807862 -0.06649844 -0.0015520097 0.08648517 -0.00017970982 -0.002880919
2.8629158e-06 -0.0027177532 0.08861334 -0.003186168 -0.06644058 0.07018391 0.011935246 -0.16105281
0.001564286 -0.0014817573 0.43466085 0.0017851514 -0.0013941164 0.28396726 0.0010745819 0.006792879
0.044571422 0.00013683118 0.0017728539 -0.0057554026 0.00074959383 -0.07548276 0.0026675463 0.012715425
0.0027395692 -5.732477e-05 0.0019707088 -0.0008054466 0.0014575142 -0.00087854784 -0.000208764 -0.09554596
-0.00021998664 -0.17651263 0.0011024431 -0.014060522 0.0006904393 -0.00042719848 0.0023146793 -0.00031287823
-0.0035688428 0.0026856812 -0.0014100119 0.0004797635 -0.002407958 0.0025641571 0.0007765859 0.09293361
-0.0015286136 -4.1219806e-05 -0.001081957 -0.0011498126 0.2745769 -0.0014078702 -0.0026094108 -0.0025554488
0.0012273714 0.0009890834 0.18908459 -0.0028424403 -0.15530978 -0.0010711842 0.0017530231 -0.0016392362
-0.00011130754 -0.0004803287 -0.0020283093 -0.00012496123 -0.0016586245 0.00089136016 0.004327897 -0.0021766673
-0.0025983483 0.3842364 -0.0016178994 -0.12029685 0.0025741616 -0.61461365 0.0015209568 0.0034265546
0.0018411403 0.0035858331 -0.3222214 -4.7241127e-05 0.12537879 -0.33079422 -0.05130091 -0.31374055
-0.44845262 -0.0032207696 0.27533984 0.0015378385 -0.0019523388 -0.10789759 0.0014294314 0.16943073
-0.07002487 -0.0018156526 -0.0002396037 0.0065305247 -0.0012892919 0.5006144 -0.011730257 -0.3023527
0.00013169089 0.005777076 0.16711593 0.0012551242 0.0062172045 -0.002506975 0.0030739424 0.33038503
-0.004168257 -0.4149141 0.0007721246 -0.19714074 -0.06348807 0.0028902234 0.0011916057 -0.0023420416
0.043558557 -0.0014146379 -0.0029635096 0.0021859675 0.008077067 0.0013404725 0.00684922 0.10395621
-0.0021352684 -0.0055873236 0.0053244536 -0.0007944685 0.28153878 -0.0047818497 -0.26753402 0.004223034
0.002566384 0.003907387 -0.16076624 0.061226632 0.61080617 0.010469264 -0.004023331 1.7947299e-05
0.0024618339 0.0028313505 -0.00037433807 -0.26540306 0.0020449513 -0.0013705923 0.37686914 -0.0011826236
0.0068285535 0.28372204 -4.171639e-05 -0.29978326 -0.002129613 -0.9669069 -0.004072147 -0.0035622972
0.0014742212 -0.005376554 -0.19231425 -0.0053539868 0.6209419 -0.5912658 -0.21993311 -0.67203695
00000000: f080 893b f755 36bd b9f6 e83a 6f36 b73d
00000010: 9d97 95ba ab70 04bd d277 5aba 2e7e 13bb
00000020: 4d96 183b 528f 9bbb 254e 913e bd73 59bb
00000030: bc21 1a3c 5b56 313e ff57 ddbc acc9 ec3e
00000040: 3b53 5d3d dad4 beba 7ae1 883e 2c9f cd38
00000050: 209a dbba ff12 1ebe 3e04 9aba 5477 ca3c
00000060: 4566 7f3d f867 f03a 9a17 6f3b 97d7 e538
00000070: b120 c1b9 6637 cd3d 1724 c93a 15a0 62bd
00000080: 7537 093b 1215 2ebb 35ab f63d 0402 43ba
00000090: 66c4 a7ba ed54 c43a 067a e73a 8d4f f6bd
000000a0: 3917 93bb 49e4 083d 5d6b 50bb 9bc7 763d
000000b0: e2c2 1abc 396a e43a 3c1b 22bb 5faf 403b
000000c0: b7f4 b6bc 77f7 0a3b a304 f53b b882 28bb
000000d0: fce1 97bb 8892 34b8 360a 3a3a 39c4 05be
000000e0: 8437 663b 938b 8fb9 bd9d 41bb b6f9 b5ba
000000f0: 7cfd a33d bc79 15bb c41c 7bbc e495 d83a
00000100: c90b 4739 7d04 00bb f93a f03d ce12 4bbb
00000110: ef14 c8be 873c 0e3a 081b 73ba 07b1 133a
00000120: 87fc d53a 1424 933a d00e 9abb 893a 31bd
00000130: 2c8b 1039 89b5 2f3b 8c53 37bd a8e1 7fba
00000140: affd de3a d670 453e ba4e 8739 5630 88bd
00000150: ce6c cbba 231f b13d 7d70 3cb9 cdcd 3cbb
00000160: 8520 4036 551c 32bb e97a b53d 07cf 50bb
00000170: 0012 88bd 95bc 8f3d 0d8c 433c 07eb 24be
00000180: ba08 cd3a 8637 c2ba de8b de3e befb e93a
00000190: c9ba b6ba 2864 913e fcd8 8c3a cd96 de3b
000001a0: 8690 363d 577a 0f39 1b5f e83a d197 bcbb
000001b0: 6480 443a b596 9abd 00d2 2e3b 5c54 503c
000001c0: 588a 333b 0170 70b8 0227 013b 9b24 53ba
000001d0: 100a bf3a 594e 66ba a9e7 5ab9 9aad c3bd
000001e0: 37ac 66b9 babf 34be da7f 903a 1b5e 66bc
000001f0: 99fe 343a 9cf9 dfb9 e0b1 173b ce09 a4b9
00000200: 3fe3 69bb 4102 303b 26d0 b8ba c488 fb39
00000210: d5ce 1dbb 6b0b 283b cc93 4b3a fa53 be3d
00000220: c35b c8ba 6ee3 2cb8 74d0 8dba 4fb5 96ba
00000230: 5895 8c3e 4988 b8ba a602 2bbb 5179 27bb
00000240: c0df a03a 22a4 813a 649f 413e 3c48 3abb
00000250: 8709 1fbe fa66 8cba b2c5 e53a a4db d6ba
00000260: c86d e9b8 a0d4 fbb9 62ed 04bb 0608 03b9
00000270: 3466 d9ba 2baa 693a 08d1 8d3b 6ba6 0ebb
00000280: 0d49 2abb a2ba c43e b20f d4ba 325e f6bd
00000290: 44b3 283b 5257 1dbf d75a c73a 0c90 603b
000002a0: 6b52 f13a 4c00 6b3b 34fa a4be c624 46b8
000002b0: 4c63 003e dc5d a9be e720 52bd 9aa2 a0be
000002c0: 959b e5be 8c13 53bb 58f9 8c3e 4c91 c93a
000002d0: 9fe5 ffba 69f9 dcbd c25b bb3a 407f 2d3e
000002e0: 3369 8fbd 31fb edba 213e 7bb9 03fe d53b
000002f0: 75fd a8ba 4428 003f 4430 40bc f9cd 9abe
00000300: 8116 0a39 a04d bd3b 7020 2b3e fb82 a43a
00000310: b1b9 cb3b 104c 24bb 3274 493b 3a28 a93e
00000320: e095 88bb 9f6f d4be 6868 4a3a 43df 49be
00000330: 0906 82bd e769 3d3b a72f 9c3a f07c 19bb
00000340: 756a 323d 5f6b b9ba 7137 42bb 7342 0f3b
00000350: ad55 043c cbb2 af3a 6c6f e03b fee6 d43d
00000360: dcef 0bbb de15 b7bb c178 ae3b e143 50ba
00000370: da25 903e 10b1 9cbb 38fa 88be 6061 8a3b
00000380: c730 283b 8a09 803b e89f 24be c7c8 7a3d
00000390: cb5d 1c3f 4787 2b3c 26d6 83bb 888d 9637
000003a0: b856 213b 2e8e 393b ce42 c4b9 e9e2 87be
000003b0: 9704 063b 72a5 b3ba fef4 c03e 4302 9bba
000003c0: 0fc2 df3b 0444 913e a2f8 2eb8 317d 99be
000003d0: fa90 0bbb 3687 77bf a56f 85bb 6e75 69bb
000003e0: a83a c13a ce2d b0bb 07ee 44be 7f70 afbb
000003f0: 0cf6 1e3f 325d 17bf 2536 61be 9d0a 2cbf

_logits._model.0.bias f4 [4]
-0.16835535 -0.085198544 0.3812719 0.9628941
00000000: 5865 2cbe 937c aebd 1236 c33e 3a80 763f

_hidden_layers.0._model.0.weight f4 [80, 13]
0.17371306 0.11639286 0.09510233 1.5238335 -0.35424766 -0.41604948 0.028962115 -0.40095857
0.09297627 0.4446074 0.3221618 1.8484125 0.040533084 -0.18153319 -0.055437896 -0.11196462
-0.41480288 0.14915776 -0.0064299023 -0.20727843 0.46401247 1.1397445 -1.0408828 -0.5498576
-0.62512976 1.054964 0.3632014 0.085803226 -0.04763793 0.71723306 0.3922377 -0.57434773
0.06338137 0.03280541 0.20025939 1.4955769 0.40467867 1.5961758 0.10373563 0.035046503
-0.10984783 0.09538975 0.2543358 -0.13590434 0.41444603 0.2584962 0.041375466 0.12142376
-0.4650538 -0.48604605 -0.5267907 0.54092896 -0.14198616 0.021640008 0.34249908 -0.08582576
0.22815225 0.082033776 -0.08646477 0.0030141184 -0.8738785 -1.6677957 -1.4329426 -0.6319387
0.6196088 0.033622425 -0.518593 -0.13553794 -0.9325429 0.04918417 0.44072092 0.10973103
0.38068986 0.21648231 -0.2736056 0.62073165 1.3979884 0.01614668 -0.86550915 -0.43257973
0.107564725 0.37510845 0.4747684 -0.14891082 0.92343146 0.8007198 0.8038578 -0.07113708
-2.8492446 0.13673338 -0.78022707 0.072376676 -0.30249503 0.08738606 -0.533016 0.51221895
0.2969543 0.18529741 -0.4970394 0.5063849 1.0769612 1.8493305 0.32258734 -0.06500754
0.06957284 -0.16272011 0.16003214 0.5803826 0.073009424 0.037795678 0.26378512 -0.10574783
0.76696885 -0.96257454 1.5976939 -0.75648224 -0.30944896 -0.10966235 0.46806344 0.31405815
0.33189496 -0.61099213 -0.2352917 0.12036079 -0.19552544 0.32832378 -0.08302563 -0.7550906
-1.0504354 0.4805388 -0.24337393 0.035173703 -0.10366238 -0.07440691 -0.40969774 0.6237546
0.024303462 -0.19538209 0.033444542 1.4243883 -0.9693435 -1.046528 -0.06778417 0.14806025
-0.27808422 0.12933657 0.73687637 0.23790015 -0.07520886 -0.39536852 0.32854113 -0.7962551
0.45690677 -0.2583784 0.5118469 0.7668526 -0.16483122 0.6060338 0.06517456 -0.16384447
0.15954754 -0.17469604 -0.27830723 0.6240421 -0.02582767 -1.441152 -0.69771844 -0.7468424
0.30189466 0.104651496 0.36651295 0.035746787 -0.38476112 0.41078132 -0.1189996 -0.23270874
-0.2099735 -0.28606096 0.79745126 1.3688798 0.36075023 -2.9201536 -0.62332475 -0.50948197
-0.3988469 0.1881477 0.46812207 -0.16272034 -0.36444882 0.47408396 -0.29288405 0.65554875
-2.453112 -0.20616361 -1.6330767 0.067739956 -0.55083174 -0.44283926 0.16670476 0.012945334
0.264542 1.048227 -0.19584382 -0.70357513 0.8662606 -0.7363488 0.14549933 -1.9553932
0.13940687 -0.5169524 -0.31641957 0.36799428 -0.31271353 -0.06907341 -0.13875934 -0.16786554
0.052346356 -1.0600729 0.38888437 1.5394263 0.2643731 0.83306694 0.7335426 -0.14091696
0.4842615 -0.21675567 0.12187822 0.23446554 -0.718405 -0.5519593 -0.9015681 0.61894894
-0.15277778 0.57136756 -0.09839904 -0.23263493 -0.015060612 0.36633775 0.003753154 0.32474798
-0.25505778 0.45156124 -0.545183 -1.9720076 -2.0931222 0.607605 -0.6209164 -0.016137553
0.022741275 -0.17247649 -0.13486421 -0.6328562 -0.3711883 0.37198898 -0.35240912 -0.6385303
00000000: d6e1 313e 615f ee3d 03c5 c23d fa0c c33f
00000010: f35f b5be 7004 d5be f541 ed3c 714a cdbe
00000020: 586a be3d 95a3 e33e 64f2 a43e c898 ec3f
00000030: 0506 263d d6e3 39be d912 63bd b54d e5bd
00000040: 0b61 d4be d0bc 183e eeb1 d2bb cc40 54be
00000050: 0b93 ed3e 26e3 913f a63b 85bf 78c3 0cbf
00000060: 8108 20bf 0f09 873f 89f5 b93e 9ab9 af3d
00000070: fd1f 43bd 969c 373f 61d3 c83e 7408 13bf
00000080: 17ce 813d f75e 063d cc10 4d3e 106f bf3f
00000090: 0b32 cf3e 7d4f cc3f 5973 d43d ec8c 0f3d
000000a0: e6f7 e0bd b45b c33d 4d38 823e 822a 0bbe
000000b0: 4532 d43e 9d59 843e 5279 293d 05ad f83d
000000c0: 881b eebe 07db f8be c1db 06bf 527a 0a3f
000000d0: d264 11be 6346 b13c 0a5c af3e 6bc5 afbd
000000e0: bea0 693e 5301 a83d 7114 b1bd 8488 453b
000000f0: 80b6 5fbf 547a d5bf aa6a b7bf bcc6 21bf
00000100: af9e 1e3f abb7 093d 83c2 04bf 75ca 0abe
00000110: 22bb 6ebf 5775 493d 2ca6 e13e aaba e03d
00000120: c8e9 c23e 8aad 5d3e 0916 8cbe 45e8 1e3f
00000130: 49f1 b23f 0b46 843c 0292 5dbf 177b ddbe
00000140: e54a dc3d 370e c03e d814 f33e 147c 18be
00000150: 0166 6c3f f9fb 4c3f a0c9 4d3f 51b0 91bd
00000160: 065a 36c0 d603 0c3e f6bc 47bf 393a 943d
00000170: a1e0 9abe 76f7 b23d bd73 08bf c820 033f
00000180: 650a 983e 9bbe 3d3e f37b febe 71a2 013f
00000190: ddd9 893f ddb6 ec3f 2b2a a53e ac22 85bd
000001a0: 357c 8e3d 1aa0 26be 77df 233e f493 143f
000001b0: f785 953d a4cf 1a3d d80e 873e 5192 d8bd
000001c0: 1258 443f 496b 76bf 3c81 cc3f d2a8 41bf
000001d0: 1870 9ebe a796 e0bd 03a6 ef3e 3bcc a03e
000001e0: 23ee a93e fb69 1cbf 4ff0 70be b87f f63d
000001f0: d237 48be 0e1a a83e 5709 aabd 9e4d 41bf
00000200: ab74 86bf 2e09 f63e 0437 79be 4d12 103d
00000210: f14c d4bd a662 98bd e7c3 d1be 62ae 1f3f
00000220: 0e18 c73c 3e12 48be 25fd 083d 5b52 b63f
00000230: e526 78bf a1f4 85bf 6dd2 8abd 1b9d 173e
00000240: 0e61 8ebe ce70 043e eea3 3c3f 199c 733e
00000250: 1a07 9abd be6d cabe 8b36 a83e 60d7 4bbf
00000260: afef e93e 2c4a 84be 6608 033f 7450 443f
00000270: 84c9 28be 0825 1b3f 3d7a 853d d8c6 27be
00000280: 6e60 233e 85e3 32be 497e 8ebe 39c1 1f3f
00000290: 8d94 d3bc ab77 b8bf ad9d 32bf 1031 3fbf
000002a0: f091 9a3e 8653 d63d 96a7 bb3e 396b 123d
000002b0: 69ff c4be ee51 d23e 10b6 f3bd 334b 6ebe
000002c0: 4b03 57be 9576 92be c425 4c3f 7437 af3f
000002d0: 41b4 b83e cce3 3ac0 3692 1fbf 696d 02bf
000002e0: a935 ccbe caa9 403e b2ad ef3e 29a0 26be
000002f0: 0999 babe 22bb f23e e6f4 95be 0bd2 273f
00000300: c9ff 1cc0 8e1c 53be a808 d1bf 3fbb 8a3d
00000310: 4f03 0dbf d4bb e2be a7b4 2a3e ab18 543c
00000320: 0d72 873e 4d2c 863f 488b 48be 801d 34bf
00000330: 41c3 5d3f 5b81 3cbf c7fd 143e 534a fabf
00000340: adc0 0e3e fe56 04bf bf01 a2be bf69 bc3e
00000350: fd1b a0be 5c76 8dbd ee16 0ebe f2e4 2bbe
00000360: 2269 563d 78b0 87bf da1b c73e ec0b c53f
00000370: e95b 873e e043 553f 73c9 3b3f 894c 10be
00000380: 20f1 f73e 33f5 5dbe 4a9b f93d bc17 703e
00000390: 64e9 37bf 344d 0dbf 2bcd 66bf 7073 1e3f
000003a0: c771 1cbe 2545 123f 7085 c9bd da37 6ebe
000003b0: c9c0 76bc 9f90 bb3e 7af7 753b 5e45 a63e
000003c0: ef96 82be 0933 e73e 1d91 0bbf bf6a fcbf
000003d0: b7f5 05c0 008c 1b3f 61f4 1ebf e732 84bc
000003e0: e94b ba3c ad9d 30be d819 0abe dd02 22bf
000003f0: 650c bebe 5775 be3e f86e b4be b976 23bf

_hidden_layers.0._model.0.bias f4 [80]
-0.018197868 0.007192992 -0.060830373 -0.18975161 0.11081513 -0.15883742 -0.19604468 -0.20448859
-0.024413574 0.15638486 -0.12153023 -0.0030052415 0.19762076 0.11986627 -0.23794235 -0.02058325
-0.0368812 0.23913707 -0.045623768 0.042767536 -0.109940894 0.053610835 -0.101440474 -0.15120296
0.008545417 0.16588822 0.48354065 -0.0429943 -0.19897455 0.03122338 -0.10289955 0.5253608
0.27005854 0.28355965 -0.0047722487 0.039704803 0.08520296 0.07812287 -0.031886738 0.044256717
-0.09405694 -0.1599888 -0.047551073 0.07534709 -0.005998997 0.09724388 0.12162247 0.11755923
0.0197821 0.23790129 -0.08314395 -0.051552955 -0.18778817 -0.058132265 0.07958199 0.26578134
0.0266709 -0.16407 -0.017951308 -0.20969045 -0.07369713 0.15154076 -0.2595748 -0.05056573
0.1111869 -0.08319586 -0.020664603 -0.17441103 0.015787411 0.006580037 -0.11089431 0.048624534
0.07380874 0.21237698 -0.041494515 -0.3694188 0.42686227 -0.064965606 -0.052909136 0.014294138
00000000: b213 95bc 31b3 eb3b 4529 79bd 3f4e 42be
00000010: 0bf3 e23d 47a6 22be f0bf 48be 7565 51be
00000020: fafe c7bc 5a23 203e d7e4 f8bd 96f3 44bb
00000030: 195d 4a3e 727c f53d 29a7 73be 349e a8bc
00000040: be10 17bd 59e0 743e fddf 3abd 032d 2f3d
00000050: b128 e1bd 0997 5b3d 06c0 cfbd f3d4 1abe
00000060: 1402 0c3c 9ade 293e a492 f73e cb1a 30bd
00000070: fcbf 4bbe 2cc8 ff3c 00bd d2bd 0c7e 063f
00000080: 1d45 8a3e bb2e 913e 8660 9cbb 81a1 223d
00000090: e47e ae3d e2fe 9f3d ab9b 02bd 8846 353d
000000a0: eda0 c0bd 1bd4 23be eac4 42bd 934f 9a3d
000000b0: 3c93 c4bb cd27 c73d 3415 f93d e5c2 f03d
000000c0: 120e a23c 659c 733e 6047 aabd 3129 53bd
000000d0: 8b4b 40be 191c 6ebd e2fb a23d 7e14 883e
000000e0: ee7c da3c f701 28be 9f0e 93bc 18b9 56be
000000f0: 85ee 96bd 802d 1b3e fde6 84be 031e 4fbd
00000100: f5b5 e33d 9762 aabd d048 a9bc ce98 32be
00000110: 9a54 813c 5a9d d73b 8e1c e3bd 852a 473d
00000120: 0929 973d 5a79 593e 27f6 29bd 7624 bdbe
00000130: b18d da3e b00c 85bd 40b7 58bd f631 6a3c

_hidden_layers.1._model.0.weight f4 [80, 80]
-0.15685755 0.11366564 0.10435543 -0.14109242 0.05867727 0.09134606 -0.022673825 -0.049540978
-0.091688834 0.10863084 0.061430197 -0.011858102 0.037274554 -0.029039238 -0.15762271 0.05768037
0.049817868 -0.043066584 0.14265232 -0.07181538 -0.11204854 0.22186153 -0.009264875 -0.007863494
0.1372104 -0.04827332 -0.07914494 0.22855367 -0.0058864024 0.0044407183 0.14910631 0.089054376
-0.02560435 -0.07969486 -0.038525425 0.11661091 0.00034218392 0.070519984 0.044262055 -0.15854995
0.008793693 0.14520115 0.091596425 -0.12349069 -0.082643025 0.036824163 -0.09855041 0.08789559
0.23261529 -0.15084316 0.03359604 0.17908725 -0.042176448 -0.046362694 -0.01992063 -0.0572175
-0.0012898584 0.13213645 -0.15182735 0.010394347 -0.11632321 -0.17094243 -0.1580874 -0.01655727
-0.06249929 -0.09164204 -0.055519864 -0.07644376 -0.07796715 0.008412731 0.039971482 0.019880883
0.05745341 0.03807936 -0.12215316 -0.055103898 0.085006885 0.052644946 -0.057245556 -0.13447157
-0.06812311 -0.2183414 -0.10295671 0.03538876 -0.17911921 -0.37132105 0.41507378 -0.4281128
-0.20112693 -0.3850055 0.21710862 -0.064991325 -0.072657555 -0.35702834 1.0094334 0.3557787
-0.0013605803 -0.357927 0.24250837 0.40337604 0.16992871 0.2674501 0.19710287 0.40198368
0.48564616 -0.16011162 -0.6202483 -0.7107288 0.5062741 -0.08033524 0.7046557 -1.0231947
-0.7955822 0.0033360948 -0.22758417 0.0632488 0.20198692 -0.2473997 -0.87178034 0.27536446
-0.31923488 0.27639085 -0.69488704 -0.9720426 0.1274335 -0.13412534 -0.23349151 0.054658625
-0.4826986 0.14475887 0.67755634 0.48376647 0.26875833 0.19511954 -0.23431498 0.049601607
-0.007666708 -0.28004172 -0.61018354 -0.5697696 -0.21292202 -1.1741295 -0.42204133 0.19967946
-0.3749385 1.1265584 0.2237969 0.96923256 0.6106923 0.505151 0.24453099 -0.21593018
-0.11577508 -0.1994898 -0.07421858 0.06107895 -0.15499623 -0.18216054 -0.15317187 0.904949
-0.07090068 0.13624872 -0.15767391 -0.10760373 -0.0817361 -0.040786184 -0.06843978 0.0122796055
0.067930184 0.02461994 -0.04024481 0.11306359 0.1081542 -0.031195724 0.029472752 0.005211114
-0.08759403 -0.062133458 -0.014891953 -0.08744834 0.22969946 -0.07456288 0.093648285 -0.12082944
0.12606151 0.016160183 0.0040715314 0.016805286 -0.031308316 0.2192028 0.018023808 -0.00036590724
0.00020132816 0.046491697 -0.04018035 0.02188325 0.008388193 0.050423224 -0.062005296 0.12145259
-0.095127195 -0.04138047 -0.03000625 -0.06301622 -0.14182338 -0.011201991 -0.115082674 -0.14541341
-0.16181307 -0.057773568 0.15994146 -0.063387655 0.07181998 -0.15231085 0.054085188 0.015291581
-0.09832186 -0.06154151 -0.014386076 -0.1918575 0.013761598 0.0645384 0.0958166 -0.0017674657
0.00146579 -0.17697902 -0.056743443 -0.020662347 -0.011395753 0.025717951 -0.100478016 0.028880905
0.19265328 -0.16210288 -0.019936284 0.1671834 -0.024796467 -0.101491 0.13764279 0.05725543
0.43941876 -0.29648024 0.5989526 0.037213877 -0.44757318 0.13225733 0.2834953 0.3781221
0.04677175 -0.3229025 0.09933382 -0.022197822 -0.5611846 0.20681292 0.12924796 0.23833892
00000000: 449f 20be 88c9 e83d 4db8 d53d 887a 10be
00000010: 9457 703d a513 bb3d 75be b9bc 7beb 4abd
00000020: 5bc7 bbbd d979 de3d 3b9e 7b3d 7c48 42bc
00000030: 34ad 183d b2e3 edbc d967 21be 4042 6c3d
00000040: d20d 4c3d 9666 30bd 7313 123e f113 93bd
00000050: b479 e5bd ab2f 633e b4cb 17bc e2d5 00bc
00000060: e280 0c3e 3fba 45bd be16 a2bd f909 6a3e
00000070: b9e2 c0bb 7283 913b 53af 183e 2462 b63d
00000080: 37c0 d1bc 0f37 a3bd d6cc 1dbd b3d1 ee3d
00000090: 2667 b339 c86c 903d 214c 353d eb5a 22be
000000a0: 6c13 103c 9caf 143e e896 bb3d b0e8 fcbd
000000b0: bf40 a9bd efd4 163d ccd4 c9bd 9a02 b43d
000000c0: b432 6e3e a176 1abe 009c 093d a662 373e
000000d0: 36c1 2cbd cfe6 3dbd 9730 a3bc e65c 6abd
000000e0: 7710 a9ba c74e 073e a178 1bbe 0d4d 2a3c
000000f0: dd3a eebd 880b 2fbe aae1 21be 1da3 87bc
00000100: 41ff 7fbd d2ae bbbd cc68 63bd 8c8e 9cbd
00000110: 3ead 9fbd 8dd5 093c 23b9 233d 3cdd a23c
00000120: 4454 6b3d 1af9 1b3d 702b fabd a0b4 61bd
00000130: 1718 ae3d 3aa2 573d 517a 6abd eab2 09be
00000140: 2184 8bbd e394 5fbe f8da d2bd cef3 103d
00000150: 076b 37be cb1d bebe 8d84 d43e 9a31 dbbe
00000160: 38f4 4dbe 711f c5be b951 5e3e 2c1a 85bd
00000170: 7ccd 94bd 6bcc b6be 1d35 813f a028 b63e
00000180: 8055 b2ba 3542 b7be 1d54 783e 4e87 ce3e
00000190: cb01 2e3e 38ef 883e 56d5 493e ced0 cd3e
000001a0: 9da6 f83e 4df4 23be 98c8 1ebf 53f2 35bf
000001b0: 2e9b 013f cd86 a4bd 5164 343f 0bf8 82bf
000001c0: 46ab 4bbf 62a2 5a3b d30b 69be 9688 813d
000001d0: a9d5 4e3e 5956 7dbe ff2c 5fbf 92fc 8c3e
000001e0: c172 a3be 1a83 8d3e 1ee4 31bf c9d7 78bf
000001f0: ed7d 023e 2758 09be 6618 6fbe b9e1 5f3d
00000200: 4524 f7be ab3b 143e 5574 2d3f 3db0 f73e
00000210: b19a 893e 6bcd 473e 44f0 6fbe 0e2b 4b3d
00000220: 0239 fbbb a161 8fbe fd34 1cbf 6cdc 11bf
00000230: 3b08 5abe e049 96bf cd15 d8be c678 4c3e
00000240: f0f7 bfbe 1133 903f 042b 653e a01f 783f
00000250: 5556 1c3f 9351 013f 5566 7a3e cd1c 5dbe
00000260: 7c1b edbd 0e47 4cbe e9ff 97bd ec2d 7a3d
00000270: 55b7 1ebe 4b88 3abe 16d9 1cbe bdaa 673f
00000280: 6034 91bd c984 0b3e 4575 21be 585f dcbd
00000290: 4265 a7bd 6a0f 27bd 282a 8cbd 6630 493c
000002a0: fb1e 8b3d c2af c93c bed7 24bd e28d e73d
000002b0: f37f dd3d 2d8e ffbc d770 f13c fec1 aa3b
000002c0: 8064 b3bd a77f 7ebd 61fd 73bc 1e18 b3bd
000002d0: 5636 6b3e 6cb4 98bd acca bf3d 6d75 f7bd
000002e0: 4516 013e 5c62 843c 7b6a 853b 3dab 893c
000002f0: 263d 00bd b376 603e aaa6 933c 3dd7 bfb9
00000300: 9e1b 5339 146e 3e3d 2794 24bd 8044 b33c
00000310: a26e 093c 9588 4e3d 44f9 7dbd 23bc f83d
00000320: 0cd2 c2bd 917e 29bd abcf f5bc a60e 81bd
00000330: 263a 11be 8e88 37bc 77b0 ebbd 41e7 14be
00000340: 53b2 25be faa3 6cbd b2c7 233e 63d1 81bd
00000350: 5b16 933d 60f7 1bbe 6e88 5d3d 8a89 7a3c
00000360: f95c c9bd f312 7cbd 93b3 6bbc 4b76 44be
00000370: 5378 613c b52c 843d 7e3b c43d 4faa e7ba
00000380: c01f c03a fd39 35be d06b 68bd 1544 a9bc
00000390: 41b5 3abc 74ae d23c 6bc7 cdbd a697 ec3c
000003a0: e746 453e 4cfe 25be 6b51 a3bc 2032 2b3e
000003b0: f621 cbbc 83da cfbd 3bf2 0c3e ab84 6a3d
000003c0: 7ffb e03e 42cc 97be f554 193f 946d 183d
000003d0: 5028 e5be 776e 073e 4c26 913e 3899 c13e
000003e0: bc93 3f3d 7a53 a5be 886f cb3d 35d8 b5bc
000003f0: cba9 0fbf c4c6 533e 9459 043e 1e0f 743e

_hidden_layers.1._model.0.bias f4 [80]
-0.0025296693 -0.29479182 0.0057042916 -0.27125514 0.0036530164 -0.076315545 0.06197371 -0.0052369265
-0.08480695 0.034539543 -0.4197081 0.022816258 0.265651 0.14642319 -0.2986411 0.24955063
-0.6018928 0.058718584 0.49838686 -0.026729954 0.008736574 -0.13413674 -0.057753876 0.40586302
0.24371794 -0.0066607036 0.0018593374 0.062489364 -0.013169269 -0.46435112 -0.050210446 -0.17840394
-0.012767997 0.057068713 0.5403148 0.026229462 -0.045736227 -0.043285802 0.010140532 0.18331087
0.036663935 0.36418524 -0.017607478 -0.15874423 -0.057732254 0.059576817 -0.001817231 -0.022157302
-0.009789768 0.039179977 -0.016982622 0.038350947 -0.041688446 -0.008812382 0.06840549 -0.12518056
-0.05741488 0.0130250575 0.014772039 0.065839164 -0.008123432 0.011115745 -0.031088986 -0.08332373
-0.024429936 0.0074876277 0.052042298 -0.016414542 -0.26696602 0.027104994 -0.0321489 0.0010751302
-0.04522291 0.03328047 -0.03867768 -0.29974058 0.021589473 0.021594448 0.066182725 0.025958031
00000000: cfc8 25bb f4ee 96be 11eb ba3b f4e1 8abe
00000010: 7267 6f3b 534b 9cbd 25d8 7d3d 869a abbb
00000020: 44af adbd 5679 0d3d fbe3 d6be 29e9 ba3c
00000030: 6803 883e f6ef 153e 7ce7 98be 338a 7f3e
00000040: a615 1abf e682 703d 902c ff3e c7f8 dabc
00000050: d923 0f3c 245b 09be 548f 6cbd 47cd cf3e
00000060: 3291 793e 0842 dabb 03b5 f33a d9f4 7f3d
00000070: ebc3 57bc 6ebf edbe 78a9 4dbd 86af 36be
00000080: dc30 51bc e2c0 693d 1252 0a3f 2bdf d63c
00000090: e955 3bbd 744c 31bd 7924 263c d8b5 3b3e
000000a0: ec2c 163d 7d76 ba3e 8f3d 90bc d98d 22be
000000b0: a878 6cbd d206 743d 2730 eeba 3b83 b5bc
000000c0: 4365 20bc 2f7b 203d 241f 8bbc e215 1d3d
000000d0: 81c1 2abd cf61 10bc 2d18 8c3d 552f 00be
000000e0: dd2b 6bbd 0d67 553c 6c06 723c afd6 863d
000000f0: 2518 05bc d01e 363c 54ae febc a2a5 aabd
00000100: 4a21 c8bc c65a f53b 4e2a 553d ca77 86bc
00000110: c5af 88be 4b0b de3c 91ae 03bd 62eb 8c3a
00000120: a83b 39bd 1a51 083d 7d6c 1ebd 9977 99be
00000130: 68dc b03c d7e6 b03c cf8a 873d f0a5 d43c
