rllib/models/old/BluePlayer.onnx (onnx, 34035 bytes, 6 tensors)

_logits._model.0.weight f4 [4, 80]
000000 b2 e3 21 3a 57 66 b2 3a 3e f7 c3 bd fd 3e 67 3b
       0.0006175592 0.0013610822 -0.09568642 0.0035285347
000010 01 20 62 3d d9 66 30 be c9 97 6c 3d ad 60 c3 bc
       0.055206303 -0.17226733 0.05776194 -0.02384981
000020 9a e1 cf bb f9 a9 fb 3d 76 9a 43 3e 0b bc 63 3b
       -0.0063440325 0.12288279 0.19101891 0.0034749534
000030 b1 d0 f4 bd 8e b4 c9 bb b5 b8 81 bb c5 f0 04 3e
       -0.11953867 -0.006155557 -0.0039587864 0.12982471
000040 c9 61 17 3d 82 8d 68 3a 46 c4 93 bb 26 ac f8 ba
       0.03695849 0.0008871184 -0.0045094816 -0.0018972203
000050 5a fc 1e 3d 11 58 14 3b f5 cf 1f bb 90 8b 18 be
       0.03881488 0.00226355 -0.0024385427 -0.14896989
000060 53 e4 98 3b 00 7e f2 bd 64 2d 8b 3a 7e 6d 8d b7
       0.0046658902 -0.11840439 0.0010618386 -1.6859496e-05
000070 a9 30 44 3c 96 a1 cb 3a f3 00 96 3a 63 23 d0 bd
       0.011974492 0.0015535827 0.0011444375 -0.101629995
000080 d3 b4 ad 3b 7a 8a e9 3b dd 8d fd ba 97 7c 6e 3d
       0.005301097 0.0071271034 -0.0019344647 0.058224287
000090 4b 37 0c bb 41 42 40 3d 29 c9 25 3d a2 6f 77 bb
       -0.0021395262 0.046938185 0.040475044 -0.0037755747
0000a0 99 32 82 39 2f af 17 3b e8 ae 8c bb 55 4d 94 ba
       0.0002483323 0.002314519 -0.0042933114 -0.0011314551
0000b0 83 ba a0 bd f2 66 b7 bb ab 73 55 3b f0 0c 21 bd
       -0.07848074 -0.005596989 0.0032570164 -0.03931898
0000c0 54 10 7e bb 36 ee d4 3d 65 1a 54 bc 16 ad 7e bd
       -0.0038767057 0.10396998 -0.012945746 -0.062176786
0000d0 89 bd f0 3d 70 a6 4d be 16 14 52 bd 32 1c 91 ba
       0.11754901 -0.20083022 -0.051288687 -0.0011071025
0000e0 c6 e2 03 bc 3e 68 cb bb fc 40 1a be b5 6c ea 3c
       -0.0080496725 -0.006207495 -0.15063852 0.028616289
0000f0 0f 60 6b ba f4 65 8c b9 4e 68 b1 3a ee 49 3a 3e
       -0.00089788524 -0.00026778842 0.0013535114 0.18192264
000100 ad d8 6f ba a5 ad f3 b9 a6 52 6a b7 2e 21 38 bd
       -0.00091494137 -0.00046477947 -1.396673e-05 -0.044953518
000110 1d 44 09 3b 0f d3 d1 bd 3e 87 c2 3b 1b 19 d3 3c
       0.002094514 -0.10245334 0.0059365323 0.025768807
000120 6f 9a d1 3a ae 44 83 bb eb fe 8d 3b 57 32 28 bc
       0.0015991459 -0.00400599 0.004333367 -0.010265908
000130 dc b1 29 bb e9 1d 23 be 14 a7 cb bb 3c bf be bd
       -0.0025893366 -0.15929379 -0.0062149856 -0.09313819
000140 32 f7 d2 3c 7b 46 03 bb 28 0c ba bd 98 5e cb 3b
       0.025752638 -0.0020031023 -0.0908435 0.006206345
000150 9b 20 03 3e de 24 2f be 44 5d 30 3d 63 45 7f 3c
       0.12805407 -0.17103907 0.043057695 0.015580508
000160 a9 19 9c 3b f4 39 83 be 9f 83 e7 bd e4 c4 6a 3d
       0.004763801 -0.25630152 -0.113044016 0.057316676
000170 82 be 24 be 95 0d 39 ba 43 ce f3 3b 1d 1b 48 bc
       -0.16088298 -0.0007059214 0.00744036 -0.012213496
000180 2e f1 46 bd 49 e4 b9 b8 51 da 14 3e 2b 00 93 3b
       -0.04856985 -8.864009e-05 0.14536406 0.004486104
000190 d6 57 2a 3d 90 7e d5 ba af 43 18 3a 4e 8a 38 be
       0.041587673 -0.0016288329 0.00058084255 -0.18021509
0001a0 bd 60 55 3e b3 25 90 bd 9d 3c 19 bb 5e 24 92 3a
       0.20837684 -0.070384406 -0.0023382076 0.0011149754
0001b0 92 09 9f bd b7 80 36 3a f9 fc 4e 3b ee 87 29 3c
       -0.07765497 0.0006961929 0.003158389 0.01034735
0001c0 ff 34 09 bb bc 29 e9 ba b2 80 42 b9 99 87 0a be
       -0.002093613 -0.0017788927 -0.00018549224 -0.13528289
0001d0 95 8c fe 3b 79 26 4a bd a8 cb a0 3d 51 07 a3 3c
       0.0077682235 -0.049353097 0.07851344 0.01990095
0001e0 4d 87 44 3b 6f 41 7f 3a e1 e2 37 ba 7a 77 d2 35
       0.0029987872 0.00097372284 -0.00070147036 1.5680992e-06
0001f0 e8 6e 88 bd a2 42 f8 3a 76 a6 98 bb e8 14 80 3d
       -0.06661779 0.0018940757 -0.0046585156 0.062539876
000200 8e 82 8a 3b 0b bf 19 be 32 a5 04 3c b7 b4 a4 bd
       0.004226989 -0.15014283 0.008096026 -0.08042281
000210 be fb 24 bc d2 fa 66 3d c8 1f 01 bc a0 61 51 bb
       -0.010069786 0.056391545 -0.007881112 -0.0031949058
000220 d2 e3 7d 3e bb bd ba 3b 94 b7 16 bd 85 66 a2 bd
       0.24793938 0.005698887 -0.036796167 -0.0792971
000230 7a fc 06 3b be 51 19 bb 83 a1 35 bb e8 9c 72 bd
       0.0020597265 -0.002339467 -0.0027714677 -0.05923167
000240 87 ba 11 ba 5c e0 bd bb b9 a1 04 3b 03 46 51 3c
       -0.0005559106 -0.005794568 0.0020237996 0.01277304
000250 f8 42 f7 3a 1e 6a 10 3d d9 60 ab 3b 17 d7 01 be
       0.0018864563 0.03525745 0.005230051 -0.12679707
000260 55 87 11 3b 04 b2 56 3b e0 58 2b bb 8a d2 22 3d
       0.0022205908 0.0032759914 -0.0026145503 0.039751567
000270 5a 1f 68 3a b8 0c 7f bd 80 5b 8c 3d 32 27 b0 3d
       0.00088547694 -0.06226799 0.0685339 0.08601226
000280 44 ba 83 39 c1 ec 84 3a 54 fd 68 bd 5c 09 22 3b
       0.00025125046 0.0010141359 -0.056882218 0.0024724817
000290 ea 92 c5 bd 40 0b 2c 3d b6 3c 44 bd 7d b4 0b 3c
       -0.09647162 0.042002916 -0.04790946 0.0085269185
0002a0 14 f2 96 b9 8d be bd bd 01 a6 47 3d c2 66 ce bc
       -0.00028790592 -0.0926486 0.048742298 -0.025195483
0002b0 45 03 14 bd 6d 1b a6 bb f3 3b 3d bc 85 3e 95 bc
       -0.03613593 -0.0050691874 -0.011549938 -0.018218288
0002c0 97 19 35 3d 38 3b 12 3b 3c b4 89 bd cd 12 83 bb
       0.044213858 0.002231313 -0.0672383 -0.004000044
0002d0 63 5e 47 bd f0 76 a4 38 88 6a 4f 3b 69 64 05 3d
       -0.048674 7.842283e-05 0.003164919 0.03256646
0002e0 d9 41 fa 3d 50 27 87 bd 3f 62 d4 3a 42 1a 05 bc
       0.12219591 -0.06599295 0.0016203596 -0.008123936
0002f0 65 cf dc bd 47 f8 f8 3a db 01 7d 3b db 03 88 3c
       -0.10781745 0.0018994891 0.0038605842 0.0166034
000300 bf db 2a 3b 0f 27 e2 b9 c8 f4 09 3b 70 2f 7f 3c
       0.002607092 -0.0004313518 0.0021050442 0.015575275
000310 94 3f a0 bb c4 54 3e 3d 33 4e 14 bd c0 74 90 bb
       -0.0048903916 0.046467558 -0.03620739 -0.004408449
000320 6b 4d 69 bb 2c 27 d6 bb ea e1 53 3b af 1b 77 3b
       -0.0035599123 -0.0065354314 0.00323307 0.003770571
000330 65 79 41 3c 40 75 38 bb f4 08 4f 3b 66 ec 59 bd
       0.011808728 -0.0028146058 0.003159103 -0.053203963
000340 de 01 17 ba 35 e9 db bd c7 09 a1 3c 69 93 84 bd
       -0.0005760471 -0.1073784 0.019657983 -0.06473429
000350 fe a0 5a be 24 64 b7 3b fd 0a 07 be c2 52 ac 3b
       -0.21350476 0.0055966545 -0.13187785 0.005258889
000360 b5 64 29 bd 4f b1 8a bb cb 26 ae 3c fd 2e 8e bd
       -0.041355807 -0.0042325626 0.021258732 -0.06942556
000370 f2 9b 63 bb 60 56 d8 ba 81 d8 bd bb 35 a8 be 3c
       -0.0034730402 -0.0016505234 -0.0057936315 0.023273567
000380 b6 ac 17 b9 c5 1a 83 3b dc 3a c7 bb 27 1e 4b be
       -0.00014464822 0.004000994 -0.0060800146 -0.19835721
000390 91 57 73 3a 61 ec 05 be 99 95 16 bb 80 b7 38 bd
       0.0009282763 -0.13078453 -0.002297735 -0.045096874
0003a0 c8 7d 2a bb 6e 48 e6 bb c7 2e 07 3b 4c 60 3c bd
       -0.0026014913 -0.0070276773 0.0020627247 -0.045990273
0003b0 a4 40 59 bb 16 76 a2 bc 0b 7f bf bd 43 e7 c4 3d
       -0.00331501 -0.019831698 -0.093504034 0.09614422
0003c0 8f 30 98 3c 4c 5e 80 ba 4b b3 cd 3c 38 09 04 3b
       0.018577842 -0.0009793728 0.025109908 0.0020147096
0003d0 37 8b b5 bd a7 91 95 bd 82 a0 41 bd fe 59 03 bd
       -0.08864444 -0.073031716 -0.047272213 -0.032068245
0003e0 92 76 bb 3a 51 f7 1c bd 3a be 6d 3d 78 16 0a be
       0.0014302304 -0.038321797 0.058042742 -0.13485134
0003f0 f4 8e 17 bd 1f 75 e9 ba 8d 29 5f 3c 9d 55 c0 bc
       -0.037001565 -0.0017811394 0.013620746 -0.023478324

_logits._model.0.bias f4 [4]
000000 6a 78 8d 3c 03 44 cd bd 24 62 c8 3b 8b 2e 09 bd
       0.017269332 -0.10022738 0.006115215 -0.033491652

_hidden_layers.0._model.0.weight f4 [80, 13]
000000 90 6c 3f be 11 ea e7 be aa dc 25 bb 29 fa 0a 3f
       -0.18693757 -0.45295766 -0.0025308528 0.54287964
000010 b1 48 3a bd e0 75 42 3e 8f f5 a1 bf b9 01 af be
       -0.04547948 0.18990278 -1.2653064 -0.34181002
000020 1c c4 62 3e 35 89 62 be 15 12 a7 bd 6a 0f af 3e
       0.22145122 -0.22122653 -0.08157746 0.34191447
000030 e1 8e b0 be 94 8f 5c 3e 88 c3 31 3f 81 1e c4 bd
       -0.34484008 0.21539146 0.6943898 -0.09576131
000040 25 7d af 3e e0 f4 ea 3b 85 ac 04 3f 84 13 2c bf
       0.34275165 0.0071703047 0.51825744 -0.6721728
000050 e6 89 1d bf 64 d0 39 3e 97 d4 86 3f 7c 32 85 bf
       -0.6153854 0.18145901 1.0533627 -1.0406032
000060 48 70 9b 3e 9c c0 2e bf f2 ae bb 3e c3 50 d5 be
       0.303591 -0.6826265 0.3665691 -0.4166318
000070 de 3d 33 bf 71 b0 8d 3e 7d 8b 1c 3f dc 54 cf be
       -0.70016277 0.27673677 0.6115034 -0.4049443
000080 b4 75 e2 be 3e 1d 63 3e cf a5 00 3e 83 f0 28 3e
       -0.44230425 0.22179124 0.12563251 0.16497998
000090 9d 31 9b 3e 87 aa 3d 3c b5 f1 31 bf 35 c9 63 3e
       0.3031129 0.011576301 -0.6950944 0.22244723
0000a0 06 7b 18 be 06 2d b5 be 41 ce 2f bd d7 36 e8 be
       -0.1489068 -0.35385913 -0.04292131 -0.4535434
0000b0 e6 4c 93 bf 63 e9 d8 3d 26 8d af be 94 26 b0 3d
       -1.1507843 0.1059139 -0.34287375 0.08601108
0000c0 ef ea 10 3f fd dc ba 3f 77 31 95 bf 48 4b 91 bf
       0.5660848 1.459869 -1.165572 -1.1351099
0000d0 63 9b 75 be 05 03 17 bf 86 bc 0e bf 17 ff 05 3f
       -0.23985057 -0.5898898 -0.55756414 0.5234236
0000e0 5d 5c 00 be ad 91 fe bd 25 cd 49 3e a9 27 2e 3f
       -0.12535234 -0.12430129 0.19707163 0.68029267
0000f0 85 01 43 bf ae 1e 0b 3f 0f 43 e0 3e 8f 89 3f bf
       -0.76174194 0.5434369 0.43801162 -0.7481927
000100 2f ea 7e bf 9f 6b 08 bf 51 1a 44 be f6 e9 02 3d
       -0.99576086 -0.53289217 -0.19150664 0.031961404
000110 90 20 4f 3f ad 9e de 3d a7 ea c0 3e 61 10 f1 3d
       0.8090906 0.10870109 0.37679026 0.11770702
000120 2e 4b 0a 3f 87 8f 15 bd 6c c7 5e 3e 2c c4 e3 bf
       0.54020965 -0.03651383 0.21755761 -1.7794242
000130 67 f8 c3 3e 28 45 a5 bf f3 e9 bd 3e 4d 4d c3 3e
       0.38275453 -1.291173 0.37092552 0.38144913
000140 bb ec fe bc 85 26 0a bf 97 15 69 3d 32 b6 57 bd
       -0.031118741 -0.53965026 0.056905355 -0.05266399
000150 dc 83 2f be c5 73 f3 be a0 20 10 3e 40 cb 7a bf
       -0.17140144 -0.47549263 0.14074945 -0.97966385
000160 64 1a e9 3f ce 3e 8c 3d b7 7b 21 c0 61 21 6f 3c
       1.8211179 0.068479165 -2.523176 0.0145953605
000170 fc 7f 02 bf 80 fe 1e 3e c0 be a3 3e 04 17 8e be
       -0.5097654 0.15526772 0.31981468 -0.27751935
000180 35 e0 82 bf 79 10 2e bf f8 14 c8 ba e3 87 50 be
       -1.0224673 -0.67993885 -0.0015265038 -0.20364337
000190 48 25 b3 bd e8 d7 62 3f 34 f7 89 be 0e b1 7a be
       -0.08747345 0.88610697 -0.26946414 -0.24481604
0001a0 fa fa 29 3e b8 25 ca 3e 0b b8 05 3f fb 4a 02 bf
       0.16599646 0.39481902 0.5223395 -0.5089566
0001b0 fa d7 26 3e 0f 5f 0e 3d 4b 9c 20 bf f6 78 3f bf
       0.16293326 0.034758624 -0.62738484 -0.74793947
0001c0 72 bf 77 3e ba 2f f6 be f4 84 fc be ee d8 a3 3e
       0.24194124 -0.48083287 -0.49320185 0.32001442
0001d0 04 4f b4 bf 69 f8 6a be a2 e7 45 bf 16 13 6c bd
       -1.4086614 -0.22946323 -0.7730657 -0.05763539
0001e0 b3 1c 89 bf be 46 11 3f a7 80 33 bf f0 2d 40 be
       -1.0711883 0.5674857 -0.7011818 -0.18767524
0001f0 84 84 79 3f 3a d7 a3 be d5 f0 52 bf 45 11 cf be
       0.9746783 -0.32000142 -0.8239873 -0.40442863
000200 59 29 77 be ad fa 82 3f 03 ab c4 3e 83 f3 1b be
       -0.24136867 1.023275 0.38411722 -0.15229611
000210 b3 26 13 bf fa 44 52 3e 2d ef 0a be 20 9c 94 be
       -0.57480925 0.20534125 -0.13567801 -0.29025364
000220 3b 05 72 3f e1 69 ee 3e b9 cb d5 3d 74 7b 00 be
       0.9453923 0.46565154 0.10439248 -0.12547094
000230 4b 17 26 bf 9f cd 99 3e 7e c7 24 3f fd b2 c5 3d
       -0.6487929 0.3003969 0.643669 0.0965328
000240 61 87 0f be 22 ac 7d be d5 a6 57 3c f0 3b 2c bf
       -0.14016487 -0.24772695 0.013162334 -0.6727896
000250 4a cc 45 bf d5 d1 1c 3f 17 3c a8 3e d6 62 f9 3d
       -0.77264845 0.6125768 0.32858345 0.121770546
000260 8b 17 58 3d 51 c4 55 3f d8 43 91 bf 6c a1 4c 3f
       0.052756827 0.8350268 -1.1348829 0.7993381
000270 d8 0c 89 3e bf 73 5d be 48 ba 93 3e 89 3a 53 3f
       0.26767612 -0.21626185 0.2885306 0.8251119
000280 76 55 05 bf bd 51 7b bf dc a6 c1 3d 87 bf f1 bd
       -0.5208353 -0.981716 0.09455654 -0.11804109
000290 f9 25 82 bd 77 e8 dd be 9c 72 09 3e 76 a7 9e be
       -0.06354899 -0.4334142 0.13422626 -0.30987138
0002a0 dc c4 99 bf c8 65 48 3d 5c cb 2c be 6d b7 9d bf
       -1.2013202 0.04892519 -0.1687445 -1.2321602
0002b0 35 d8 92 be 0c ab 66 3d 69 d0 99 3f 3c 63 2e 3e
       -0.28680578 0.056315467 1.2016727 0.17030042
0002c0 36 93 fd 3e ce d2 b7 3d a8 59 9b bb 8a d6 9c 3f
       0.49526376 0.08975755 -0.0047409125 1.2252972
0002d0 24 08 10 3f 5b 27 fe 3e e0 0c 9a be 88 5c 28 bd
       0.5626242 0.496394 -0.30087948 -0.04110387
0002e0 82 70 39 3f f9 22 ea 3d f9 04 b5 3d 84 87 02 3e
       0.724373 0.11432452 0.08838839 0.12747008
0002f0 ca f9 9c 3e 1c dc a8 3e 4b 30 90 3f fb 82 35 be
       0.30659324 0.3298043 1.1264738 -0.17725746
000300 6c 63 f5 be e3 fc ee 3e 1f 83 b5 3f c3 88 48 3d
       -0.47927415 0.46677312 1.418064 0.04895855
000310 0b 72 16 bf f5 07 3e 3d 1d 1d 42 be 72 40 68 bd
       -0.58767766 0.046394307 -0.18956418 -0.056702085
000320 54 a9 75 3f c7 99 d4 be 43 36 31 3f 97 08 10 bf
       0.959615 -0.41523573 0.6922342 -0.5626311
000330 c4 6f 94 3f 9e f6 7f bf 51 a6 af 3e f7 e1 86 be
       1.1596608 -0.9998568 0.34306577 -0.26344272
000340 ab 66 54 be 35 40 83 be f2 b1 07 3e 7c 25 50 3f
       -0.2074229 -0.25634924 0.13251474 0.81307197
000350 c8 a9 30 3d 63 46 ae be 9e 39 2b 3f 16 6c 2d 3f
       0.043130666 -0.34038076 0.6688479 0.6774305
000360 64 5f b8 bd cf b6 88 3e 13 fe 8a 3e 82 8a cb 3e
       -0.09002569 0.26701972 0.27146968 0.3975411
000370 dd 01 b0 bf 46 8c e1 be 30 8e da be d8 c1 1f 3f
       -1.3750569 -0.44052333 -0.42686605 0.6240516
000380 e4 85 63 3e 06 d2 93 3e e4 97 8e 3e d2 78 f5 be
       0.22219044 0.28871173 0.27850258 -0.4794374
000390 c2 c3 2f 3f c8 cb bc be 75 06 27 be 9f 84 aa 3f
       0.6865808 -0.36874223 -0.16311057 1.3321723
0003a0 6b 9f e2 be 27 c5 8c bf 91 83 e0 3e e9 cf 0c bf
       -0.4426225 -1.0997666 0.43850377 -0.55004746
0003b0 ad 69 8a be 77 bf 57 3f f3 40 55 be 81 48 a3 be
       -0.2703375 0.8427653 -0.20825557 -0.31891254
0003c0 cd f3 a6 be 43 96 63 3e 84 09 1a bf 90 bb 87 3f
       -0.3260788 0.22225289 -0.6017077 1.0604115
0003d0 5b 12 22 3f 48 6e 7a be e4 1a 85 3e f1 71 83 3e
       0.6330926 -0.24456131 0.25997078 0.25672868
0003e0 a3 67 3a 3f 22 42 4d be 51 80 37 bf 07 68 2b 3e
       0.7281439 -0.20044759 -0.7168017 0.16738902
0003f0 60 10 3a bf e9 01 61 3e 2d 46 91 be 27 91 ed 3e
       -0.72681236 0.21973385 -0.28373852 0.46399805

_hidden_layers.0._model.0.bias f4 [80]
000000 11 c8 f1 3d 85 bf 59 3f ed 5a 6b be 4e f2 f3 bd
       0.11805738 0.8505786 -0.22983904 -0.1191145
000010 92 49 2d bf ff 81 2f be c0 e1 66 3e d2 c8 c3 be
       -0.67690384 -0.17139433 0.22547054 -0.3823915
000020 a3 dd f7 3e 1c e9 06 bf 18 fa 70 be 59 b8 90 be
       0.48411283 -0.52699447 -0.23532903 -0.28265646
000030 b7 3d a3 3e 48 dd 30 be 40 76 6a be 97 09 fe be
       0.31883022 -0.17271912 -0.22896671 -0.4961669
000040 69 53 12 bf d7 b0 02 be 11 a0 98 be da 98 d9 3e
       -0.57158524 -0.12762772 -0.2980962 0.4249943
000050 b8 e9 73 3e 55 65 7f be f5 20 0e be 6f 60 55 3f
       0.23819625 -0.24940999 -0.1387976 0.8335027
000060 74 d0 6a 3e 9e e8 9c bd a1 da 68 3f 2e bf c2 3e
       0.22931081 -0.07661556 0.909586 0.38036484
000070 0a 07 44 be 3e 56 da be 51 b6 39 be 50 96 88 3e
       -0.1914331 -0.42643923 -0.18135954 0.2667718
000080 02 59 ba be ea 93 48 3f bc 3d db 3e 17 4a cf be
       -0.36396033 0.783507 0.42820537 -0.40486214
000090 14 03 3d bf 02 69 1f be 85 3c f7 3e df a0 13 bf
       -0.7383282 -0.15567401 0.4828836 -0.57667345
0000a0 ae 0d 55 bf 06 90 3d bf d6 7f 65 3e 0c 77 6c 3f
       -0.83224 -0.7404789 0.22412047 0.9236915
0000b0 f2 db bf 3d 23 f6 af be b7 2b e6 3e 21 72 69 3f
       0.09368123 -0.34367475 0.44955227 0.9118977
0000c0 41 e3 16 bf 98 46 09 3f 19 30 e2 be cb bc cc 3d
       -0.5894051 0.5362334 -0.4417732 0.09996947
0000d0 f8 c0 b9 bd 50 7f 1e 3e 54 a5 1f 3d 9d 2b d1 3d
       -0.09070009 0.15478253 0.03897603 0.10213397
0000e0 28 88 7b 3e 43 e7 a9 bd cc bc 11 3f 88 9b f2 3e
       0.24563658 -0.08296063 0.56928706 0.47384286
0000f0 f1 74 e7 be 21 e7 a3 3e a3 4c 8f be 3e 89 3a bf
       -0.45206407 0.32012275 -0.27988157 -0.72865665
000100 71 f6 55 3e b9 69 c4 be 7b 36 21 3f 5a 75 57 be
       0.20894791 -0.3836191 0.62973756 -0.2104086
000110 3f 81 58 bf 67 e2 85 3e 76 ad 89 bf 6a b3 46 bd
       -0.84572214 0.26149294 -1.0756061 -0.048510946
000120 37 67 51 be 9e 7c 13 be f2 02 26 3e 25 6d e7 be
       -0.2044953 -0.14403006 0.16212061 -0.45200458
000130 02 ed 80 3f 4a ad 56 3f 5c 2a e6 be a5 12 df 3e
       1.0072329 0.8385817 -0.44954193 0.43568912

_hidden_layers.1._model.0.weight f4 [80, 80]
000000 e2 c9 8c bc ac 35 58 3d 5b 71 a1 3d 2c 68 0f be
       -0.017186109 0.05278556 0.07882949 -0.14004582
000010 41 c9 a7 bc 7f f6 9f bd 60 21 a7 3d 27 06 00 3d
       -0.020481708 -0.07810687 0.08160663 0.031255867
000020 20 17 87 3d fd 1b d1 3d 33 fa 9f 3d 52 2e 4b bc
       0.065962076 0.102104165 0.078113936 -0.01240118
000030 b2 52 bc bd 13 90 97 3d 9d 2a af bd 6c d3 76 bc
       -0.091954604 0.07400527 -0.0855305 -0.015065055
000040 8f f0 36 bc de 68 54 3e 17 e6 ae bd 7a 46 36 be
       -0.011165752 0.20743129 -0.0853998 -0.17800322
000050 14 8b 3f 3d 42 8b 01 3d c7 c3 f7 3d ad 4a e4 3b
       0.046763495 0.031626947 0.120978884 0.00696691
000060 42 53 a1 3d b7 1e c0 bd dd 71 31 bd 20 19 77 3d
       0.07877208 -0.093808584 -0.04332148 0.060326695
000070 c3 dc 17 3e 50 05 0a 39 de c3 19 3e fe 28 ee bc
       0.14830308 0.00013162685 0.15016124 -0.029072281
000080 b3 14 19 bb 68 43 c1 3b 1a 2f 9a 3d 6b 65 80 3d
       -0.0023358285 0.005897928 0.07528515 0.06269344
000090 d2 2e a4 bc 1d ad 92 3d 5d 2c 2a 3e 32 d0 dc 3d
       -0.020041857 0.07161925 0.16618486 0.107818976
0000a0 36 fa 50 3d 0d e3 0d 3e 99 66 8f bb 18 be ae 3d
       0.05101987 0.13856144 -0.0043762443 0.08532351
0000b0 f4 fe c8 3d 4f 2a df bd 26 11 83 bd f2 2d 99 bd
       0.098142534 -0.108967416 -0.06399755 -0.074794665
0000c0 27 31 a4 bd d9 ca 91 3d 58 dc fa 3d 26 ac 90 bd
       -0.080171876 0.07118768 0.122490585 -0.07064085
0000d0 a6 75 3c 3e a4 5b 09 3d 97 f6 4e 3d 7f 05 56 3e
       0.18404254 0.03353466 0.050528135 0.20900534
0000e0 21 3f 88 bd f8 d4 8a bc 05 43 ba 3c 72 6d 02 be
       -0.06652666 -0.016947255 0.022737036 -0.12737063
0000f0 16 3f 90 3d 66 e5 9b 3d 3b d5 83 3c 72 e2 af bc
       0.07043283 0.07612114 0.016092887 -0.021470282
000100 82 58 50 bc c2 8f 49 bd 02 3b 1d 3d 7c 2d 3c bd
       -0.012716414 -0.049209364 0.038386352 -0.045941815
000110 28 2c 01 be 22 38 29 bd 29 3d 06 bd 73 1c 11 3e
       -0.126145 -0.041313298 -0.03277317 0.14171009
000120 c2 b7 c4 3d 7c 34 01 bd bf 53 16 3d b2 0d 88 bc
       0.096053615 -0.031544194 0.03670096 -0.016608093
000130 eb f3 3b 3d f6 98 21 be dd e3 ee bd 93 03 64 bc
       0.045886915 -0.15781006 -0.11664555 -0.013916868
000140 03 7e 5c bc a6 da 66 bd ee 08 80 3c de 0a 11 3c
       -0.013457778 -0.056360863 0.015629258 0.008852689
000150 28 df 11 bc f5 9e 74 3d 75 93 20 3b 65 3b 6d 3c
       -0.008903302 0.059721906 0.0024501954 0.014479493
000160 96 a1 08 bd 6e ea 11 bd bb cf a0 b9 e3 f3 94 3b
       -0.033357225 -0.03562396 -0.0003067235 0.004545675
000170 31 68 3d bd 5f 9d 2b bc 08 d5 5d 3d 90 d6 b1 3b
       -0.046241943 -0.010474532 0.05415824 0.005427189
000180 19 7f 20 bc 22 73 96 3b d5 ab 55 bd ce 80 74 3c
       -0.009795927 0.0045913616 -0.052165825 0.014923288
000190 ab 54 cc bc 53 f7 bc bc 41 70 89 bc 8d 20 10 3d
       -0.024942717 -0.023067152 -0.01677716 0.035187293
0001a0 ee 75 9d bc b6 8b a2 3c 08 31 db bb 23 3a 88 3c
       -0.019221272 0.01984201 -0.0066891946 0.016629284
0001b0 de d4 93 bc 42 7d dc bc 29 9f e7 3b b8 9d ba 3c
       -0.018045839 -0.026915196 0.007068534 0.022780284
0001c0 1e 2a af bb 57 38 c2 bc 39 cb 5e bd e6 51 f7 3c
       -0.005345597 -0.023708506 -0.054393027 0.03019042
0001d0 a2 27 4f bd 66 87 16 39 85 1b 1f bd ce b2 40 3c
       -0.050574906 0.00014355555 -0.038844604 0.01176138
0001e0 fa 54 52 bb 0b 8c df ba 25 d2 03 bd c5 77 2b bc
       -0.0032094107 -0.0017055286 -0.03218283 -0.010465567
0001f0 2b 0c a1 bd 24 d1 41 bd 02 3b 30 ba f0 d6 17 bc
       -0.07863649 -0.047318593 -0.000672266 -0.009267554
000200 3e 60 04 bd fe de b0 bb ba 26 b7 bc cf c0 08 3d
       -0.032318346 -0.0053976765 -0.022357333 0.033387
000210 80 68 3f bd 4a ad 5b bc 37 d8 57 bc 2e d0 d6 3c
       -0.04673052 -0.013408015 -0.013174108 0.026222315
000220 7d 5e cf 3c 55 3a 08 3d bb 86 4a bc 76 1d 18 3d
       0.02531361 0.033258755 -0.012361224 0.03713747
000230 e5 2d e1 3c 88 bd 5f bd 07 0a 30 3d 66 f7 11 3c
       0.027487705 -0.05462411 0.042978313 0.008909082
000240 d1 42 13 3d fb 46 b2 3c 7a 04 9b ba 39 1a 52 3d
       0.035952393 0.021762362 -0.0011826896 0.05129454
000250 fb 0b 54 3c 8d 2b 23 bd 1d f3 c5 bc f2 6a f7 3c
       0.0129423095 -0.039836455 -0.024163777 0.030202363
000260 4a 49 0a bd 36 c2 e7 bc 7d ba 8c bd a1 6f c1 bc
       -0.0337613 -0.02829085 -0.06871507 -0.0236128
000270 5f 96 88 3c f4 5a b2 3d c7 e4 35 3d 2f 24 6a bd
       0.016673265 0.08708754 0.044407632 -0.057163414
000280 0a 9e 00 bf 65 4f 89 3e 65 f5 a4 be 09 60 04 3e
       -0.5024115 0.26818386 -0.3221847 0.1292726
000290 3c d0 8a 3d 85 0e da 3e 89 69 25 bf 71 6a cb be
       0.06777999 0.42589203 -0.6461416 -0.39729646
0002a0 d3 82 9c 3d e8 24 26 be bd 8e d7 3e e5 a0 d2 be
       0.0764214 -0.16225016 0.42101088 -0.41138378
0002b0 d5 49 20 3e ec e6 c2 3e 7d 3c de bd 5f 8a c1 be
       0.15653165 0.38066804 -0.10851381 -0.3780088
0002c0 18 35 0f 3e 7e 11 33 3e 2f e3 08 bf 2c 87 b1 3e
       0.13985097 0.17487141 -0.53471655 0.3467344
0002d0 04 69 da be 01 75 c1 be 6d 8a 23 3d f9 d4 3e 3e
       -0.42658246 -0.3778458 0.039926935 0.1863593
0002e0 0b 91 de 3e 1a 39 fa 3d 0c db 86 3e 00 56 13 3f
       0.43470034 0.122179225 0.26338995 0.575531
0002f0 1b f9 b8 3e 34 d9 2b be 59 06 1b bd b1 66 88 3e
       0.36127552 -0.16782075 -0.03784785 0.26640847
000300 d4 19 b9 be 77 a1 1a 3f 55 7a be 3e 4b 27 28 be
       -0.36152518 0.60402626 0.37202707 -0.16421239
000310 45 c3 b1 bc 8f 5e 3e be 6e 66 5e be d2 e5 67 3e
       -0.021699557 -0.18590759 -0.21718761 0.22646263
000320 aa 18 52 3e 85 45 ff be 00 d8 b4 bd 28 cb c9 3e
       0.20517221 -0.49857727 -0.08830261 0.39412808
000330 65 ad f8 bd e7 72 e2 bd af a8 3f be f4 2b 31 3e
       -0.121424474 -0.11057072 -0.18716691 0.17301923
000340 69 0e 00 bf 0e 77 68 3e a6 21 9f be b6 de 12 3e
       -0.5002199 0.22701666 -0.3108036 0.1434277
000350 59 0c fb be c3 a4 9b be 93 71 ec 3d 05 87 16 be
       -0.49032858 -0.3039914 0.115451 -0.14699943
000360 47 dd 6d 3e 3a e7 25 be da 2f 25 be 7d 5f 27 bb
       0.23228942 -0.16201487 -0.16131535 -0.0025539093
000370 9f 8f ce bd bb 16 24 3e fa cd a6 3e 81 66 7b be
       -0.10085987 0.16024296 0.32579023 -0.24550821
000380 fb b4 a8 bd 56 e9 8b 3d 11 16 2a 3e c5 67 88 be
       -0.08237644 0.06831615 0.1660998 -0.2664167
000390 26 fe 24 3d 17 3c 24 3e 2d 3a c8 be 1e f6 2d 3e
       0.040281437 0.16038547 -0.39106885 0.16988418
0003a0 56 a6 2b 3e a5 17 24 be ed 68 06 be f7 f9 80 3e
       0.16762671 -0.16024645 -0.13125964 0.25190708
0003b0 d7 c4 4f 3e bc 7a 00 3e a7 0c 65 3c 95 e9 4a bc
       0.20289932 0.1254682 0.013980067 -0.012384792
0003c0 67 63 b1 bc 96 44 47 bd 97 91 e0 bc 82 7c bf 3d
       -0.021653844 -0.048649393 -0.027413173 0.0934992
0003d0 77 59 16 3c 0d ec ca 3c fe a8 77 bc e1 bd f9 3c
       0.0091766035 0.02477076 -0.0151159745 0.03048605
0003e0 61 25 22 bd d2 26 2d 3b a5 6a 16 3c d5 15 07 3c
       -0.03958643 0.0026420844 0.0091806995 0.008244951
0003f0 d3 51 2c bd f3 c2 05 bb 77 f4 8f bc a9 fb 63 ba
       -0.04207022 -0.0020410388 -0.017572625 -0.0008696863

_hidden_layers.1._model.0.bias f4 [80]
000000 d8 df 50 bd ee 95 94 3c c4 77 a4 bd 5b 46 05 3d
       -0.050994724 0.018137898 -0.08030656 0.0325378
000010 ec 57 e7 3e 4d 20 84 be 12 b4 5e 3c 27 5e 21 bd
       0.45184267 -0.25805894 0.013592737 -0.03939643
000020 37 2c 93 37 02 51 5a bd d1 4f 58 be c5 ba 20 3d
       1.7544355e-05 -0.05329991 -0.21124198 0.039240617
000030 82 d2 25 bd 3c 8f 22 bd d5 a2 c2 bc 70 26 08 3c
       -0.04048396 -0.03968738 -0.023759285 0.008309945
000040 aa 50 20 be 9d 80 6e 3c a9 de ed bd 6b 97 0c bc
       -0.15655771 0.014557031 -0.11614735 -0.008581023
000050 e6 c9 1e 3e 9d 5c a1 3c 84 4b 71 bc 77 1f 2d 3e
       0.15506706 0.019697482 -0.014727477 0.16906534
000060 b6 4b 8c be 7c fd eb 3e c4 d4 d2 3b 21 12 23 3c
       -0.27401513 0.4609183 0.006434055 0.009953053
000070 a3 8d 06 3f 51 49 4f bd bc d8 04 3c 4a b1 7e be
       0.5255987 -0.05060703 0.008108314 -0.24872318
000080 7f db 51 3b 0f ff e4 bc 5f f2 06 3d 8a d7 03 3f
       0.00320217 -0.027953653 0.032945987 0.5150076
000090 1e 21 b7 bc bc 0a ef bd 5c f9 06 3f 65 59 a6 3c
       -0.022354659 -0.11671969 0.5272424 0.020306299
0000a0 49 5e d9 3c 91 c6 61 3c c5 61 13 3c e1 ee 53 bc
       0.026534216 0.013780252 0.008995478 -0.012935371
0000b0 c1 cf 25 be 6c 1a e9 3c e6 0f 88 ba cd 74 80 be
       -0.16192533 0.028454982 -0.0010380715 -0.25089112
0000c0 6a 60 08 3c 1a 4f 67 be 94 00 c5 3c 47 85 41 3d
       0.008323768 -0.22588769 0.024048127 0.047246244
0000d0 30 76 1a 3e 6a 00 eb be c4 b9 3c 3f c5 3a f5 3c
       0.15084147 -0.45898753 0.73720956 0.02993525
0000e0 c6 65 01 be db 0b 07 3c de 6e ca 3e 59 4e 17 bf
       -0.1263648 0.008242573 0.3953771 -0.59103924
0000f0 01 79 d1 bc 18 d3 30 3d cb c2 fd bc c6 1a 1a bf
       -0.025570394 0.043170065 -0.030976674 -0.60197103
000100 53 57 33 3d a0 67 e1 bc a3 27 20 bd b4 ba 86 3e
       0.04378445 -0.027515233 -0.0391003 0.26314318
000110 1d e9 c1 bb 2d 1c d5 bc 2d 0d f2 bc 04 64 c7 3e
       -0.005917682 -0.026014412 -0.029547298 0.38943493
000120 2d fb 2b bd 75 3c 82 bc d1 f8 a4 bb 2c 71 e2 be
       -0.041987587 -0.015897969 -0.005034544 -0.44226968
000130 91 cc 59 bc f7 ef a2 3e c0 de a1 3e 6f 67 59 be
       -0.013293401 0.31823704 0.31615257 -0.21230863
