rllib/models/old/model.onnx (onnx, 33884 bytes, 6 tensors)

_logits._model.0.weight f4 [4, 80]
00000000: f33f 203d 856e 33be 0b31 773e fe80 83be
00000010: 2115 8c3d 8a1d 80bd d72f 253d 68ec 783e
00000020: 45a9 d83c e4e3 b03d 2254 88bc 5d74 35bd
00000030: 97ec 78bd 56eb 3ebd e89c 733e 8b07 03bd
00000040: 9907 523e f3b5 ddbd 6bf7 65bd 4534 fc3d
00000050: 3dd6 b9bd d170 67be 2766 bfbd 2563 c43d
00000060: a118 853e c5b2 23bd bab5 2cbd 23d1 adbd
00000070: d58d 133d 3a30 97bd 76c2 593d f7ee 17bd
00000080: 9a7e 213c 2307 56bd 6fb7 143d e493 7a3e
00000090: f8ce 393c 0477 783b bff7 893d 6607 673e
000000a0: 5e56 8c3c 52d5 1ebe 52b8 7d3e 83ed 0fbe
000000b0: d86b 2dbe e820 f13d 4727 5c3c d154 763e
000000c0: bc16 ad3c e561 933d 64da 783d 1cd4 383e
000000d0: 69c5 153e 6fd1 223d 6e64 183e 559e 87bc
000000e0: e68a 10bd 4d76 d0bc 2de3 cb3d 2cc3 e03d
000000f0: 954b 8cbe f913 9dbd 63cc 123c eca7 a0bd
00000100: 9a6a 733e 0bcb 873c 0e7c 7dbd 1343 03be
00000110: ba9e 91bd 2d8d 9abc fc6b 8c3d e0f8 633d
00000120: 51f6 4abd 159a c33e f5d6 9c3b 37eb d5bd
00000130: 12c0 133c 3cb6 afbe d5ae d13d 4b07 913d
00000140: f194 b03d bdc8 813e 7391 40be 2d8a 613e
00000150: bbfe 93bd c368 a53c 739b 7fbe 4605 cc3c
00000160: 59ba 1e3e 00aa 923d d8b5 69be 7b73 a3bd
00000170: e07d 0dbd 0600 9a3e e73c 1e3e 3c24 a83e
00000180: 0696 94be cb76 79bd 35c8 a9bd 80d0 a13e
00000190: 42a8 533e c769 be3d ce40 393d 77e6 6cbe
000001a0: 15d1 bfbc 6eec 4cbd 4a4e ea3c 8e91 8dbb
000001b0: 8779 953c 56c2 a6be 3899 6d3e da53 90bd
000001c0: bc7d 2bbe 7aac 97be ffc0 88bd fdb8 953d
000001d0: 04a8 4fbe 7193 adbe 488f 993c 7bad d43e
000001e0: 427d 43bd 7bfc b0bd 35d1 2cbc c831 853e
000001f0: 0608 423d ba4e 5b3e 3c4e 31be e899 1cbc
00000200: 4ba2 a33e bb93 ce3c 890a eb3e 18f4 ca3d
00000210: 749d 9abc 3b3f c5bd 13c7 acbc 3053 1c3e
00000220: e52c 203e 0e2f c9bc 8975 513e ae5b 15bd
00000230: e2cf b8bd 0862 aabc 24ff 47be 7e07 253e
00000240: 2589 e9bc e725 953d e717 543e ec52 023f
00000250: 7309 263c ef13 583b c13e 93bc 54e8 c23e
00000260: 0140 6d3d 6b04 b33c 8a9f a8bd 3fba 82bd
00000270: 23fb 06bd 6943 8a3d 5f1c 26be 2578 923e
00000280: 1db1 54be f3e5 3abe da9e 5b3e ee90 aabd
00000290: 6c57 fabd 871e f4bd 57a8 29be c498 a9bd
000002a0: 20f5 0ebe 9fc6 5a3e 621c 18be 93c2 2fbe
000002b0: b6b5 3b3c 0975 2a3e b456 a0bd ea01 dfbd
000002c0: 6a2c c43d bb6f 8b3d 71d0 f6bd af2e 853d
000002d0: abbb 8fbe 398f ab3e 2218 d53d 18ce 0e3e
000002e0: f16e b53d bb32 3c3e 1e3c 2dbe c6bd 9fbd
000002f0: 98e4 0a3e 3a27 d43d a632 9c3d da48 dd3d
00000300: c924 2e3e 7cca 853d 7109 263e 34b3 5d3d
00000310: 6a40 bb3d 6447 ffbd 12ec 303e 0f3c a5bb
00000320: af01 95bd d458 15bd 53d3 9e3d e971 893c
00000330: f55c 883d 38e9 763e f628 eebd 3041 97bd
00000340: aa7a 59bd 9c4a cbbd 944c 0bbe 7d00 58be
00000350: de7a 32be a8a5 393e 277e 1e3e 79da 2bbd
00000360: 2a9f bebd 21aa 0f3e 26a5 26be 126b 5abc
00000370: e88d 0e3e e426 6cbe 3b04 323d 3e6c ffbd
00000380: ef4e 773d 1ba2 803d d986 18be 5de8 0b3e
00000390: d092 12be 33f2 31bd 1e9d b73d 320f 763d
000003a0: 4c3a bc3d 7a2b 143d c3d1 74be 63ac 713d
000003b0: 7cfb acbd 02c4 6ebe b601 3cbe 8416 ff3d
000003c0: 4464 9cbd 5c18 85be 9d57 203e 30cf 7cbd
000003d0: e83d 303d 71ac d1bd c020 6abe 6636 debc
000003e0: 3a25 81bd 14e5 613e 269c 62be 3ead 70be
000003f0: fa00 5d3e e441 fd3d b8c3 34bd 8356 82bd
0.039123487 -0.17522629 0.24139802 -0.2568435 0.068399675 -0.06255634 0.040328827 0.24308932
0.026447902 0.08637217 -0.01664168 -0.044300426 -0.060772505 -0.046611153 0.23790324 -0.031989615
0.20510711 -0.1082572 -0.05614416 0.12314657 -0.09074066 -0.2260163 -0.09345656 0.09589223
0.25995353 -0.03996541 -0.042165495 -0.08487155 0.036023933 -0.07382245 0.053163968 -0.03709313
0.009856844 -0.0522529 0.03630775 0.24470478 0.011340849 0.0037912736 0.06736707 0.22561416
0.017131027 -0.15511063 0.24777344 -0.14055447 -0.1693567 0.117738545 0.013437099 0.24055792
0.021129005 0.07196406 0.06075515 0.18049663 0.14626087 0.039750513 0.14882061 -0.01655499
-0.035288714 -0.025447035 0.0995544 0.10974726 -0.27401415 -0.07669825 0.008959862 -0.078445286
0.23771134 0.01657631 -0.061885886 -0.12818556 -0.07110353 -0.018866146 0.06856534 0.055657268
-0.049551312 0.38203493 0.004786367 -0.10445254 0.009017961 -0.3431872 0.10238425 0.07081469
0.08622158 0.25348464 -0.18805484 0.22025366 -0.0722632 0.020191556 -0.24961643 0.024904858
0.15500773 0.07161331 -0.22823274 -0.079810105 -0.034543872 0.30078143 0.1545292 0.32840145
-0.2902071 -0.060904305 -0.082901396 0.31604385 0.20669654 0.09297519 0.04522782 -0.2313479
-0.023415128 -0.050030164 0.028601784 -0.00432033 0.018246425 -0.32570142 0.2320298 -0.070472434
-0.16747183 -0.29623777 -0.06677436 0.07310674 -0.20278937 -0.3390155 0.01874508 0.41538605
-0.047726877 -0.08641907 -0.010547926 0.26014543 0.047370933 0.2141675 -0.17315 -0.0095581785
0.31959757 0.025216928 0.45906475 0.099098384 -0.018873908 -0.09631201 -0.02109102 0.15266109
0.15642126 -0.02455857 0.20454992 -0.036464386 -0.090240255 -0.020798698 -0.19530922 0.1611614
-0.028507778 0.0728262 0.20712243 0.5090778 0.010134089 0.0032970866 -0.01797426 0.38067877
0.057922367 0.021852693 -0.08233555 -0.0638318 -0.032954346 0.06751139 -0.1622176 0.28607288
-0.20770688 -0.18251781 0.21447316 -0.083284244 -0.12223706 -0.11919885 -0.16568123 -0.08281091
-0.13960695 0.2136483 -0.14854577 -0.17164068 0.0114568975 0.16646208 -0.07829037 -0.10889037
0.09578784 0.0680842 -0.12051476 0.06503045 -0.28072867 0.33507708 0.104049936 0.13945806
0.08859051 0.18378727 -0.16917464 -0.07799868 0.13563764 0.103590444 0.07626848 0.10804911
0.1700622 0.065327615 0.16214539 0.05412598 0.091431454 -0.124647886 0.17277554 -0.00504256
-0.07275712 -0.036461666 0.07755151 0.01677795 0.06658355 0.24112403 -0.116289064 -0.073854804
-0.053095497 -0.0992634 -0.13603431 -0.21093936 -0.17429683 0.18129599 0.15477811 -0.0419564
-0.09307702 0.14029743 -0.16273937 -0.013331192 0.1392132 -0.2306171 0.043461066 -0.124718174
0.06037801 0.06280919 -0.1489519 0.13662858 -0.14313817 -0.04344387 0.089655146 0.060073085
0.09190807 0.036174275 -0.23908143 0.05900229 -0.08446404 -0.23316959 -0.18360028 0.124554664
-0.07636312 -0.25995147 0.15658422 -0.061721027 0.04302779 -0.10237969 -0.22864056 -0.027125549
-0.063059285 0.22060043 -0.22129878 -0.23503587 0.21582404 0.12366083 -0.044131964 -0.06364157

_logits._model.0.bias f4 [4]
00000000: a96e 463e d698 133d c0b5 593e 6296 cf3e
0.19378151 0.036034428 0.21260738 0.4054442

_hidden_layers.0._model.0.weight f4 [80, 13]
00000000: 8520 9d3f c6fc 43c0 2cb0 1140 a66c c3bd
00000010: d59d a53e 36c3 4e3c 8045 743d de3f 6c40
00000020: 8e2c 6dbf bfa0 23bf 28ae 9ac0 99cf 3fbf
00000030: 4d4a 0540 a91c 973f 48cb 3e3e 89e6 42c0
00000040: 3077 f2bf bf44 833e 5241 48c0 06d9 0dbf
00000050: ff29 6b3f f1c2 d9be 90f4 7e3e dc0e b03f
00000060: 7c75 3bbd f90e 05c0 a0b5 d4bf bccb f4be
00000070: 5d66 b3bf 69c2 b03e 524d 0a3f dcc2 243f
00000080: 31de df3f df45 0bbf 2fce 41bf a750 1b3f
00000090: c8af 963f 4861 ce3d c546 5d3e 0208 63bf
000000a0: fca2 25bf 2c3f 503f 9da0 1fbf 85c1 97be
000000b0: 8ee6 813f 2b69 5b3d 2f33 063f d792 13c0
000000c0: 588c febf b382 ef3f 55f1 04c0 e4d9 3dc0
000000d0: 6466 4abf 9ddb 52c0 4332 1bbf df02 fa3e
000000e0: 4739 e7be 6934 973f b430 8d3c ea32 ae40
000000f0: 2b9f 3840 4864 b13f 0329 e13f 571f 06bf
00000100: 8feb 553f c42f 693e 0df2 2d40 3e3c 1540
00000110: ea09 4a3e c095 8bbe 2d99 3abf f76d 20bf
00000120: 93ed 59c0 6579 0ebc c3dc 0e3f 2ff9 1140
00000130: 231a 0340 96d7 82c0 3cfc ca3e 3fb2 86bf
00000140: a324 2740 cdea 32be 9c06 093f ca02 523f
00000150: a18c 0b3e eb36 0740 3732 b13f 0beb 23c0
00000160: e9c6 20bf 01f1 67bf 0d0a 0240 3217 ba3d
00000170: 4c19 e03f adcf 0140 863a fd3f 1dff 3c3c
00000180: 1d05 043f f92c 3b3f 2f76 f6bf 1c46 c63f
00000190: d256 973b c895 6bbf a15f c1bf d00d 4140
000001a0: 9050 c13f f95b 92bf d422 c13f 3836 723e
000001b0: af70 a8bd cd21 4e3f d1e7 6abe 2b34 0340
000001c0: fe0b 73c0 040b 923e 8754 dfbd 91b4 8dbf
000001d0: 100b 153f 31b6 0f3f a9c6 e5be 2034 0f40
000001e0: 6e91 92c0 cb5d 553d 3691 c63d e497 893f
000001f0: d4f8 4440 e487 273f f629 353f e9c0 eb3f
00000200: a656 023f 57ed 6dc0 f492 b13f fb99 aa3f
00000210: b461 6f40 3cdf bfbf f4aa 9f3e 580a 8abf
00000220: 2e84 f2bd 4bfc 34be 671e 863f 35fa 983f
00000230: 878c 26bf cfde ebbe 2fde 5ec0 641d c13e
00000240: 5095 45c0 15cb d7bf f6e7 1ac0 21c7 3cbe
00000250: b550 b83e bf56 4bbe 6d5b d63f 6758 e9bf
00000260: 3392 33c0 573e 983e 6250 41bf 7014 0a3d
00000270: b72a b63f 1927 35bf 1580 f3bf 34fc eabf
00000280: 73e7 993e e5bf 18bf 01c0 b0bd a050 8c3f
00000290: 305d 0fc0 2ae5 643e 39f9 d43f fb56 39bf
000002a0: f1b3 b9bf 19c9 af3e b317 7a3f 2ff1 0b3f
000002b0: e71f abbe 96e9 9cbe 6171 803f 0299 833e
000002c0: 0bd7 95bf 8df2 cc3f c8a0 9b40 f058 af3c
000002d0: 3012 9bbf c110 51c0 2edc 0dbe 30e7 13bf
000002e0: 1f51 e1bf 087f 3ebf 6514 173e 9c77 23be
000002f0: 0ed0 27bf 248c 933f cd50 afc0 8f0d ca3e
00000300: 3602 07bf 927d 243e 2b8b c4bf 669d 4e3f
00000310: 8f1d bb3e e27f f7bf 57de 9c3f 384c bc3e
00000320: 1342 d7bf 5650 69bf 749b bb3f efe5 2ebf
00000330: d9e0 1e40 af81 3640 400f a83e 21f0 4cc0
00000340: aeaa 0cbf 3eb0 9b3f 5013 3d40 a8b5 8abf
00000350: 687e 9abe d98a 3940 d7f1 2d3e 536c 1cc0
00000360: fb00 6d3f 8b48 e7bf b2fa 9ebf 2185 1d3f
00000370: 63f2 0cbe ca2c 2ebe 6cc3 a73f 1ab7 2ac0
00000380: 0b82 5ebe e389 763e d1ad 8fbe b0bf cdbe
00000390: 155d a5bf 7a0a 35c0 9f96 5940 5157 2bbe
000003a0: 65df c3be a322 ee3e 77b4 65be 44d8 e4bf
000003b0: c54c 33c0 5bf6 c9bf 4797 cebd eeb2 e73e
000003c0: bc58 29bf 9d66 943d 37bc 0fc0 3bc6 0d40
000003d0: cc42 333f b578 223f b36e 323e 8214 35c0
000003e0: a2f4 30c0 9bff 023d 93b4 6940 afd8 a3be
000003f0: 2582 b3bf e4e4 dd3d ec2a 8640 1ec3 eebe
1.2275549 -3.062303 2.2763777 -0.095422074 0.3234698 0.012619784 0.059636593 3.6913981
-0.9264611 -0.63917154 -4.8337593 -0.74926144 2.08266 1.1805621 0.18632233 -3.0453207
-1.8942623 0.25638387 -3.1289868 -0.55409276 0.91860956 -0.4253154 0.2489798 1.3754535
-0.04576634 -2.0790389 -1.6617928 -0.47811687 -1.4015614 0.34523323 0.5402423 0.6435983
1.7489682 -0.5440349 -0.75705236 0.6066994 1.1772394 0.10077149 0.21609028 -0.88684094
-0.6470182 0.8134639 -0.6235445 -0.2963983 1.0148485 0.053567093 0.5242185 -2.3058374
-1.988658 1.8711761 -2.0772297 -2.966424 -0.79062486 -3.2946541 -0.6062357 0.48830315
-0.45160887 1.1812869 0.017235138 5.443715 2.8847148 1.3858728 1.7590641 -0.5239157
0.8356256 0.22772127 2.7178986 2.331802 0.19730344 -0.27262688 -0.7288998 -0.62667793
-3.4051254 -0.008695935 0.55805606 2.280834 2.0484703 -4.0888166 0.39645565 -1.0523146
2.6116111 -0.17472382 0.5352571 0.82035506 0.13627864 2.112727 1.3843449 -2.561221
-0.6280351 -0.9060212 2.0318635 0.090864554 1.750772 2.0283005 1.9783485 0.011535433
0.515703 0.731155 -1.9254817 1.5490146 0.004618504 -0.92025423 -1.5107309 3.016468
1.5102711 -1.1434318 1.5088754 0.23653495 -0.08224618 0.80520326 -0.22939993 2.050059
-3.797607 0.2852403 -0.10904794 -1.107073 0.58220005 0.5613738 -0.44878128 2.2375565
-4.5802526 0.0520914 0.096956655 1.0749478 3.0776873 0.6544173 0.7076715 1.8418247
0.50913465 -3.717611 1.3872972 1.3328241 3.7403383 -1.4990001 0.31185114 -1.0784407
-0.118416175 -0.17674367 1.0478028 1.1951357 -0.6505818 -0.46068427 -3.482311 0.37717736
-3.0872383 -1.6858851 -2.4204078 -0.18435337 0.35999075 -0.1985731 1.6746651 -1.8230103
-2.8057983 0.29735062 -0.7551328 0.033710897 1.4231786 -0.70762783 -1.9023463 -1.8358216
0.30059394 -0.5966781 -0.08630372 1.0962105 -2.2400627 0.22353044 1.6638557 -0.72398347
-1.4508039 0.34333113 0.9769241 0.5466489 -0.33422777 -0.30646962 1.00346 0.25702673
-1.1706251 1.6011521 4.8633766 0.021404713 -1.2114925 -3.2666476 -0.13853523 -0.5777464
-1.7602881 -0.74412584 0.14753874 -0.15963596 -0.6555184 1.1527143 -5.4786134 0.3946347
-0.5273775 0.16063526 -1.5354971 0.8070892 0.3654599 -1.9335902 1.2255353 0.367769
-1.6817039 -0.9113821 1.4656816 -0.683196 2.4824736 2.8516653 0.32824135 -3.2021563
-0.54947937 1.216316 2.9543037 -1.0836687 -0.30174565 2.8990996 0.16986786 -2.4441116
0.9257962 -1.8069013 -1.2420256 0.61531264 -0.13764338 -0.17009273 1.3106513 -2.6674256
-0.21729295 0.24076037 -0.280623 -0.40185308 -1.2919031 -2.8287644 3.3998182 -0.16732527
-0.38256374 0.465108 -0.22432123 -1.7878499 -2.8015606 -1.5778307 -0.100874476 0.452537
-0.6615102 0.072461344 -2.2458627 2.215224 0.700238 0.63465434 0.17425041 -2.8293767
-2.7649312 0.031982046 3.6516464 -0.32001254 -1.4024092 0.10834673 4.1927395 -0.46633238

_hidden_layers.0._model.0.bias f4 [80]
00000000: dd77 34c0 a9f6 073f 4e54 8dbe 61b7 4fbe
00000010: fb56 5fc0 a50d 2640 79f3 5cbf 82e2 e93f
00000020: 1aeb 0cbf 19b3 09bf 8bfc a83f c455 28c0
00000030: f2c6 f3be 2a73 393f a6b9 76bf 6a7a ff3e
00000040: bcd0 d33f 61a9 9d3f 483e eebf 6f19 37c0
00000050: bd1c 25c0 2ada 2fc0 5dd8 46bf 0d43 893f
00000060: e78c c5bf 65a8 53c0 cf22 eebe 2688 233f
00000070: 00e5 513f febc 373f 8b68 63bf e4c7 903f
00000080: a8ae fc3f 5466 f83f 90ca ed3e 5b0d dc3f
00000090: c55a 6cbf 3d70 23bf 2161 85bf 29bc 8e3e
000000a0: 321d c7be 2e83 4fc0 f214 253f 936a 2b3e
000000b0: f632 b1bf db9c 86bf 7eb3 bb3f 51ed a83f
000000c0: 07fd 423f fe62 87bf 0f6f a9bf 8ea4 d93f
000000d0: 35ca 363f 379b 7e3f 9998 9a3e dbf1 ce3f
000000e0: 2f83 973f dabe a6be 1bf4 00c0 94ef 1540
000000f0: 3e07 3d40 11de acbf 9b82 4240 179c 90bf
00000100: 3f74 183f bcbb 56c0 49a5 bf3f 66c1 3c40
00000110: 0f45 49c0 0386 5cbe e277 f2bf 02a7 5f3f
00000120: 68a4 1cc0 1d4d f2bc 139a b0be 2a59 97bf
00000130: 5bc3 5d3f 263b 8f3f 2577 07c0 8b16 c5bd
-2.8198159 0.5311075 -0.27603382 -0.20284797 -3.4896839 2.5945828 -0.8630901 1.827225
-0.55046237 -0.53788906 1.320207 -2.6302347 -0.4761272 0.7244135 -0.9637703 0.49898082
1.6548076 1.2317315 -1.8612757 -2.8609273 -2.579879 -2.7476907 -0.77673894 1.0723587
-1.5433625 -3.307153 -0.46510932 0.6387962 0.8199005 0.71772754 -0.88831395 1.1311002
1.9740801 1.9406228 0.46443605 1.7191576 -0.92326003 -0.6384314 -1.0420266 0.2787793
-0.38889462 -3.2423816 0.64485085 0.16739874 -1.3843677 -1.0516618 1.4664152 1.3197423
0.7616734 -1.0577085 -1.3237017 1.7003343 0.71402293 0.9945559 0.30194548 1.6167558
1.1836909 -0.32567483 -2.014899 2.3427477 2.953567 -1.3505269 3.0392215 -1.1297635
0.5955238 -3.3552084 1.4972316 2.949304 -3.14484 -0.21535496 -1.8942835 0.8736421
-2.4475346 -0.029577786 -0.3449255 -1.1824086 0.86626214 1.1189926 -2.116647 -0.0962344

_hidden_layers.1._model.0.weight f4 [80, 80]
00000000: 0863 8a3e 7628 dc3f ba59 17bf 14da 9abd
00000010: a12f babe fdc0 833f 1f3b 803f 967b 763e
00000020: 44bc 5b3f 78e0 b93f 28cd 54bd 423a 3940
00000030: 6f11 243f 2adf 17bf 8f90 98be da47 c93f
00000040: 60bf b6be 1ce6 02bf 7b83 373e ecc6 1ebe
00000050: 45a5 33bf 03f5 473f 4489 4dbf 5ee9 16be
00000060: b441 ba3e b628 a6bf d5e4 683e bd96 85bc
00000070: d176 0fbf 256f 9bbf d2a2 f03e dc00 b8be
00000080: 7830 48be 0d2f bdbf 0bf4 953f 54c8 d13e
00000090: 7e8f f63e e0a8 4ebf f55f b73f be51 76bf
000000a0: 717d 0abc 80bd 6dbf d139 93bf e0c5 d8bf
000000b0: 6630 74bc 307d 53c0 d5ed 33bf c6d3 d43f
000000c0: 7bdb 0a3f 2c47 e43e 18b0 a0bf 7d95 9b3f
000000d0: 544f 573e f79e a4bf 1911 acbf 7312 f7bc
000000e0: e538 91be fb35 6b40 8b7c 6d3e 8e15 ad3f
000000f0: af1a 1fbf 8b55 f63d ebd8 c4be cfd3 abbd
00000100: 1787 05c0 af23 b4bf 0d5c 0940 0f95 1c40
00000110: 58ba 21bf 3683 043f d43a 523e 0def adbf
00000120: 0305 143f 5337 64bf 7966 403d 1775 5c3f
00000130: d707 8dbf f4a1 093e 2988 b53d 43be 44bf
00000140: 3787 923f c306 04bf b61d d4bf 3585 393e
00000150: 6a62 ecbe 3c25 173f 936f 1d3f 739e 823f
00000160: e508 e53e a161 323f fb35 aebe ddc7 b8be
00000170: bedc 953f e051 ea3f 689d 0cbf bf6f 7ebe
00000180: 56fd 6a3f 4d44 c7bf fc04 96bf 1c94 d13e
00000190: 651f fbbe 9e32 58bf f0c8 e4bd e874 83bf
000001a0: abec f2be 7477 0740 8257 f7be f684 ee3e
000001b0: 96bd 29bf 74c9 9f3f d47b 643f 9cb8 723e
000001c0: d8d0 b3bf e890 0bbf d834 c6be 3784 b03e
000001d0: 17d0 9c3e 556e 05bf a957 9fbe b130 debe
000001e0: 496f c4be 6745 42bf 7171 153f b180 21bf
000001f0: 4260 46bf 4226 823f 3189 b4bc ae55 c23e
00000200: 4e30 e93e a804 053e 14ae e83e 3381 203e
00000210: d79a f53e 6df3 17c0 6e98 0940 807b 9abe
00000220: 1928 aabe a3e1 ad3f 841b cb3c 2e48 4abf
00000230: 5274 16bf 535f eebc 3413 a3bf 8523 693f
00000240: 0e6c ffbe e7ef 963e 34b3 963d 3968 c4be
00000250: 5aeb 3340 2f0d 5abf 2516 fa3e 8691 5abf
00000260: a590 29bf c930 2fbf 3f23 fcbe 2129 debe
00000270: 6bf0 153e a016 48bf f784 a33e aac4 f1be
00000280: 09eb df3e e241 07bd bbc8 1bbf 0a4b 043f
00000290: 8ef1 7c3f 8f21 9ebe 4af3 b1bf 6c27 9dbf
000002a0: c715 d6bd a1b3 36bf cf81 493f 9b7b 313e
000002b0: 4870 b0bf b240 89bf 619c c53e 6738 a13e
000002c0: 39c7 c2bd 8342 913f a1dd 893e 3ae8 28bf
000002d0: dad0 7a3f 7122 bc3e d091 d03e 17a2 9ebd
000002e0: ff7d 473f 106b 58bf 803c dabd 2ac2 15c0
000002f0: 3f8f c93f e259 cbbf 9099 fcbe e6fb 0ebe
00000300: a30d 82bd 68a8 0c3f 6c4e 483f a814 bd3f
00000310: a344 b0be 57a0 333f 556e c03f 3176 ec3e
00000320: bb9b 4dbd f50a 7a3d 79af 21bf d754 bc3f
00000330: d402 1d3b 8a23 a5bf 7f18 863f 0160 89bf
00000340: 836d 01bf 749f 7a3f 7108 bf3f 75ab 0f3f
00000350: 248e d93f 54bd a23d 6778 613d 9850 ea3f
00000360: c406 573f 593d 67be 7b89 3abf b998 58bd
00000370: 7b18 ab3e 8867 ea3c bc0c c13b ad07 473d
00000380: 398c 78bf 69fc dcbe 8925 cdbd de50 7d3f
00000390: fd8f f2bf 3c17 6ebd 3147 79be 9ae1 683f
000003a0: c60b 163f 88c0 8b3e bebf aabe 1766 c4be
000003b0: 58c8 b83f 1ec1 02bf 3815 82bd 0dec 58bf
000003c0: 3e48 7d3f 95ab a9bc 68f6 51bf db79 5b3f
000003d0: 26bd 793f e5b4 acbf 1b6c 823d 2a1d 16bf
000003e0: b5b2 83bf adab d8bc 4586 bf3e 58f8 aa3e
000003f0: 7dfb ca3f 443d ccbe 9f3f a93f d2dc d83f
0.2702868 1.7199848 -0.59121287 -0.07561126 -0.36364463 1.029327 1.0018042 0.24070582
0.85834146 1.4521627 -0.051953465 2.8941808 0.640891 -0.59324896 -0.2979779 1.5725052
-0.35692883 -0.5113237 0.1792125 -0.1550557 -0.70174056 0.78108233 -0.80287576 -0.1473746
0.36378253 -1.2981174 0.22743542 -0.01630723 -0.56040674 -1.2143294 0.46999222 -0.35938156
-0.1954974 -1.4779984 1.1715101 0.4097315 0.4815635 -0.8072643 1.4326159 -0.9621848
-0.008452759 -0.9286728 -1.1502019 -1.6935387 -0.014904117 -3.3045158 -0.7028478 1.6627128
0.5424115 0.4458555 -1.255374 1.2154995 0.21026355 -1.2861012 -1.3442718 -0.030160164
-0.2836372 3.6751697 0.2319204 1.3522203 -0.6215009 0.12028035 -0.38446745 -0.08390009
-2.0863702 -1.407339 2.1462433 2.4465978 -0.63174963 0.5176271 0.20530254 -1.3588578
0.5782015 -0.8914692 0.046972726 0.86116165 -1.1018018 0.13440686 0.08863861 -0.76852816
1.1447514 -0.5157282 -1.6571567 0.1811722 -0.46168834 0.5904119 0.61498374 1.0204605
0.44733348 0.6968022 -0.3402556 -0.36089984 1.170799 1.8306236 -0.5492768 -0.24847315
0.9179281 -1.5567719 -1.1720271 0.4093331 -0.4904739 -0.84452236 -0.11171138 -1.0270052
-0.47446188 2.1166658 -0.4830895 0.46585816 -0.6630491 1.2483354 0.89251447 0.23703235
-1.4048109 -0.54517984 -0.38712192 0.34475872 0.3062751 -0.5212148 -0.31121567 -0.43396524
-0.38366154 -0.7588715 0.5837622 -0.6308699 -0.7749063 1.0167925 -0.022038074 0.37955993
0.45544666 0.12990057 0.4544531 0.15674286 0.47969696 -2.3742325 2.1499286 -0.30172348
-0.33233717 1.3584484 0.024793394 -0.7901639 -0.5877124 -0.029098189 -1.2740235 0.91069824
-0.49887127 0.29479906 0.07358399 -0.38360766 2.8112397 -0.85176367 0.4884502 -0.853783
-0.66236335 -0.68433815 -0.4924564 -0.43390754 0.14642493 -0.78159523 0.31937382 -0.47220355
0.43734005 -0.033021815 -0.60853165 0.51677 0.98806083 -0.30884978 -1.3902371 -1.2277656
-0.104533724 -0.7136784 0.787137 0.17332308 -1.3784266 -1.0722868 0.3859587 0.31488344
-0.09510655 1.1348423 0.26926902 -0.6597935 0.9797493 0.36745027 0.40736246 -0.0774576
0.7792663 -0.84538364 -0.10656071 -2.3399758 1.574684 -1.5886805 -0.4933591 -0.13963279
-0.06350257 0.5494447 0.7824466 1.4771929 -0.34427366 0.70166534 1.5033671 0.46183923
-0.050197344 0.061045606 -0.63158375 1.4713391 0.0023957985 -1.2901471 1.0476226 -1.0732423
-0.50557727 0.97899556 1.4924451 0.56121 1.6996503 0.07946268 0.055046465 1.8305845
0.839947 -0.22581996 -0.7286603 -0.052880023 0.33417115 0.02861382 0.0058914106 0.048591305
-0.9708896 -0.43161324 -0.10016925 0.9895152 -1.8950192 -0.058127627 -0.24343564 0.9096924
0.58611715 0.27295327 -0.33349413 -0.38359138 1.443614 -0.51075923 -0.063517034 -0.84735185
0.9893836 -0.0207117 -0.8201661 0.8573281 0.9755424 -1.3492705 0.06368276 -0.5863825
-1.0288912 -0.026449049 0.37407127 0.33392596 1.5857998 -0.39890492 1.3222541 1.6942389

_hidden_layers.1._model.0.bias f4 [80]
00000000: 2382 273f 8941 b8c0 a645 c540 313b 49c0
00000010: d043 84c0 ed13 36c0 3bc1 a5c0 c926 c9bf
00000020: d685 61c0 d7fc 2340 7b46 0dc0 9bfa 91c0
00000030: 03f1 4e40 6ff0 9cbf 8b75 933f 5383 7ec0
00000040: fd2a 02be f0c2 d540 ef1a 96bf 78b4 9cc0
00000050: 63c6 5fc0 3ed8 2940 67fa 5840 d7b6 3940
00000060: 35f4 c83d f1d6 7b40 4216 913f eb7d a2c0
00000070: 267e 92bf 1924 fbbf 393b b4bf 2488 ff3f
00000080: 2e7f 5c40 e2fa 4940 675e 7a40 26db bbbf
00000090: 4a8b c040 9f8b 8fc0 1596 3340 b9da 25c0
000000a0: abe4 55c0 2d78 25c0 3403 933e 068e c3bf
000000b0: 8abf 8f3f c0c0 8a40 0014 a4c0 db8a a3c0
000000c0: 824b b6c0 bcc3 b4c0 02ed 7abe 5a90 55c0
000000d0: 3d11 a5be deed c040 4861 be40 6300 07bf
000000e0: 5c9d 6fc0 538e 6f40 3e1c aec0 0aac eabf
000000f0: d08f a83f b4df 8bc0 702c 2540 63ee 4ec0
00000100: 0308 3140 63b7 a83e 2c3f c3c0 a9f7 a1bf
00000110: 680d 79c0 5256 26c0 2205 aa40 49fe 7640
00000120: c9eb aa40 4c24 8440 127d 3ac0 8707 b8c0
00000130: 9307 fdbf 82d7 86c0 0b58 ffc0 9e76 8440
0.6543295 -5.758 6.164752 -3.1442378 -4.133278 -2.8449662 -5.1798377 -1.5714961
-3.5237937 2.5623071 -2.2074268 -4.5618415 3.2334602 -1.2260875 1.1520246 -3.9767654
-0.12711711 6.680046 -1.172697 -4.89703 -3.4964836 2.6538234 3.3902833 2.9017847
0.09812204 3.934994 1.1334918 -5.077871 -1.1444747 -1.9620391 -1.4080573 1.9963422
3.4452624 3.1559377 3.9120119 -1.4676254 6.017003 -4.4857936 2.8060353 -2.5914748
-3.3420818 -2.58546 0.2871338 -1.5277717 1.1230328 4.336029 -5.1274414 -5.1107
-5.6967173 -5.6488934 -0.24504474 -3.3369355 -0.32239714 6.0290365 5.949375 -0.52734965
-3.7439795 3.7430618 -5.4409475 -1.8333752 1.3168888 -4.3710575 2.5808372 -3.2333
2.766114 0.32952413 -6.1014614 -1.2653705 -3.8914433 -2.5990186 5.3131266 3.8592703
5.3412824 4.129431 -2.9138837 -5.750919 -1.9767936 -4.213807 -7.9794974 4.1394796
