rllib/models/old/PurplePlayer.onnx (onnx, 34035 bytes, 6 tensors)

_logits._model.0.weight f4 [4, 80]
-0.0020617777 -0.0004977971 -9.597593e-06 0.081736885 -0.0036168448 0.12277308 0.0040156203 0.09152573
0.0013807521 0.001775475 -0.0019569078 0.0011901917 0.00030296468 0.054023378 -0.15288052 0.0009402476
-0.0019822603 0.22984128 0.25130925 -0.21976012 0.014808786 -0.002280959 -0.0010802243 -0.0031255838
0.0016236395 -0.067844056 -0.003347046 -0.0015387941 0.00553801 -0.1417492 0.0022961923 -0.10608246
-0.16684139 0.0006950487 -0.0012231431 -0.0030451028 0.0025061248 -0.009643035 0.0055382163 -0.003966082
-0.00025841204 0.004467904 -0.12745917 0.007867795 -0.08646824 0.0051647094 -5.4033785e-06 -0.13650882
-0.03421623 0.039043084 -0.002442077 0.01954686 -0.0008857762 0.0014030016 -0.0035163823 -0.15069708
0.034259938 0.05314364 0.03028966 0.0061194636 0.0033087975 0.26923615 -0.06448403 -0.056780934
0.0671984 0.16963902 -0.0022321045 0.109113805 -0.0007214726 -0.0020633705 -0.19142506 -0.003149618
0.22993428 0.19167328 0.032732565 0.0002468402 -0.053123407 0.00031011458 -0.0056172865 0.0012564291
0.0038789795 -0.0009398198 -0.0007680795 -0.11311761 0.0021525435 -0.16183048 0.00060532853 0.08790348
0.0017777473 0.0023305968 -0.00669075 -0.00041882863 0.0021093786 -0.20436974 -0.14849646 0.0020853214
0.002108876 0.0818796 -0.17756325 -0.025537796 0.15288961 0.0032718873 0.0021197556 -0.0040738205
0.0047615757 0.00394956 -0.0019170718 -7.4630276e-05 0.00030016142 -0.08989491 0.005881271 -0.056960538
0.11951772 0.005571322 -0.0057318346 -0.005262065 -0.003001772 -0.005282564 -0.0046541076 -0.0019173747
-0.0012698047 -0.003216678 -0.20600617 0.15618618 0.060756285 0.16829051 0.0034578904 0.13477726
0.102230385 -0.11211948 -0.00048009754 0.053535797 0.0021818634 -0.0036585473 0.00018715454 -0.13469687
-0.0154746715 0.11167992 -0.14542122 -0.3034237 0.000902372 0.116760686 -0.19154823 0.025433201
0.11004639 0.045005172 0.0029967278 0.035950374 -0.00046836908 0.006752148 0.08592102 0.0042681545
0.15826671 -0.21094 -0.20039204 0.0040810616 0.12613668 0.0028480876 0.0013093821 0.0003006014
0.002131056 0.00468715 0.00089646754 -0.10423407 8.241065e-05 0.23753028 0.0003711488 0.062742785
0.00069072936 0.0018248693 -0.0016476572 0.007057732 -0.0026088005 -0.057982344 0.009285909 -0.004516022
-0.0042879274 -0.1538205 -0.011273304 0.041498173 0.12510714 0.0023017966 0.0017605425 -0.00092532457
0.0022047607 0.11290416 -0.00070059724 5.217319e-05 0.0018785109 0.024173602 0.0025532108 0.004102361
-0.07334384 0.0025536772 -0.0021301112 0.0046739215 0.004098705 0.1567456 0.004178229 -0.000983254
0.0043895966 0.00014749395 -0.031404827 -0.23365806 0.010009083 -0.079820596 -0.0035092533 -0.09852735
-0.009715874 -0.07497314 -0.0031532247 0.045072764 -0.0036801903 -8.364994e-05 -0.0012458408 -0.07939386
0.18319458 0.20939746 0.0013681492 -0.18048516 0.0032990966 0.005544955 -0.0014210625 -0.11119572
0.11228656 -0.13306113 -0.00012868881 -0.09259964 0.0063203517 -0.00019679464 -0.20129277 -0.0014814688
0.14948836 0.048477534 0.0367106 -0.0015489465 -0.03817344 0.0014727 -0.0045692027 -0.0030665107
0.003865947 0.0029006705 0.0023892259 0.07951786 -0.0029517985 -0.003990281 0.0009948063 -0.11370319
-0.00095998397 0.008189156 -0.004502976 0.0037017975 0.0067885458 -0.030689178 0.14060117 0.0043907827
00000000: e41e 07bb 997e 02ba 5905 21b7 ab65 a73d
00000010: 9608 6dbb 7470 fb3d 7795 833b d871 bb3d
00000020: 5afa b43a 0eb7 e83a 773f 00bb 3500 9c3a
00000030: 3bd7 9e39 9e47 5d3d b68c 1cbe f37a 763a
00000040: cfe8 01bb 835b 6b3e 9bab 803e cc08 61be
00000050: 8da0 723c 247c 15bb 5096 8dba 98d6 4cbb
00000060: 4dd0 d43a d3f1 8abd 1d5a 5bbb 5db1 c9ba
00000070: 3278 b53b b426 11be b77b 163b c341 d9bd
00000080: 78d8 2abe ee33 363a df51 a0ba 5990 47bb
00000090: cc3d 243b d2fd 1dbc ed79 b53b e8f5 81bb
000000a0: 7a7b 87b9 7f67 923b a884 02be ede7 003c
000000b0: 4316 b1bd b93c a93b ab4e b5b6 f8c8 0bbe
000000c0: 5126 0cbd a4eb 1f3d 410b 20bb bd20 a03c
000000d0: 6f33 68ba ece4 b73a 1b73 66bb 5650 1abe
000000e0: 2654 0c3d 25ad 593d 0522 f83c c885 c83b
000000f0: 69d8 583b 52d9 893e 3410 84bd 2093 68bd
00000100: 519f 893d dab5 2d3e 8048 12bb 0f77 df3d
00000110: 3521 3dba 9d39 07bb ee04 44be d269 4ebb
00000120: e473 6b3e 0046 443e 9512 063d 556a 8139
00000130: ee97 59bd e096 a239 3711 b8bb c4ae a43a
00000140: 7a36 7e3b 3d5e 76ba f158 49ba 35aa e7bd
00000150: b011 0d3b e4b6 25be e9ae 1e3a bd06 b43d
00000160: 4d03 e93a edbc 183b 143e dbbb 3a96 dbb9
00000170: 803d 0a3b 4d46 51be 750f 18be e3a9 083b
00000180: 1135 0a3b 7eb0 a73d 24d3 35be a434 d1bc
00000190: 188f 1c3e 296d 563b 99eb 0a3b af7d 85bb
000001a0: fe06 9c3b 506b 813b 4146 fbba d382 9cb8
000001b0: fc5e 9d39 d31a b8bd adb7 c03b 744f 69bd
000001c0: b5c5 f43d a38f b63b 1dd2 bbbb 676d acbb
000001d0: 61b9 44bb 5c19 adbb 7c81 98bb 6b50 fbba
000001e0: 936f a6ba e7ce 52bb 48f3 52be 45ef 1f3e
000001f0: 95db 783d 5954 2c3e c69d 623b 0d03 0a3e
00000200: 2a5e d13d e69e e5bd 9ab5 fbb9 5a48 5b3d
00000210: 98fd 0e3b 3dc4 6fbb ea3e 4439 faed 09be
00000220: 7a89 7dbc 71b8 e43d 4de9 14be 5a5a 9bbe
00000230: 298d 6c3a 3a20 ef3d 3825 44be 4a59 d03c
00000240: 0060 e13d 5857 383d c064 443b b340 133d
00000250: 6f8f f5b9 1f41 dd3b 5cf7 af3d e0db 8b3b
00000260: ab10 223e a800 58be 9233 4dbe 6dba 853b
00000270: f929 013e fba6 3a3b 939f ab3a 099a 9d39
00000280: 30a9 0b3b aa96 993b eb00 6b3a ac78 d5bd
00000290: e1d3 ac38 233b 733e c096 c239 4a7f 803d
000002a0: 1012 353a 7430 ef3a 34f6 d7ba 8c44 e73b
000002b0: 69f8 2abb e57e 6dbd ed23 183c 23fb 93bb
000002c0: be81 8cbb 1f83 1dbe aab3 38bc fdf9 293d
000002d0: 161c 003e bdd9 163b 01c2 e63a 7b91 72ba
000002e0: bf7d 103b 4c3a e73d 49a8 37ba 89d4 5a38
000002f0: 5e38 f63a b807 c63c c553 273b 196d 863b
00000300: 4c35 96bd 985b 273b 5699 0bbb b227 993b
00000310: 6e4e 863b eb81 203e 86e9 883b 88e0 80ba
00000320: 9bd6 8f3b 9ba8 1a39 59a2 00bd 0f44 6fbe
00000330: 23fd 233c fb78 a3bd 80fb 65bb b5c8 c9bd
00000340: 542f 1fbc 858b 99bd 55a6 4ebb 389e 383d
00000350: 592f 71bb 386d afb8 7b4b a3ba 4099 a2bd
00000360: 5c97 3b3e 4a6c 563e 7853 b33a 1ad1 38be
00000370: a835 583b 74b2 b53b f242 baba 95ba e3bd
00000380: 7ff6 e53d 2d41 08be a4f0 06b9 e1a4 bdbd
00000390: f41a cf3b a95a 4eb9 b11f 4ebe d82d c2ba
000003a0: 7a13 193e 6190 463d db5d 163d 0506 cbba
000003b0: c15b 1cbd 9d07 c13a 40b9 95bb 83f7 48bb
000003c0: d45b 7d3b 2d19 3e3b 8f94 1c3b 43da a23d
000003d0: f672 41bb e7c0 82bb 2964 823a 38dd e8bd
000003e0: 6fa7 7bba cf2b 063c b38d 93bb db99 723b
000003f0: 7372 de3b df67 fbbc c1f9 0f3e 8ee0 8f3b

_logits._model.0.bias f4 [4]
-0.16662635 0.055226263 -0.03460989 -0.028284594
00000000: 19a0 2abe ef34 623d 1ac3 0dbd 18b5 e7bc

_hidden_layers.0._model.0.weight f4 [80, 13]
-0.16497251 -0.25544268 0.0031771844 0.2883821 0.13073942 0.56005204 -0.5372155 -0.46323
-0.57193005 -0.17299 -0.7566061 0.6563901 0.05809676 0.28562564 -0.66622734 0.80210185
-0.11719806 0.26363245 0.5883496 0.29910082 0.2417201 0.44639906 -0.5901106 0.44250688
0.22648057 0.085092016 0.24558306 -0.88045806 1.193592 0.23539254 -0.10554831 -0.19069654
-0.17460178 0.4604594 0.26606116 -0.2687389 -0.31839022 0.42429203 0.3489466 0.22469275
-1.7880424 -0.24686663 -0.39082533 0.1815058 -0.007801577 -0.28339845 2.0401719 0.42912877
0.16098638 0.31922773 -0.17169684 -0.6405575 -0.006876197 -1.3493874 -0.22918825 -0.026520014
-0.18725194 -0.24413659 0.6673335 0.17576563 0.36390203 -0.5649568 -1.5470945 -0.4769386
-1.1157206 0.46171877 0.0031088043 -0.15917498 0.30573127 -0.26043612 -0.663282 0.72287714
0.03592195 -0.038122058 -0.82469594 0.012531315 0.023924867 -0.34082782 -0.047047507 -1.3398196
0.34993997 -0.28066283 0.0442592 0.57916397 -0.318666 0.52333325 -0.18264443 -0.64606446
-1.7278489 -0.20938742 -1.1866372 0.21371272 2.0826397 0.28158668 0.5948073 -0.17265183
0.25519308 0.25652418 -1.1928532 0.020344581 0.8720712 -1.6810992 -0.13175978 -0.68176895
0.029604072 -0.14498164 0.40799332 -0.7785737 0.29845294 -0.5297661 0.10744927 0.5113591
0.24100502 -1.278647 1.2818593 -0.5825564 0.3079839 0.027573552 0.23916899 -0.39295495
0.24132283 -0.508209 1.1973482 -0.43450743 -0.12944949 -0.332013 0.2660944 0.05990274
0.14988686 -0.98509634 0.24432068 0.6393119 0.14756125 0.08899904 0.072291814 -0.31270432
0.39266366 -0.90219647 1.3373922 0.275196 0.84132606 -0.13893567 -0.53608465 0.71473086
0.18144514 0.13295595 0.107749976 0.44662386 0.4996864 0.06185433 0.3774242 -0.8194176
-0.27886924 1.8859257 0.40617236 -0.97178876 -0.13173088 0.09708507 -0.3232397 -0.67887664
-0.1993269 -0.4288889 0.47889736 0.1077099 0.6515971 -0.20386474 -0.6401467 -0.68974406
-0.68172294 -0.42200056 0.7909471 -0.43057466 0.05055709 0.12701136 0.24959809 0.26212764
-0.19448075 0.42952478 -0.01897124 0.034042846 0.5679322 -1.6025687 -0.35613948 1.0232848
-0.6238505 -0.029401278 -0.27681077 0.45125836 0.06590481 -1.3131944 -0.6142965 -0.1735266
-2.379416 0.3219085 -1.0171506 0.26815557 -0.888869 -0.6359861 -0.13537927 0.25027204
-0.7014299 -0.14842522 0.42320043 -0.9325126 0.050718423 -0.07058316 -0.3191212 -0.94887775
0.5327476 -0.11105949 -0.5807747 -0.63109136 -0.12372117 0.25917113 -0.36717334 -0.8235297
-0.31121883 0.073435225 0.56150913 0.3974664 0.293266 -0.32158926 -0.90467393 -0.08133601
-0.16404559 -0.2306884 -0.3576133 0.56723315 0.04196093 0.7961731 0.112044975 -0.16406846
0.33887693 0.9914828 0.9236968 0.16492753 0.097955965 0.027757905 -0.1837589 0.31939545
-0.43703675 -0.41639405 -0.18425731 0.4059299 -0.090865344 0.25900167 1.6624119 0.39225596
1.0001727 0.16801198 0.59495723 -0.28383398 -0.57258594 -0.19337799 -0.4581563 -0.113736704
00000000: 8eee 28be 62c9 82be 4f38 503b d2a6 933e
00000010: 8ee0 053e 925f 0f3f f486 09bf 7c2c edbe
00000020: 026a 12bf 4a24 31be f0b0 41bf 2e09 283f
00000030: def6 6d3d 863d 923e e08d 2abf 8c56 4d3f
00000040: 8905 f0bd d5fa 863e 149e 163f be23 993e
00000050: 7985 773e 6b8e e43e 7d11 17bf 4390 e23e
00000060: 86ea 673e b944 ae3d 207a 7b3e b365 61bf
00000070: 9fc7 983f be0a 713e b629 d8bd f445 43be
00000080: cfca 32be 56c1 eb3e 2b39 883e 2598 89be
00000090: 0b04 a3be ce3c d93e 21a9 b23e db15 663e
000000a0: 93de e4bf 9bca 7cbe 421a c8be a8dc 393e
000000b0: 5fa4 ffbb 9a19 91be 2d92 0240 c4b6 db3e
000000c0: 9dd9 243e d171 a33e 4cd1 2fbe 94fb 23bf
000000d0: b951 e1bb bab8 acbf 53b0 6abe 8040 d9bc
000000e0: f9be 3fbe f1fe 79be 5ed6 2a3f e8fb 333e
000000f0: 5e51 ba3e 02a1 10bf 3107 c6bf 4c31 f4be
00000100: efcf 8ebf 6766 ec3e 15bd 4b3b c4fe 22be
00000110: cf88 9c3e e257 85be d9cc 29bf 7a0e 393f
00000120: e522 133d e025 1cbd 461f 53bf 2550 4d3c
00000130: 15fe c33c fc80 aebe e3b4 40bd 357f abbf
00000140: 552b b33e 0ab3 8fbe 2349 353d 1744 143f
00000150: 3128 a3be 2bf9 053f 2407 3bbe 7b64 25bf
00000160: 272a ddbf a869 56be bae3 97bf 82d7 5a3e
00000170: f849 0540 212c 903e 4b45 183f a4cb 30be
00000180: aba8 823e 2357 833e 6aaf 98bf aea9 a63c
00000190: 0f40 5f3f 422e d7bf 09ec 06be 6988 2ebf
000001a0: 3d84 f23c 1176 14be 80e4 d03e 9b50 47bf
000001b0: d3ce 983e c09e 07bf 5d0e dc3d 6ee8 023f
000001c0: 05ca 763e b4aa a3bf f713 a43f 6b22 15bf
000001d0: 11b0 9d3e eee1 e13c b7e8 743e 6431 c9be
000001e0: 551d 773e fc19 02bf b542 993f c277 debe
000001f0: 688e 04be 9cfd a9be 863d 883e 935c 753d
00000200: f17b 193e 462f 7cbf 332f 7a3e f2a9 233f
00000210: 4c1a 173e 2145 b63d bb0d 943d c81a a0be
00000220: 360b c93e 59f6 66bf ab2f ab3f 7de6 8c3e
00000230: 2561 573f 2745 0ebe d83c 09bf 9af8 363f
00000240: c1cc 393e 9b25 083e 05ac dc3d e2ab e43e
00000250: e5d6 ff3e f75a 7d3d bf3d c13e 5ac5 51bf
00000260: f3c7 8ebe 0366 f13f d3f5 cf3e 26c7 78bf
00000270: 76e4 06be 8ad4 c63d ad7f a5be dcca 2dbf
00000280: 5a1c 4cbe 5397 dbbe 0932 f53e 0297 dc3d
00000290: 11cf 263f ebc1 50be a7e0 23bf 1193 30bf
000002a0: 6585 2ebf 7510 d8be 827b 4a3f 4874 dcbe
000002b0: f414 4f3d 440f 023e a496 7f3e 9835 863e
000002c0: f625 47be acea db3e 9369 9bbc 8370 0b3d
000002d0: 0164 113f f920 cdbf ea57 b6be fffa 823f
000002e0: abb4 1fbf f3da f0bc 24ba 8dbe 560b e73e
000002f0: 1af9 863d c116 a8bf 8942 1dbf f5b0 31be
00000300: 5a48 18c0 31d1 a43e fe31 82bf b04b 893e
00000310: eb8c 63bf fccf 22bf dda0 0abe a823 803e
00000320: e990 33bf c8fc 17be baad d83e 25b9 6ebf
00000330: 1fbe 4f3d e78d 90bd db63 a3be a7e9 72bf
00000340: 2662 083f 2873 e3bd a7ad 14bf 348f 21bf
00000350: 8661 fdbd 14b2 843e 25fe bbbe d8d2 52bf
00000360: 1358 9fbe 3565 963d 10bf 0f3f b780 cb3e
00000370: f626 963e 59a7 a4be b698 67bf 7e93 a6bd
00000380: 91fb 27be 9439 6cbe 1719 b7be 3136 113f
00000390: 39df 2b3d 00d2 4b3f d677 e53d 9001 28be
000003a0: 4781 ad3e d1d1 7d3f 6577 6c3f c3e2 283e
000003b0: 239d c83d 8c64 e33c 4b2b 3cbe cd87 a33e
000003c0: 48c3 dfbe 9a31 d5be f3ad 3cbe 0bd6 cf3e
000003d0: 9c17 babd de9b 843e eac9 d43f c6d5 c83e
000003e0: a905 803f 550b 2c3e 1e4f 183f b052 91be
000003f0: fe94 12bf e104 46be 7693 eabe caee e8bd

_hidden_layers.0._model.0.bias f4 [80]
0.06598032 -0.6112043 -0.4291819 -1.5958958 -0.87715584 0.017996036 -1.0304799 1.3177713
-0.34620392 0.42434797 0.47708806 0.1302965 -0.032259416 0.46381518 0.7414858 -0.42771792
-0.13928743 -0.50765693 0.2984674 0.99036586 -0.7475879 0.59606415 0.09046268 1.0080502
-1.1387804 -0.4888728 -0.58176416 -0.24333443 -0.08631781 0.48246145 0.012614687 1.426568
0.7717564 0.635372 -0.39217678 0.7052037 0.4604585 -0.17709231 -0.3643192 -0.055553947
-0.8215709 -0.5094968 0.9860295 0.91529226 0.020607373 -1.2220324 0.19189073 -0.42560175
-0.14193302 1.1959671 -1.2831589 1.4652928 0.7723804 0.32881248 -0.041771226 0.03977524
-0.021708554 0.113944694 -0.23542297 0.27917227 0.9060491 -0.94770676 -0.66008234 0.22097827
0.157862 -0.1849027 0.16274399 0.05282729 0.900758 -0.387173 0.21425706 -0.45720682
-0.525755 -0.052085053 0.06698491 -0.08872693 0.8605135 0.015869215 -1.0461712 -1.5685989
00000000: b120 873d e377 1cbf bbbd dbbe 5046 ccbf
00000010: 498d 60bf 6c6c 933c c4e6 83bf bbac a83f
00000020: a441 b1be 2344 d93e e344 f43e 726c 053e
00000030: 7322 04bd 2f79 ed3e 03d2 3d3f d8fd dabe
00000040: 5da1 0ebe cef5 01bf b8d0 983e 9e88 7d3f
00000050: ec61 3fbf a997 183f 7f44 b93d ca07 813f
00000060: 8ec3 91bf 894d fabe 7fee 14bf a92c 79be
00000070: 64c7 b0bd 3005 f73e d5ad 4e3c c899 b63f
00000080: d491 453f bda7 223f 65cb c8be 3b88 343f
00000090: 37c1 eb3e b057 35be 0c88 babe 898c 63bd
000000a0: 7852 52bf 626e 02bf 6e6c 7c3f 9850 6a3f
000000b0: cbd0 a83c 8f6b 9cbf 017f 443e 79e8 d9be
000000c0: e456 11be 7315 993f 8d3e a4bf b78e bb3f
000000d0: b9ba 453f 1c5a a83e 4e18 2bbd 5deb 223d
000000e0: 23d6 b1bc d65b e93d b812 71be abef 8e3e
000000f0: d5f2 673f e99c 72bf 28fb 28bf 2148 623e
00000100: 93a6 213e 2257 3dbe 5ca6 263e 6e61 583d
00000110: 1498 663f 8a3b c6be 3466 5b3e 0317 eabe
00000120: e197 06bf 2357 55bd 622f 893d 77b6 b5bd
00000130: 9d4a 5c3f 2800 823c f0e8 85bf d9c7 c8bf

_hidden_layers.1._model.0.weight f4 [80, 80]
-0.01688789 0.017282201 -0.03373587 -0.047886573 -0.02001198 0.007906618 -0.0033667386 -0.016538057
-0.013515548 -0.010531343 0.019644655 0.036393587 -0.01587207 0.014599627 0.0075890124 0.028797423
0.029497968 -0.016491646 -0.03013756 0.0012921118 0.012440697 -0.017614936 0.015225723 -0.032631483
0.005319112 -0.030293642 -0.008418321 -0.00053328363 -0.014605407 -0.0113431495 -0.015171928 0.02656757
-0.024096884 -0.015188653 0.019901402 -0.013322117 0.0027069536 0.00020935097 0.020793846 0.021605305
-0.026299622 0.007164912 -0.017636083 -0.023993287 0.013277682 -0.0016173138 0.0077576707 -0.01374815
0.05762893 0.036229253 0.08297466 -0.017177748 0.0072685163 0.00012357159 -0.03621622 0.01336152
-0.016870804 0.011847267 0.0040071225 -0.0029608714 0.01561382 0.0028935869 -0.010150779 0.019887837
0.0002842524 0.01409511 -0.007029827 -0.015264769 -0.04267285 -0.026151063 -0.04491456 -0.0066119065
-0.007618304 0.010205351 0.04215256 -0.022072883 -0.037120536 -0.015839528 0.0009089624 0.009095421
-0.013175374 0.01717462 0.009331127 0.027747933 -0.01965778 -0.008470049 0.0042828373 -0.01357631
0.03508552 -0.00037991404 0.007513538 -0.0018060036 0.015003805 0.009112403 0.04441967 0.011734926
0.01012413 -0.020045342 -0.019973477 -0.014251002 0.0011569196 0.0029953122 -0.022948833 -0.012971637
0.013097319 0.018305983 0.019832015 0.0012852156 0.002679936 -0.006465116 -0.005682552 -0.024875086
0.0074654 -0.020024555 -0.03455265 -0.043181505 -0.025266172 0.006239199 -0.03321529 -0.058762606
-0.011062954 -0.01863516 0.02237307 0.019908648 0.007799102 0.022093233 0.021091545 0.017021757
-0.01914822 0.0028954989 -0.050183926 -0.019131787 0.04024252 -0.007861706 -0.009220689 0.0062605
0.01605306 -0.01779857 -0.028722689 0.01599478 0.0025770017 -0.026579103 0.021029036 0.0060607363
-0.015941493 0.0078010615 -0.033164315 -0.012894661 -0.018933062 0.0049496293 -0.019253278 0.011795873
0.006394774 0.020121934 -0.0018807523 0.018639408 0.0052077724 -0.0060619162 0.014719139 0.008344981
0.0097939195 -0.025251323 -0.0063382485 -0.012875641 0.0019757538 -0.020602588 -0.004786829 0.0075912075
0.013423752 0.019393586 0.024986602 0.02652696 0.016866082 0.037625387 -0.013776136 -0.022214549
0.018915014 -0.002707809 0.025450278 0.009211449 -0.013949431 -0.01224421 -0.015864676 0.012581666
-0.00067693397 0.019423626 0.01898102 -0.005597027 0.043748442 0.0058494387 0.010100882 0.0114117535
0.00939573 -0.024547275 -0.008380988 -0.020765608 0.01809317 0.008348215 0.0053679426 0.0053824694
0.006289594 -0.00015894092 -0.0055537755 0.018539252 0.013543172 0.01480631 -0.0072438973 -0.017167397
-0.007029292 -0.0031894988 0.024183845 0.009989933 -0.03430977 0.00016215954 0.02286003 -0.01741872
0.024455968 -0.019462356 0.013270563 -0.005047512 -0.011203014 -0.024023183 -0.040466387 -0.0005907102
0.0021160461 0.011355862 0.012155168 0.00035454426 0.0215958 -0.005030659 -0.0013552945 0.00440031
-0.023446329 0.039131757 -0.0067170025 0.01656006 0.028191606 0.015473388 0.0027813453 0.0091172885
-0.0016168107 0.3912283 0.08471444 0.20863052 0.3698795 -0.00024444945 0.19098179 -0.15969749
0.27726686 0.37097302 -0.5842978 0.047837704 -0.014487059 -0.13390245 0.09022501 0.7039648
00000000: 7958 8abc 6793 8d3c a02e 0abd b624 44bd
00000010: 2af0 a3bc c28a 013c 80a4 5cbb d27a 87bc
00000020: 5170 5dbc a78b 2cbc d4ed a03c 7111 153d
00000030: 2506 82bc 4633 6f3c 40ad f83b 93e8 eb3c
00000040: b9a5 f13c 7d19 87bc 0be3 f6bc 145c a93a
00000050: 11d4 4b3c 334d 90bc 5075 793c 97a8 05bd
00000060: f24b ae3b 5f2a f8bc ffec 09bc 0fcc 0bba
00000070: 844b 6fbc 9ed8 39bc ae93 78bc 3ca4 d93c
00000080: d466 c5bc d4d9 78bc 4408 a33c 0245 5abc
00000090: 2567 313b 3985 5b39 db57 aa3c 9cfd b03c
000000a0: 4e72 d7bc a3c7 ea3b 8c79 90bc 928d c4bc
000000b0: a28a 593c 0cfc d3ba 0f34 fe3b ec3f 61bc
000000c0: 500c 6c3d 2065 143d 9eee a93d 59b8 8cbc
000000d0: bc2c ee3b ff92 0139 7657 14bd 47ea 5a3c
000000e0: a434 8abc 0a1b 423c 2e4e 833b 2e0b 42bb
000000f0: 1cd1 7f3c 55a2 3d3b 744f 26bc d1eb a23c
00000100: b607 9539 2def 663c 775a e6bb 1519 7abc
00000110: bac9 2ebd c13a d6bc 54f8 37bd b1a8 d8bb
00000120: f7a2 f9bb 5834 273c 2aa8 2c3d 31d2 b4bc
00000130: b40b 18bd e6c1 81bc 6f47 6e3a f604 153c
00000140: 86dd 57bc cab1 8c3c 95e1 183c a24f e33c
00000150: 5a09 a1bc f6c5 0abc 0b57 8c3b 2c6f 5ebc
00000160: d6b5 0f3d 332f c7b9 2034 f63b 6db7 ecba
00000170: 85d2 753c 304c 153c 66f1 353d d943 403c
00000180: aedf 253c 2136 a4bc 6b9f a3bc 097d 69bc
00000190: c8a3 973a 004d 443b 31ff bbbc fd86 54bc
000001a0: 2396 563c 6ef6 953c c076 a23c ae74 a83a
000001b0: dda1 2f3b 53d9 d3bb b334 babb d6c6 cbbc
000001c0: 50a0 f43b 890a a4bc 1487 0dbd 17df 30bd
000001d0: 01fb cebc 3272 cc3b c20c 08bd 0fb1 70bd
000001e0: 6441 35bc c3a8 98bc ba47 b73c 7617 a33c
000001f0: 9c8f ff3b defc b43c 2dc8 ac3c 3671 8b3c
00000200: badc 9cbc 69c2 3d3b a98d 4dbd 44ba 9cbc
00000210: 57d5 243d 63ce 00bc 5f12 17bc e124 cd3b
00000220: b581 833c 4fce 91bc d84b ebbc 7c07 833c
00000230: eae2 283b 6bbc d9bc 1645 ac3c 2499 c63b
00000240: bc97 82bc 0ca0 ff3b 4ed7 07bd 2144 53bc
00000250: 8219 9bbc 8030 a23b 0db9 9dbc 7a43 413c
00000260: 418b d13b c1d6 a43c 9383 f6ba acb1 983c
00000270: f6a5 aa3b 0aa3 c6bb 8b28 713c 63b9 083c
00000280: ad76 203c dddb cebc 15b1 cfbb 5af4 52bc
00000290: a67b 013b c2c6 a8bc d5da 9cbb aabf f83b
000002a0: 4cef 5b3c 4cdf 9e3c b4b0 cc3c 114f d93c
000002b0: bd2a 8a3c 141d 1a3d 4db5 61bc 49fb b5bc
000002c0: a9f3 9a3c 7f75 31bb 1a7d d03c 9eeb 163c
000002d0: 278c 64bc f09b 48bc a3f6 81bc 5523 4e3c
000002e0: 4574 31ba 4c1e 9f3c 167e 9b3c 4467 b7bb
000002f0: 9131 333d a6ac bf3b 2b7e 253c 5df8 3a3c
00000300: 8cf0 193c 5e17 c9bc 6950 09bc a31c aabc
00000310: 2138 943c f4c6 083c 91e5 af3b 6d5f b03b
00000320: f018 ce3b 61a9 26b9 72fc b5bb a1df 973c
00000330: 2ee4 5d3c 2a96 723c 375e edbb a4a2 8cbc
00000340: fa55 e6bb e906 51bb 331d c63c d1ac 233c
00000350: 6788 0cbd 5f09 2a39 f544 bb3c b4b1 8ebc
00000360: e257 c83c 856f 9fbc c76c 593c 9965 a5bb
00000370: d98c 37bc 44cc c4bc 15c0 25bd e4d9 1aba
00000380: 5dad 0a3b f00d 3a3c 7826 473c 20e2 b939
00000390: ade9 b03c 3ad8 a4bb 23a4 b1ba 7a30 903b
000003a0: 8412 c0bc 9f48 203d 4d1a dcbb f7a8 873c
000003b0: 15f2 e63c 1884 7d3c 3b47 363b ae60 153c
000003c0: 2aeb d3ba 134f c83e c47e ad3d 3da3 553e
000003d0: d960 bd3e 7329 80b9 bb90 433e bd87 23be
000003e0: ecf5 8d3e 2df0 bd3e 8a94 15bf 78f1 433d
000003f0: 215b 6dbc b91d 09be e4c7 b83d 0a37 343f

_hidden_layers.1._model.0.bias f4 [80]
0.003999066 0.02105882 -0.019124977 0.35044852 -0.0075474717 0.27193877 0.027068665 -0.043418277
0.026049003 0.0016563694 -0.013476894 0.0064087277 0.03511897 -0.42904446 -0.021033213 0.0023537604
-0.0016549054 -0.7643572 -0.5081841 0.29215527 0.8716244 0.0014764926 0.017632121 0.016512906
-0.015304405 -0.16752708 -0.013122262 -0.016867347 0.008664541 -0.17967911 0.016560093 -0.62408143
0.28180686 0.020047726 0.00615383 0.012593783 -0.00087423786 -0.051938053 -0.0051302672 -0.0066084224
-0.010137645 -0.014643167 -0.27873635 0.22649401 -0.6546725 0.25674167 -0.020751145 0.44869995
-0.05650892 -0.6311501 -0.011309512 -0.17566869 0.008599812 -0.0034781527 -0.015791623 -0.5227507
0.7741968 -0.14039472 0.30368376 0.079016045 0.015562418 -0.08505772 0.3382799 -0.042774204
0.38193235 -0.24358323 0.0064849327 -0.18153068 -0.019630084 -0.025439333 0.13033603 0.00074703124
0.14207192 -0.27689803 0.20179304 0.02146612 0.07293843 0.0019607134 -0.0051911073 0.0016806949
00000000: 990a 833b 8c83 ac3c fcab 9cbc fd6d b33e
00000010: c850 f7bb 8f3b 8b3e 1bbf dd3c 5dd7 31bd
00000020: b864 d53c 891a d93a 31ce 5cbc 4e00 d23b
00000030: e9d8 0f3d b7ab dbbe d84d acbc 8c41 1a3b
00000040: 69e9 d8ba eaac 43bf 5a18 02bf 6095 953e
00000050: c722 5f3f df86 c13a 3d71 903c 1346 873c
00000060: 54bf 7abc 388c 2bbe c2fe 56bc 642d 8abc
00000070: b8f5 0d3c cdfd 37be 08a9 873c cdc3 1fbf
00000080: fd48 903e 213b a43c 11a6 c93b 2856 4e3c
00000090: 1c2d 65ba ffbc 54bd cd1b a8bb 778b d8bb
000000a0: 5d18 26bc e5e9 6fbc 88b6 8ebe 0cee 673e
000000b0: 9e98 27bf a573 833e 4efe a9bc 00bc e53e
000000c0: e675 67bd 0e93 21bf 884b 39bc 7ee2 33be
000000d0: 3ae6 0c3c b8f1 63bb 6f5d 81bc fdd2 05bf
000000e0: c331 463f a2c3 0fbe 707c 9b3e 2ad3 a13d
000000f0: 83f9 7e3c be32 aebd 0633 ad3e 0134 2fbd
00000100: a38c c33e e26d 79be 8f7f d43b 2ee3 39be
00000110: 45cf a0bc 2666 d0bc cf76 053e 6bd4 433a
00000120: 4d7b 113e 94c5 8dbe d6a2 4e3e b7d9 af3c
00000130: be60 953d 507f 003b 2a1a aabb c34a dc3a
