rllib/models/latest.onnx (onnx, 34035 bytes, 6 tensors)

_logits._model.0.weight f4 [4, 80]
0	0xbd4ba53e	-0.049718134
1	0xbd7e78ee	-0.062127046
2	0x3bcd02b6	0.0062564267
3	0x3d390a50	0.04517585
4	0x3d15f6d8	0.03661236
5	0x3d4c09e8	0.049814135
6	0x3bcd7d57	0.006271045
7	0xbd3da1ef	-0.04629701
8	0xbd424ce8	-0.047436625
9	0xbb0818c5	-0.0020766717
10	0x3dac9df2	0.08428563
11	0xbca5d3a3	-0.020242518
12	0x3cd90565	0.02649183
13	0x3ccf5857	0.025310678
14	0x3b25779c	0.0025248295
15	0xbd296001	-0.041351322
16	0x3d416e10	0.047224104
17	0x3c800580	0.015627623
18	0x3e2be293	0.1678565
19	0xbcde09e9	-0.027104335
20	0x3c5e60eb	0.013572912
21	0x3dbc37e4	0.09190348
22	0xbd1360ab	-0.03598086
23	0x3cbb313d	0.022850627
24	0x3d5d29d7	0.05399498
25	0xbb2f2fc6	-0.0026731356
26	0x3d054e2e	0.03254526
27	0x3d9281ae	0.07153641
28	0xbd380b96	-0.044932924
29	0xbccb38be	-0.02480733
30	0xbb09eb0d	-0.0021044642
31	0xb9dabb81	-0.00041719901
32	0x3d9b2b4e	0.07576619
33	0x3d94cbfc	0.072654694
34	0x3cf07112	0.029350791
35	0xbd2b4b86	-0.04182007
36	0xbc68480e	-0.014177335
37	0xbde941dd	-0.113895155
38	0xbbb8aee8	-0.005636085
39	0x3d360be0	0.04444492
40	0x3c8d1816	0.0172234
41	0x3c935e05	0.017989168
42	0x3d4f1bf3	0.050563764
43	0x3cfde0ae	0.030990925
44	0xbd1eae38	-0.038740367
45	0x3d28163d	0.041036833
46	0x3d41fbd2	0.047359295
47	0xbcd81122	-0.026375357
48	0xbc974b17	-0.018468423
49	0xbca32099	-0.019913005
50	0x3da96058	0.08270329
51	0xbb9487ec	-0.0045328047
52	0xbda342b3	-0.07971706
53	0x3cce0f59	0.025153803
54	0xbb981e8c	-0.0046423133
55	0xbca8aeea	-0.020591218
56	0xbd3a279f	-0.045447942
57	0xbb1cc3c2	-0.0023920392
58	0x3c6f0cac	0.014590424
59	0x3d146668	0.036230475
60	0xbe05eec0	-0.13079357
61	0x3cb13e74	0.021636225
62	0xbc4bad09	-0.0124313915
63	0x3d328639	0.043585036
64	0xbcaae07d	-0.020858997
65	0x3ce8359e	0.02834588
66	0xbbb227aa	-0.005436857
67	0xbc8fa3a7	-0.01753409
68	0xbc67d7f5	-0.014150609
69	0xbcfd6f84	-0.030936964
70	0xbd09098b	-0.033456367
71	0xbd046367	-0.03232136
72	0x3bea95ea	0.0071589844
73	0x3da0bb03	0.0784817
74	0x3cb6c874	0.02231238
75	0xbc5359e1	-0.012899847
76	0x3cb5636f	0.02214214
77	0x3d0db232	0.03459377
78	0xbdea097e	-0.11427592
79	0xbc89dd23	-0.016829079
80	0xbcbd7816	-0.02312855
81	0xbc8d2d93	-0.017233646
82	0xbc134c8c	-0.008990418
83	0x3cd1a793	0.0255926
84	0xbd6a57af	-0.057212528
85	0xbc8b5622	-0.017008845
86	0xbdf40762	-0.11915471
87	0xbb90be9f	-0.004417255
88	0xbc0a9836	-0.0084591415
89	0xbcf88275	-0.030335644
90	0x3cc71510	0.024302036
91	0xbd180e31	-0.03712291
92	0x3cbd861a	0.023135234
93	0x3daec774	0.085341364
94	0x3d9763c2	0.07392074
95	0x3ca55078	0.020179972
96	0xbe074199	-0.13208617
97	0xbce1134d	-0.027475024
98	0x3dc9920f	0.098423116
99	0xbacf48dc	-0.001581456
100	0xbcf18219	-0.02948098
101	0x3da6ff62	0.08154179
102	0xbc81cff3	-0.015846228
103	0x3e632465	0.22181852
104	0xbc85771a	-0.016292144
105	0xbcf8eae5	-0.030385444
106	0xbd2b376a	-0.041800894
107	0xbcba4fc3	-0.022743111
108	0x3c3c0a8f	0.011477127
109	0xbccd02d3	-0.02502576
110	0x3d024489	0.03180364
111	0xbdc829c1	-0.09773589
112	0x3cf3c7fe	0.02975845
113	0x3c9adafe	0.018903252
114	0xbd669cca	-0.05630187
115	0x3cbaf7f9	0.02282332
116	0x3c7f50b3	0.015583205
117	0x3d2be132	0.04196281
118	0xbda27675	-0.0793275
119	0x3c0917ba	0.008367473
120	0xbc3768b3	-0.011194396
121	0xbd6c86ca	-0.057745732
122	0xbcc0b035	-0.023521522
123	0xbd2d5626	-0.042318486
124	0x3cc505d3	0.024050629
125	0x3d1e07bc	0.038581595
126	0xbd08b552	-0.033376046
127	0x3c92b9da	0.017910887
128	0x3d998365	0.07495765
129	0x3836417f	4.345318e-05
130	0x3d4bbbcf	0.049739655
131	0xbc36a57d	-0.011147854
132	0xbd01dc5c	-0.03170429
133	0x3e0c4025	0.13696344
134	0x3bd0be13	0.006370315
135	0x3bd4ad21	0.006490365
136	0xbd27913f	-0.04091
137	0x3c2783b8	0.010224275
138	0x3cdab6a6	0.026698422
139	0xbbb16790	-0.005413957
140	0x3dc0cc0a	0.09413917
141	0xbd55c35c	-0.052188262
142	0x3c4ccddd	0.0125002535
143	0xbc10a683	-0.008828762
144	0xbdaab998	-0.083361804
145	0x3c9332d4	0.017968573
146	0xbb46320a	-0.0030242228
147	0x3cca5f07	0.024703516
148	0x3caaddf9	0.020857798
149	0xbcf82d14	-0.030294932
150	0x3cbb55e9	0.022868114
151	0x3ce1f016	0.027580302
152	0xbd27ef39	-0.040999625
153	0x3a10fb9e	0.0005530658
154	0x39dc12f2	0.00041975785
155	0xbc149e0f	-0.009070887
156	0xbcd586ca	-0.026065249
157	0xbb3b73bf	-0.0028602926
158	0xbd924a01	-0.071430214
159	0xbcc83ed3	-0.02444402
160	0xbcfaba32	-0.030606363
161	0xbd1ad812	-0.037803717
162	0x3d6b644c	0.057468697
163	0x3c8857f3	0.0166435
164	0x3c0cf8e3	0.008604261
165	0xbc05ba84	-0.008162145
166	0x3d281e1a	0.041044332
167	0x3d949482	0.07254888
168	0xbd853250	-0.06503737
169	0xbbdca274	-0.006733233
170	0x3d647684	0.055777088
171	0xbceb01d4	-0.028687395
172	0xbd1a6459	-0.037693355
173	0xbd773270	-0.060350835
174	0x390a65f3	0.00013198685
175	0x3d02f690	0.03197342
176	0x3d64d4ac	0.055866882
177	0xbc8b7033	-0.017021274
178	0xbd85099a	-0.06495972
179	0x3a58b0d3	0.0008266095
180	0xbcc0085f	-0.023441492
181	0xbdbb4c08	-0.09145361
182	0x3b4629d8	0.0030237343
183	0xbd9cc56c	-0.07654843
184	0xbd2cf971	-0.042230073
185	0xbd3ae3ba	-0.045627333
186	0xbd7ce3ce	-0.06174069
187	0x3a9cf3e5	0.0011974542
188	0x3c156da4	0.009120379
189	0xbd47f973	-0.048821878
190	0x39cb21f8	0.00038744486
191	0x3d89c0a8	0.067261994
192	0xbb607fbe	-0.0034255828
193	0xbd152834	-0.036415294
194	0xbca8c065	-0.020599553
195	0xbc8368ca	-0.016041178
196	0x3d9e9b44	0.07744458
197	0x3d0accb3	0.033886623
198	0x3d982ddf	0.07430624
199	0x3ac9033d	0.0015336048
200	0xbbece162	-0.007229016
201	0x3c94b52e	0.0181528
202	0xbc4e216f	-0.012581213
203	0xbd2ed6aa	-0.04268519
204	0x3c6b0de4	0.0143465735
205	0x3d4d2693	0.050085615
206	0xbc2f41ee	-0.010696871
207	0xbc074b4f	-0.008257701
208	0x3d016cb4	0.031597808
209	0x3bd07baa	0.006362398
210	0x3d95a545	0.07306913
211	0xbd12a2a1	-0.035799626
212	0xbd892c90	-0.06697953
213	0xbd41eff5	-0.04734798
214	0xbcbeec8c	-0.023306154
215	0x3ce89bbb	0.02839457
216	0xbcbb4960	-0.022862136
217	0x3cba9fc4	0.02278126
218	0x3c875f9b	0.01652508
219	0xbcff76c5	-0.031184563
220	0x3e058ae1	0.1304126
221	0x3d887d11	0.066644795
222	0x3b55752d	0.0032571063
223	0xbca28860	-0.01984042
224	0x3d9f5aba	0.077809766
225	0xbd166c4f	-0.036724385
226	0x3cf77cb8	0.030210838
227	0x3ad0fb00	0.0015943944
228	0xbc93a1fe	-0.01802158
229	0xbbc6257f	-0.0060469504
230	0xbd374f44	-0.044753328
231	0x3b40897b	0.002937882
232	0xbd1d0aa0	-0.03834021
233	0x3c084068	0.008316137
234	0x3d08307e	0.03324937
235	0xbc01bbb7	-0.00791829
236	0x3c415186	0.011799222
237	0xbc8a68ba	-0.01689564
238	0x3d9d132d	0.07669673
239	0xbbac2c00	-0.0052542686
240	0x3d400f7f	0.04688978
241	0x3b2e53b7	0.002660019
242	0x3d1dde1d	0.0385419
243	0xbd00a7b6	-0.03140994
244	0xbcc39c72	-0.02387831
245	0x3cf33cf0	0.029692143
246	0xbd0e895c	-0.034798965
247	0x3ce32a13	0.027730023
248	0xbcb89541	-0.022532107
249	0xbca70ebb	-0.020392766
250	0x3d34d097	0.04414424
251	0xbda5ba11	-0.0809213
252	0x3d14a05c	0.036285743
253	0x385ee96a	5.314631e-05
254	0x3d335f80	0.043792248
255	0x3ce704ad	0.028200472

_logits._model.0.bias f4 [4]
0	0xbc7cc5db	-0.015428032
1	0xbc84ca04	-0.01620961
2	0x3cbaaca4	0.0227874
3	0x3d794ce9	0.060864363

_hidden_layers.0._model.0.weight f4 [80, 13]
0	0xbeb1e656	-0.34746045
1	0xbdea2b26	-0.11434011
2	0xbe41cf09	-0.18926634
3	0x3e887b7b	0.26656708
4	0x3da08bb7	0.078391485
5	0x3e668f05	0.22515495
6	0x3dcce8b6	0.100053236
7	0xbf21f196	-0.63259256
8	0x3d4c1da3	0.04983295
9	0xbd811806	-0.0630341
10	0x3dcfef76	0.101530954
11	0x3e09288b	0.13394372
12	0x3f195da0	0.59908485
13	0x3d6d24ac	0.0578963
14	0x3eadaecf	0.3392243
15	0xbb81fccc	-0.0039669033
16	0x3f5d0b6c	0.86345553
17	0xbe40b05e	-0.18817279
18	0xbe5b265e	-0.21401355
19	0xbdaf4849	-0.08558709
20	0x3c0edad4	0.008719165
21	0x3d54a64c	0.051916406
22	0xbe612166	-0.21985397
23	0x3d7d52ef	0.06184667
24	0xbeb9b713	-0.36272487
25	0x3f1b406b	0.6064517
26	0xbea74140	-0.3266697
27	0xbdd7be11	-0.10534299
28	0x3b8bffeb	0.004272451
29	0x3de74928	0.1129325
30	0x3c07dadc	0.008291926
31	0x3cfebc60	0.031095684
32	0x3ef8ded1	0.48607495
33	0xbedc5312	-0.43032128
34	0xbd8dce12	-0.069240704
35	0x3ec5a5e0	0.38603115
36	0xbe3424a5	-0.17592104
37	0xbf2f8ada	-0.68571246
38	0xbebaa219	-0.36451796
39	0xbd6c1cf2	-0.057644792
40	0xbe0b61c7	-0.13611518
41	0x3eb009c9	0.34382465
42	0x3e3faac2	0.18717483
43	0x3ee06f8e	0.4383511
44	0x3db90fb5	0.09036199
45	0xbea689e6	-0.32527083
46	0x3deed635	0.116619505
47	0x3eaadb67	0.33370516
48	0xbe65cd07	-0.22441493
49	0x3ec19d38	0.3781526
50	0xbeea6ebb	-0.45787606
51	0xbf3afd59	-0.7304283
52	0x3e3638f3	0.17795162
53	0x3e357949	0.17722048
54	0x3ef7eb15	0.4842154
55	0xbe2a4571	-0.16628052
56	0x3e924efb	0.28575882
57	0x3ed53767	0.4164383
58	0xbdb3cf30	-0.08779752
59	0x3d83bfcd	0.064330675
60	0xbe8772c6	-0.26454753
61	0xbf0d4b17	-0.55192703
62	0xbed3e1b5	-0.41383138
63	0xbe9dc5a5	-0.30814853
64	0x3ec9cdbb	0.39414772
65	0xbd2434ad	-0.040089298
66	0xbe343745	-0.17599209
67	0xbe2c6a9e	-0.16837546
68	0x3e0036b0	0.12520862
69	0xbdc2d5d5	-0.095134415
70	0x3dc70acf	0.097188585
71	0xbe814ff6	-0.25256318
72	0xbe1aa1d6	-0.15100798
73	0x3e57e0b0	0.21081805
74	0xbe5c0094	-0.21484596
75	0x3f0ebdbc	0.5575826
76	0xbc213e88	-0.009841569
77	0x3f71e8f5	0.9449609
78	0x3ed1383a	0.4086321
79	0x3d7e262a	0.062048115
80	0xbcb20753	-0.021732008
81	0xbf03869c	-0.5137727
82	0xbe36220d	-0.17786427
83	0x3e974661	0.29545882
84	0xbe172f3c	-0.14764112
85	0xbe51f7e1	-0.20504715
86	0x3e8aee6e	0.27135032
87	0xbf1ab996	-0.6043943
88	0xbf3c60f9	-0.7358547
89	0x3dc7244f	0.09723722
90	0xbe816a43	-0.25276384
91	0x3d93e8b2	0.072221175
92	0xbd088554	-0.033330277
93	0xbd997762	-0.074934736
94	0x3ed867dd	0.4226674
95	0xbe977542	-0.29581648
96	0xbe81d6a9	-0.25359085
97	0x3e9aca79	0.302326
98	0x3dbadd00	0.09124184
99	0xbec6deb1	-0.38841775
100	0xbeaa958c	-0.3331722
101	0xbeb286c9	-0.34868458
102	0xbe9610cb	-0.29309687
103	0x3ee2c736	0.4429261
104	0x3ea689e5	0.3252708
105	0xbe35e05c	-0.17761368
106	0xbe94ce2d	-0.2906355
107	0xbf03ccc1	-0.51484305
108	0x3d3ab370	0.04558128
109	0xbef75edc	-0.4831456
110	0x3e4ee590	0.20204759
111	0x3da01492	0.078164235
112	0xbe2f91a0	-0.17145395
113	0x3d54c770	0.05194801
114	0xbe9d5402	-0.30728155
115	0x3dca2922	0.09871127
116	0x3f35b9e5	0.7098678
117	0xbe55678d	-0.20840283
118	0xbdf8284a	-0.121170595
119	0xbe7e4d2d	-0.24834128
120	0x3f466624	0.77499604
121	0x3e0f2284	0.1397801
122	0x3d15f982	0.036614902
123	0xbe0aa66e	-0.1354005
124	0xbe9da407	-0.30789205
125	0x3f0eb3a3	0.55742854
126	0x3e7e62a1	0.24842311
127	0x3f074080	0.52832794
128	0x3e89250a	0.2678607
129	0x3dffdfdb	0.12493869
130	0x3eca754d	0.39542618
131	0xbe4e2415	-0.20130952
132	0x3d2ff9cb	0.04296283
133	0xbe279a15	-0.16367371
134	0x3e96de7d	0.2946662
135	0xbd078b62	-0.03309191
136	0xbe9620a0	-0.29321766
137	0xbe9c3000	-0.3050537
138	0xbca596ae	-0.020213451
139	0x3f08d52b	0.5345027
140	0xbf4d1887	-0.8011555
141	0xbed6509d	-0.41858378
142	0x3f34da4c	0.70645595
143	0x3dd38fef	0.103301875
144	0xbedc8c35	-0.4307572
145	0x3ed4bb20	0.41549015
146	0x3de461f7	0.11151498
147	0x3e5f646e	0.21815655
148	0x3f2c4213	0.6728832
149	0xbe372241	-0.1788416
150	0x3cb70be0	0.02234453
151	0x3d1cf834	0.038322642
152	0xbe88ec00	-0.26742554
153	0xbe448a4d	-0.19193383
154	0xbd8ea7a5	-0.069655694
155	0xbe3c4e3c	-0.18389219
156	0xbea66541	-0.32499126
157	0x3dc13f02	0.09435846
158	0x3f0033e7	0.50079197
159	0xbebeea00	-0.37287903
160	0xbd72cd13	-0.059277605
161	0xbec77ae5	-0.3896095
162	0xbd258b12	-0.04041583
163	0x3df2dcb0	0.11858499
164	0x3d936ba9	0.07198269
165	0xbe827753	-0.25481662
166	0x3e4c86b3	0.19973259
167	0x3eb2109b	0.34778294
168	0x3f71a200	0.9438782
169	0xbec7e9f6	-0.39045686
170	0x3e0533ff	0.13008116
171	0xbe9ad530	-0.30240774
172	0x3e59c0ae	0.21264908
173	0x3f0ab354	0.54179883
174	0x3e10376a	0.14083639
175	0xbdabfd37	-0.08397906
176	0xbea3a3d3	-0.31960925
177	0xbe5be248	-0.21473038
178	0x3f22cf67	0.6359772
179	0x3e73b6a0	0.23800135
180	0xbe310cb2	-0.17289999
181	0x3e8c0071	0.27344087
182	0xbec8bd41	-0.3920689
183	0xbe5bc88d	-0.21463223
184	0x3cc60b04	0.024175175
185	0xbed71349	-0.420069
186	0x3e183282	0.14863017
187	0x3e93dac8	0.28877854
188	0x3e53ae74	0.20672017
189	0xbf0d138f	-0.5510797
190	0x3e6189f6	0.22025284
191	0xbe0c7415	-0.13716157
192	0xbdea2e6f	-0.11434638
193	0x3e66d5a9	0.22542442
194	0xbe046cf9	-0.12932195
195	0xbd74747e	-0.059681408
196	0xbe407a7b	-0.18796723
197	0xbd566d72	-0.05235047
198	0x3f175516	0.59114206
199	0xbc69aff0	-0.014263138
200	0xbf18cae0	-0.5968456
201	0x3ef5d743	0.48015794
202	0xbe4d6711	-0.20058848
203	0x3d250b80	0.04029417
204	0x3f237e7c	0.63864875
205	0xbdbe4f19	-0.092924304
206	0xbe18886a	-0.14895788
207	0xbd7110aa	-0.058853783
208	0x3d452813	0.04813392
209	0x3e37ffcf	0.17968677
210	0xbe5b3a01	-0.21408845
211	0x3f2324f6	0.6372827
212	0xbe3a65b7	-0.18202864
213	0x3e4b7323	0.1986814
214	0x3dec30fa	0.11532779
215	0xbebce570	-0.36893797
216	0xbdf3f026	-0.11911039
217	0x3eb4396a	0.35200053
218	0x3ed669d5	0.41877618
219	0xbf2b70d3	-0.6696903
220	0x3f3225e3	0.6958906
221	0x3d9f9d1b	0.07793637
222	0xbef45d88	-0.4772761
223	0xbd48976a	-0.048972525
224	0x3e4b98b0	0.19882464
225	0x3d88795b	0.06663772
226	0xbc9ac96a	-0.01889487
227	0x3f4026a5	0.75058967
228	0x3d95088b	0.0727702
229	0x3ef0c900	0.4702835
230	0x3f0397a9	0.5140329
231	0x3dedefd6	0.11618011
232	0xbdc8d40a	-0.09806068
233	0xbefa340c	-0.48867834
234	0xbe1d4e09	-0.153618
235	0x3f03b40e	0.51446617
236	0x3e27c980	0.1638546
237	0x3de26943	0.11055233
238	0x3eafa7b0	0.34307623
239	0xbe70b2dc	-0.2350573
240	0x3f07a6d2	0.5298892
241	0x3dd1e37f	0.102484696
242	0xbcf322dc	-0.029679708
243	0x3e36b324	0.17841774
244	0xbe324b4a	-0.17411533
245	0xbe3a5927	-0.18198071
246	0xbe943973	-0.2895008
247	0x3ee31591	0.4435239
248	0xbd523e93	-0.051329207
249	0xbddebf72	-0.10876359
250	0x3e199086	0.14996538
251	0xbe6b3e5b	-0.22973005
252	0xbe3b4b67	-0.18290482
253	0x3d9af68e	0.07566558
254	0x3f008299	0.50199276
255	0x3e85219a	0.26002198

_hidden_layers.0._model.0.bias f4 [80]
0	0xbdbf748c	-0.093484014
1	0x3d6e9e7b	0.058256608
2	0x3d8e3fab	0.069457375
3	0x3deb89e3	0.11500909
4	0x3c688936	0.01419287
5	0x3d94ab28	0.07259208
6	0xbc0ad7a6	-0.008474266
7	0xbde80adc	-0.11330196
8	0xbdaec572	-0.085337535
9	0xbc7bf0c6	-0.015377229
10	0xbe16a46d	-0.14711161
11	0xbd46181b	-0.048362833
12	0xbda44606	-0.080211684
13	0xbcf232a2	-0.02956516
14	0xbd532287	-0.0515466
15	0xbd394185	-0.0452285
16	0x3d40ca90	0.04706818
17	0xbdb45ab6	-0.08806364
18	0x3d9936c0	0.07481146
19	0xbd27b807	-0.040946987
20	0x3df1b05f	0.11801218
21	0x3cc56c6a	0.024099547
22	0xba97fbad	-0.0011595391
23	0xbdfca8bb	-0.1233687
24	0xbd3bafe4	-0.04582204
25	0x3cabdc88	0.020979181
26	0x3db37765	0.08763007
27	0x3d888b2e	0.066671714
28	0x3d926af1	0.07149304
29	0xbddfe772	-0.109328166
30	0xbe064107	-0.13110743
31	0xbca633fa	-0.020288456
32	0x3c7af525	0.015317236
33	0xbd73b683	-0.05950023
34	0xbe020e9e	-0.12700889
35	0x3a766c3b	0.0009400283
36	0xbe0be8f8	-0.1366309
37	0xbc7b29f6	-0.0153298285
38	0x3d5b70aa	0.05357424
39	0x3c3866f7	0.0112550175
40	0xbd9de1b2	-0.077090636
41	0xbdb279a0	-0.087146044
42	0x3ce0d06a	0.02744313
43	0x3d842ffa	0.06454463
44	0xbde872ac	-0.11349997
45	0x3d875151	0.06607307
46	0xbc6c39ef	-0.014418109
47	0xbe10b5a0	-0.14131784
48	0xbc9bed0c	-0.019033931
49	0x3df00016	0.117187664
50	0xbd046e06	-0.03233149
51	0xbd41cd4c	-0.047314927
52	0x3e116c41	0.14201452
53	0x3db83a46	0.0899549
54	0xbe02a194	-0.1275695
55	0x3d3f5e7b	0.046720963
56	0x3e1480bd	0.14502235
57	0x3e1bafdd	0.15203805
58	0xbd2aa76f	-0.041663583
59	0xbd1a6552	-0.037694283
60	0x3bf3a2aa	0.0074351626
61	0xbe087d68	-0.13329089
62	0x3de10780	0.10987759
63	0x3c10b5a9	0.008832374
64	0xbd1c2945	-0.038125295
65	0xbdb80e5d	-0.089871146
66	0x3d4fb38c	0.05070834
67	0x3d540519	0.051762674
68	0xbdf3c0bb	-0.11901995
69	0xbd9ba7d4	-0.0760037
70	0xbc07e28f	-0.008293762
71	0x3d82b97b	0.06383034
72	0xbc9f64d7	-0.019457264
73	0x3c935a92	0.017987523
74	0xbbe3468b	-0.0069358996
75	0x3d35b4ff	0.044362064
76	0xbdc02969	-0.09382898
77	0x3db0708b	0.08615216
78	0x3de5528f	0.111973874
79	0x3db590e5	0.08865527

_hidden_layers.1._model.0.weight f4 [80, 80]
0	0x3c804625	0.015658448
1	0x3e0dc243	0.13843636
2	0x3e2963ab	0.16541927
3	0x3ca8d6c1	0.020610215
4	0x3dafeb7a	0.085898355
5	0x3d7c4e96	0.061598383
6	0x3d0ae923	0.033913743
7	0x3cc5ad73	0.024130559
8	0x3a57969d	0.0008224042
9	0xbe7a0acf	-0.24418186
10	0xbda5b2b0	-0.080907226
11	0xbdb22bad	-0.08699737
12	0xbd07f021	-0.03318799
13	0xbddacc6e	-0.10683523
14	0x3e2a5196	0.16632685
15	0x3dd7e63d	0.10541961
16	0x3da03ce9	0.07824118
17	0x3d8a0c4c	0.06740627
18	0x3e74ca72	0.23905352
19	0x3d5c52ed	0.05379002
20	0x3dd2d9b7	0.10295432
21	0xbd8cf037	-0.06881755
22	0xbd6fa236	-0.058504306
23	0xbd904858	-0.070450485
24	0xbe3ff807	-0.18746959
25	0x3da962f6	0.082708284
26	0xbe1ae4b2	-0.15126303
27	0xbe2d29a5	-0.16910417
28	0x3c86f28f	0.016473083
29	0xbd333cd7	-0.043759193
30	0xbdeef59d	-0.11667941
31	0x3da3e3c2	0.08002426
32	0xbc818777	-0.015811665
33	0x3ddd1421	0.10794855
34	0x3c8ac4ad	0.016939485
35	0xbce4c48c	-0.027925752
36	0x3e863c93	0.2621809
37	0xbd64b4dc	-0.055836543
38	0x3dac826f	0.08423316
39	0xbd22f10b	-0.039780658
40	0x3dfc54fc	0.12320897
41	0x3c9da63e	0.01924431
42	0xbdc94f27	-0.0982955
43	0x3de8aafe	0.11360739
44	0x3ddd7e14	0.10815063
45	0x3ddb1e7c	0.10699174
46	0xbdd380ae	-0.10327278
47	0x3e604afc	0.21903604
48	0xbdcbf600	-0.0995903
49	0x3cd68f67	0.026191426
50	0x3d9b3855	0.07579104
51	0x3daf5924	0.08561924
52	0xbd9e8073	-0.077393435
53	0xbdbecefb	-0.09316822
54	0x3d4a336b	0.049365442
55	0xbe340183	-0.17578702
56	0xbe25db28	-0.16196883
57	0x3e6e1a1b	0.23252146
58	0x3d3e46da	0.046454288
59	0xbdf79523	-0.120889924
60	0xbe006527	-0.12538587
61	0xbc8920ee	-0.016739335
62	0xbe80b084	-0.2513467
63	0x3d083062	0.033249266
64	0xbd8adc7f	-0.067803375
65	0xbe5b2880	-0.21402168
66	0x3dcf5eea	0.10125525
67	0xbd940db2	-0.07229175
68	0x3e3d5aa1	0.18491603
69	0x3a6e6d50	0.00090952683
70	0xbdec20c8	-0.1152969
71	0x3dd186f4	0.102308184
72	0x3c157c44	0.0091238655
73	0xbca58e7c	-0.020209543
74	0x3e51c23d	0.20484252
75	0x3ca8152a	0.020517904
76	0xbe6ed897	-0.2332481
77	0x3e18c27f	0.14917944
78	0xbe3343b5	-0.17506297
79	0x3e75efa8	0.24017203
80	0xbd74428a	-0.05963377
81	0xbc3c39af	-0.011488362
82	0xbe03e90a	-0.12881866
83	0xbde72105	-0.11285595
84	0x3c0409fb	0.00805902
85	0x3e182b1e	0.14860198
86	0xbcabc059	-0.020965742
87	0xbd978bee	-0.07399736
88	0x3d011985	0.031518478
89	0x3db9cee2	0.09072663
90	0x3db2c1a5	0.08728341
91	0x3df9c324	0.12195423
92	0xbd7d8ffc	-0.061904892
93	0x3e32e554	0.17470294
94	0xbd98d82c	-0.074631065
95	0x3e11fae9	0.14255871
96	0x3e66f341	0.22553732
97	0xbd14cafc	-0.036326393
98	0x3cd7e0d8	0.026352331
99	0x3daff79e	0.08592151
100	0x3e687b59	0.22703303
101	0x3dbbdf8d	0.09173498
102	0x3e633f85	0.221922
103	0xbc0c0f01	-0.008548499
104	0xbdd2454b	-0.10267123
105	0x3d8088ff	0.0627613
106	0x3ce78f6d	0.028266633
107	0xbec1b25c	-0.3783139
108	0x3d868fc5	0.065703906
109	0x3e1f574a	0.15560642
110	0xbd90b30f	-0.07065403
111	0x3d0f2cb9	0.03495476
112	0xbc97257e	-0.018450495
113	0xbdac2fb2	-0.08407535
114	0xbcc0ac8f	-0.023519782
115	0x3c20aea0	0.009807259
116	0x3ce13b46	0.027494084
117	0xbbfaac81	-0.0076499586
118	0x3bd45e85	0.006480994
119	0xbd6ffdb9	-0.05859158
120	0xbcccef18	-0.025016353
121	0x3cacc037	0.021087749
122	0x3ba9e9e5	0.005185353
123	0xbe4e617b	-0.20154373
124	0xbd46f786	-0.0485759
125	0x3ddff7d1	0.10935939
126	0x3d4513a7	0.048114445
127	0x3d14024e	0.03613501
128	0xbe1536ec	-0.14571732
129	0xbbc0145f	-0.0058618034
130	0x3d1c685a	0.038185455
131	0xbbe4f1d4	-0.006986836
132	0x3e476d96	0.19475397
133	0xbcc9d069	-0.02463551
134	0xbd98c901	-0.074602135
135	0x3ddf1a12	0.108936444
136	0xbd93ccce	-0.07216798
137	0xbd084072	-0.033264585
138	0x3e0cfeb4	0.13769037
139	0x3cf0fd5f	0.029417692
140	0x3db3bb30	0.087759376
141	0xbd12d9df	-0.03585231
142	0xbdfa815f	-0.12231707
143	0xbd835a60	-0.06413722
144	0xbd8ce784	-0.068800956
145	0x3ae9ea5f	0.0017846337
146	0xbdffda19	-0.12492771
147	0xbddebca4	-0.10875824
148	0x3e1852ae	0.1487529
149	0x3e08f4c3	0.13374619
150	0xbe100a9d	-0.14066549
151	0xbdd37014	-0.103241116
152	0xbe7f1e38	-0.24913871
153	0x3e834f1c	0.25646293
154	0xbe20ed69	-0.15715565
155	0xbe26f39f	-0.16303872
156	0xbdbeb0d5	-0.09311072
157	0xbdc1e52a	-0.09467538
158	0xbde4c9de	-0.111713156
159	0x3eaa8f8c	0.33312643
160	0xbe0d498d	-0.13797589
161	0xbdb21fc9	-0.08697469
162	0xbe0c8d9e	-0.13725898
163	0xbc4e5385	-0.012593155
164	0x3e56bacc	0.20969695
165	0xbcfcd4ea	-0.030863244
166	0x3e1378fb	0.14401619
167	0x3e3b4fe0	0.18292189
168	0x3cff55eb	0.031168899
169	0x3e1c74f8	0.15278995
170	0x3d960e45	0.073269404
171	0xbdf8ba52	-0.12144913
172	0x3e0ca932	0.13736418
173	0xbcafbc27	-0.021452023
174	0x3e2303f1	0.15919472
175	0xbdd9cd79	-0.10634894
176	0xbe660b82	-0.22465327
177	0x398b21e0	0.00026537385
178	0xbc223637	-0.009900621
179	0xbe43b957	-0.1911367
180	0x3dd626dc	0.104566306
181	0x3d85fcf1	0.06542385
182	0xbd5490f2	-0.051896043
183	0x3e0b4968	0.13602221
184	0x3d83c67a	0.06434341
185	0x3db7aec1	0.089688785
186	0x3c900585	0.017580757
187	0x3df0b850	0.11753905
188	0xbdccc13f	-0.09997796
189	0xbd72c341	-0.05926824
190	0x3d26b50b	0.0407
191	0xbd84de90	-0.06487763
192	0xbe1d10d9	-0.15338458
193	0x3b324b6c	0.00272056
194	0x3dcb4155	0.099245705
195	0xbe9dd1d0	-0.30824137
196	0x3e5c013e	0.21484849
197	0x3da5814e	0.080813035
198	0x3e0959a0	0.13413095
199	0x3cfbaa27	0.030720783
200	0xbe2b102f	-0.16705392
201	0xbdf40286	-0.11914544
202	0xbd9545be	-0.07288693
203	0x3de30b98	0.11086196
204	0xbe388287	-0.18018542
205	0xbd9d92cd	-0.07694016
206	0x3d68173c	0.056662783
207	0x3c92d45e	0.01792353
208	0x3cbb4a75	0.022862652
209	0x3d019b81	0.03164244
210	0x3ec66581	0.38749316
211	0xbdaabebf	-0.08337163
212	0xbd528cd8	-0.05140385
213	0x3e6d6749	0.23183931
214	0x3d1f1663	0.03883971
215	0xbcca10fa	-0.024666298
216	0x3de5e078	0.11224455
217	0xbe873925	-0.26410785
218	0xbc57cd76	-0.013171544
219	0x3c4870a0	0.012233883
220	0xbcd9829c	-0.026551537
221	0xbd9065cd	-0.07050667
222	0x3db28e3c	0.08718535
223	0x3d7fed20	0.062482
224	0xbcef835a	-0.029237438
225	0xbdc7d50d	-0.09757433
226	0xbda7ad31	-0.081873305
227	0xbdb93420	-0.09043145
228	0x3d6a470b	0.057196658
229	0xbd2e3c20	-0.04253781
230	0x3e71a1cb	0.23596875
231	0xbc8397f4	-0.016063668
232	0xbe29e7a7	-0.16592275
233	0xbc187dd0	-0.00930734
234	0xbc436cea	-0.011927823
235	0x3e206659	0.15664043
236	0xbced008a	-0.028930921
237	0xbd8616f5	-0.065473475
238	0x3b508c8f	0.003182206
239	0xbd9172aa	-0.071019486
240	0x3da78110	0.081789136
241	0x3d9685db	0.0734975
242	0xbdb98107	-0.09057813
243	0x3be34309	0.0069354814
244	0xbe26996d	-0.16269465
245	0xbe3ae4b5	-0.18251307
246	0x3d69688a	0.05698446
247	0x3dbe6d79	0.09298224
248	0x3d85a7e5	0.06526164
249	0x3e0d190e	0.13779089
250	0x3dcf4b4a	0.10121782
251	0xbd68c47a	-0.056828
252	0x3d241018	0.04005441
253	0xbddc2e14	-0.10750976
254	0xbd18c67d	-0.03729867
255	0xbd71c777	-0.059028115

_hidden_layers.1._model.0.bias f4 [80]
0	0xbc87d000	-0.016578674
1	0xbcfb9ce4	-0.03071446
2	0x3cd00aa6	0.025395703
3	0x3d7b402a	0.06134049
4	0x3c04293e	0.0080664735
5	0x3c00787c	0.007841226
6	0x3cacaae5	0.021077583
7	0x3c9d3293	0.019189155
8	0xbc5f1bbf	-0.013617455
9	0xbc83cd46	-0.016089093
10	0x3d6ca755	0.057776768
11	0xbcd863a5	-0.026414702
12	0x3c9d1a7f	0.019177673
13	0x3de7811d	0.11303923
14	0x3d743701	0.05962277
15	0x3d69202e	0.056915455
16	0xbcac4f16	-0.021033805
17	0xb9d296b3	-0.000401666
18	0x3e9273f7	0.286041
19	0xbcaa7eb6	-0.020812374
20	0xbd5a3331	-0.053271476
21	0x3dd8da7c	0.105885476
22	0xbcd3ee1b	-0.025870373
23	0x3d8d1dd3	0.06890454
24	0x3d07b6a4	0.033133164
25	0xbc17cd7e	-0.009265302
26	0x3a691ad4	0.00088922423
27	0x3c6e988b	0.014562736
28	0xbd4d7037	-0.050155845
29	0xbae50a6b	-0.0017474418
30	0x3d6c787c	0.05773209
31	0x3d1b8032	0.037964053
32	0x3d7263dd	0.05917727
33	0x3d6cd115	0.057816584
34	0xbd84c667	-0.06483155
35	0x3cbbf512	0.022944007
36	0xbc7d5148	-0.0154612735
37	0xbdffc3c2	-0.1248851
38	0xbcf10c3b	-0.029424777
39	0x3d447b00	0.047968864
40	0xbcb6e6b1	-0.0223268
41	0xbb0c5912	-0.0021415395
42	0xbd095af4	-0.033534005
43	0xbd948180	-0.07251263
44	0x3d6d6a29	0.05796257
45	0x3d74cd8e	0.059766345
46	0xbd431acf	-0.04763299
47	0x3cc0589a	0.023479749
48	0x3caed66d	0.02134248
49	0x3c3c584c	0.011495661
50	0x3da21c28	0.07915527
51	0xbd53cca5	-0.051708836
52	0xba462870	-0.0007559126
53	0x3c3ac7e8	0.0114002
54	0xbcf60203	-0.030030256
55	0x3c394b37	0.0113094365
56	0xbd70ccf4	-0.05878921
57	0x3befb80d	0.0073156417
58	0xbc696d79	-0.014247292
59	0x3d860b6a	0.06545146
60	0xbe820d4a	-0.25400764
61	0x3d34dfb5	0.044158656
62	0x3c8f5b37	0.01749955
63	0x3c11cca8	0.0088988915
64	0x3d0a5188	0.03376916
65	0x3c3210d6	0.010868272
66	0xba928959	-0.0011179849
67	0x3c9115d5	0.017710606
68	0xbd5e90d6	-0.054337345
69	0xbd0e20cc	-0.034699246
70	0x3cbacfc3	0.022804147
71	0xbc9aa608	-0.018877998
72	0xbce23253	-0.027611887
73	0x3b0f4c00	0.0021865368
74	0x3cc8912c	0.024483286
75	0xbd7b06c3	-0.061285745
76	0xbccb5c38	-0.024824247
77	0xbbd7acfd	-0.006581901
78	0xbde3edc0	-0.111293316
79	0xbcf4e5ce	-0.029894736
