rllib/models/latest_BluePlayer - Copy.onnx (onnx, 34035 bytes, 6 tensors)

_logits._model.0.weight f4 [4, 80]
0	0xbc5fe8ba	-0.013666326
1	0x3cab5ab8	0.020917282
2	0x3c14a140	0.009071648
3	0x3d1fd7d6	0.039024197
4	0x3c2def82	0.010616185
5	0x3b16e88b	0.002302679
6	0xbad87840	-0.001651533
7	0x3a669def	0.00087973377
8	0xbca5c472	-0.020235274
9	0xbd737f76	-0.059447728
10	0x37c8389f	2.3868224e-05
11	0x3c25cfca	0.010120342
12	0xbaacab9f	-0.0013173706
13	0x3c1bb07e	0.009502528
14	0x3c36174e	0.011113955
15	0x3cf28af1	0.029607268
16	0xbc8b16e3	-0.016978687
17	0x3b6b7916	0.0035930327
18	0x3d44e394	0.048068598
19	0xbd093d14	-0.033505514
20	0x3c405e34	0.01174121
21	0x3a458888	0.00075352984
22	0xbdd526fc	-0.10407826
23	0x3c3fb8ef	0.011701806
24	0xbc2bb1aa	-0.01047937
25	0x3a4c30d2	0.0007789257
26	0xbcfffbc8	-0.031247988
27	0xbbea1afd	-0.0071443305
28	0x3d463854	0.048393562
29	0xbc4515e0	-0.012029141
30	0xbb9a0a36	-0.0047009243
31	0xbcf0de12	-0.029402766
32	0x3b160b9a	0.0022895099
33	0xb996e430	-0.00028780242
34	0xbaa6f0a5	-0.0012736513
35	0x3c252589	0.01007975
36	0x3da3efcd	0.08004723
37	0xbc0951c8	-0.008381315
38	0xbacc7def	-0.0015601496
39	0xbbf78ff1	-0.007555001
40	0x3b1d8c62	0.0024039974
41	0xbd54745b	-0.051868778
42	0xbd4903ef	-0.049076017
43	0xba83cb44	-0.0010055085
44	0x3a823b26	0.000993584
45	0xbc78c343	-0.015183273
46	0x3c89cb65	0.016820619
47	0xba2b39c9	-0.0006531743
48	0x3aa61ecf	0.0012673977
49	0x3b101332	0.0021984098
50	0x3a568629	0.00081834436
51	0x3b89af52	0.004201808
52	0x389cc328	7.47501e-05
53	0x3b1178af	0.0022197177
54	0x3d1c15d7	0.038106766
55	0x3cd7335f	0.026269613
56	0xba0b0967	-0.000530383
57	0xb93cbb9b	-0.00017998966
58	0x3c286296	0.010277411
59	0xba42f3bc	-0.0007436832
60	0xba9ddabe	-0.001204334
61	0xba0baf23	-0.00053285266
62	0xbd563043	-0.05229212
63	0x39bcb247	0.0003599098
64	0x3d4ba6b2	0.04971952
65	0x3a935084	0.0011239205
66	0x3c9cb70c	0.019130252
67	0x3a6d25bc	0.00090464554
68	0xbcba4442	-0.022737626
69	0x3ac69e0c	0.0015153303
70	0x39d3b7f0	0.000403821
71	0x3d54f36f	0.05198997
72	0xbb351557	-0.0027631128
73	0x3a498917	0.00076879695
74	0xbd83fbb2	-0.064444914
75	0x3acbd368	0.0015550675
76	0x3a9a4a18	0.0011771349
77	0xba83c4ba	-0.0010053136
78	0xbc58a6d8	-0.013223372
79	0x3d05100e	0.032486014
80	0xbdfd91b7	-0.123813085
81	0xbd10860e	-0.035284095
82	0x3ddaabd5	0.106773056
83	0x3c9a173d	0.018809909
84	0x3b1ca60d	0.0023902685
85	0xbbc3ea3c	-0.0059788506
86	0x3b99e3f4	0.0046963636
87	0xba58e172	-0.000827334
88	0xbc5aee0f	-0.013362422
89	0x3d8e573a	0.06950231
90	0xbaebb6eb	-0.0017983591
91	0xbc943f61	-0.018096628
92	0xbd1521bb	-0.03640912
93	0xbcaa966d	-0.020823682
94	0x3cce43ad	0.025178755
95	0xbaa2ec22	-0.0012429992
96	0xbd455a29	-0.048181687
97	0x3c9fa83c	0.0194894
98	0x3c5bf34f	0.0134247085
99	0xbca00f7d	-0.019538635
100	0xbd2002d9	-0.039065216
101	0xbaf64e34	-0.0018791617
102	0x3bb150b3	0.0054112314
103	0x3d486687	0.048925903
104	0xbcd1d2c6	-0.0256132
105	0x3af5ce37	0.0018753473
106	0xbe87c2fe	-0.26515955
107	0x3b95865e	0.004563137
108	0xbc605d62	-0.013694139
109	0xb9fcbd1d	-0.00048206086
110	0x3c7f3acc	0.015577983
111	0xbe8ddd1a	-0.2770775
112	0xbb85fd54	-0.004089037
113	0xba2a5d87	-0.0006498922
114	0x3a3e8f16	0.0007269246
115	0x3daf102c	0.085480064
116	0x38602f03	5.3449545e-05
117	0x3c8f9fba	0.017532218
118	0xba2b0ef0	-0.0006525358
119	0xbc383845	-0.011243884
120	0x3b4a7eb7	0.0030898282
121	0xbd25b497	-0.040455427
122	0x3c8488f1	0.01617858
123	0x3c2cd29b	0.010548259
124	0x3ab75fe6	0.0013990372
125	0x3d28a673	0.041174363
126	0xbb599554	-0.0033200579
127	0x3b72fef5	0.0037078236
128	0xbab81936	-0.0014045599
129	0x3b5bd27a	0.0033542202
130	0xb9c4916d	-0.00037492384
131	0xbc0b3736	-0.00849705
132	0xbb03a23f	-0.002008572
133	0xba2d53d2	-0.00066119165
134	0xbd4b8968	-0.049691588
135	0xbd332993	-0.04374082
136	0x3b75711b	0.003745145
137	0xbba20853	-0.00494484
138	0xbc3e813f	-0.011627494
139	0x3b389ec2	0.00281708
140	0xbbb5cc7a	-0.005548057
141	0xbc5c0d5f	-0.013430922
142	0x3d6be380	0.057590008
143	0xbb8a4a45	-0.0042202794
144	0xbcb730f9	-0.02236222
145	0x3b56121c	0.0032664603
146	0xbc9754dc	-0.018473081
147	0xbae657f4	-0.001757382
148	0x3d231e13	0.039823603
149	0xb9291aa7	-0.00016127025
150	0x3a3cdc3d	0.0007204449
151	0xbd0bb1d9	-0.034105156
152	0x3b43cb74	0.0029875906
153	0xbb7c255e	-0.003847442
154	0xbd8124c9	-0.06305844
155	0x3b3ce274	0.00288215
156	0x3b5516e1	0.0032514858
157	0x3af7cb9c	0.0018905285
158	0x3c7b1eb3	0.0153271435
159	0x3d7fd7cd	0.062461663
160	0x3e0162e4	0.1263538
161	0x3e0dc745	0.13845547
162	0xbd8a0dcc	-0.06740913
163	0xbe59aee2	-0.21258119
164	0x3e455d55	0.19273885
165	0x3e3d0ebc	0.18462652
166	0xbd84f080	-0.06491184
167	0x3bfd6a31	0.0077336063
168	0xbe49e94b	-0.197179
169	0x3e32df14	0.1746791
170	0xbc80d3f7	-0.015726073
171	0x3db36d9c	0.08761141
172	0x3e1c12d6	0.1524156
173	0x3d95ea23	0.07320049
174	0xbe4b1273	-0.19831257
175	0xbe28bf40	-0.16479206
176	0xbd8d9c4b	-0.06914576
177	0x3e0b8f2e	0.13628837
178	0xbe2356b0	-0.15951037
179	0x3e2cc56c	0.16872185
180	0x3dfdbde7	0.123897366
181	0xbca248c9	-0.019810097
182	0x3e3d45b6	0.18483624
183	0x3eaa375b	0.33245358
184	0xbe3ea599	-0.18617858
185	0x3c8def3c	0.01732599
186	0x3de1f9c2	0.11033966
187	0xbd863fb2	-0.06555118
188	0xbe66b199	-0.22528686
189	0xbd0e47a4	-0.03473629
190	0xbd6ef242	-0.058336504
191	0xbe3888d4	-0.18020946
192	0x3c44576f	0.011983736
193	0x3d398753	0.04529507
194	0x3ce98150	0.028504044
195	0xbdad10f5	-0.084505
196	0xbd96f1d9	-0.073703475
197	0xbd7281bb	-0.059205752
198	0x3cdcd7f2	0.02695844
199	0xbd9eb61c	-0.07749578
200	0x3c6d1089	0.014469274
201	0x3e2d6ea8	0.16936743
202	0xbe1a5684	-0.15072066
203	0x3cadc463	0.021211809
204	0x3c81bc13	0.015836751
205	0xbe0e0cd4	-0.13872081
206	0xbea778f0	-0.32709455
207	0xbcc318fe	-0.023815628
208	0x3c6bcc4d	0.014391971
209	0xbe099d02	-0.134388
210	0xbb8c8abc	-0.0042889994
211	0x3d230b08	0.039805442
212	0xbccde12d	-0.025131786
213	0x3d5603b2	0.052249618
214	0xbe7d86d5	-0.24758466
215	0xbe5de1f6	-0.21668229
216	0xbcb31ff1	-0.021865817
217	0x3d007119	0.03135786
218	0x3de979a6	0.11400156
219	0xbe19c431	-0.15016247
220	0xbcfff2b8	-0.031243667
221	0xbde7b8d4	-0.1131455
222	0xbe51d821	-0.20492603
223	0xbe115cd9	-0.14195575
224	0xbe3fc310	-0.18726754
225	0x3ca6da05	0.020367632
226	0x3dc2be09	0.095089026
227	0x3d894be8	0.06703931
228	0x3d16e70d	0.03684144
229	0x3b8720d3	0.004123786
230	0xbd261e34	-0.040556148
231	0xbe2ee56c	-0.17079705
232	0xbbfa2c6f	-0.0076346914
233	0x3cdcb6e8	0.026942685
234	0x3dfe4534	0.12415543
235	0xbd4c8dab	-0.049939793
236	0xbd3b3dbe	-0.04571318
237	0xbbcdcc7d	-0.0062804804
238	0xbbe8261d	-0.0070846216
239	0xbea2593f	-0.31708714
240	0x3d686cea	0.056744494
241	0x3da24056	0.07922427
242	0x3d1beb77	0.038066354
243	0xbe2f15c0	-0.1709814
244	0x3dce3207	0.10068136
245	0x3d810c43	0.06301167
246	0xbbd29b86	-0.0064272312
247	0xbb490682	-0.0030674045
248	0xbe457955	-0.19284566
249	0x3e5c1cdc	0.21495384
250	0x3b93dcfa	0.0045124264
251	0x3d67f378	0.056628674
252	0x3d2e6522	0.042576917
253	0x3dcaa29d	0.09894297
254	0xbdf5ab0f	-0.119955175
255	0xbd94bbe9	-0.072624035

_logits._model.0.bias f4 [4]
0	0x3d9e9c5a	0.077446654
1	0x3cd5c3ea	0.026094396
2	0xbd702287	-0.058626678
3	0xbe0b1123	-0.13580756

_hidden_layers.0._model.0.weight f4 [80, 13]
0	0xbdc2afeb	-0.0950621
1	0x3e22f8bc	0.15915197
2	0x3ecbbe6e	0.39793724
3	0x3f011956	0.50429285
4	0xbe763cb1	-0.2404659
5	0xbe0a6ef4	-0.13518888
6	0x3e1bd485	0.15217789
7	0x3e4c9dcc	0.1998207
8	0x3ec8fc9a	0.3925522
9	0x3e3addaa	0.1824862
10	0xbe4cc292	-0.19996098
11	0x3ed01620	0.4064188
12	0x3ea4351d	0.32071772
13	0x3e27a1f1	0.1637037
14	0x3e0780b1	0.13232686
15	0x3e0d8fe6	0.13824424
16	0xbf1ea793	-0.6197445
17	0x3d73f0d5	0.059555847
18	0x3f28c9ab	0.6593272
19	0xbd7a6a2b	-0.061136406
20	0x3e9de477	0.30838367
21	0x3ea44e98	0.32091212
22	0xbf368b82	-0.7130662
23	0xbdd23e70	-0.10265815
24	0xbe270978	-0.16312206
25	0xbe7b6379	-0.24549665
26	0xbe689ac9	-0.22715296
27	0x3d708021	0.058715943
28	0x3d9f17c8	0.07768208
29	0x3f481802	0.78161633
30	0xbc6dcc2d	-0.014514011
31	0xbdc004a9	-0.09375889
32	0xbe4e4906	-0.20145044
33	0x3e868b90	0.26278353
34	0x3e9b56e6	0.30339736
35	0x3eb7481a	0.35797197
36	0x3e99e681	0.30058673
37	0x3f4036f3	0.75083846
38	0x3f3e1787	0.7425465
39	0xbe997e83	-0.29979333
40	0xbd3c445a	-0.045963623
41	0x3e815415	0.25259462
42	0x3d5ca15c	0.05386482
43	0xbe6510d0	-0.22369695
44	0xbe8d1c5f	-0.27560708
45	0xbd4bda37	-0.049768653
46	0xbdbe3f8b	-0.092894636
47	0x3f169ee0	0.58836174
48	0x3e7f38c7	0.24924003
49	0xbe196626	-0.14980373
50	0x3ec26802	0.37969977
51	0x3f707b46	0.939381
52	0xbe32bd1a	-0.17454949
53	0xbe874f26	-0.26427573
54	0xbdddad86	-0.108241126
55	0xbd16a16a	-0.03677503
56	0x3f1c9f61	0.6118069
57	0xbedbf733	-0.42962036
58	0x3ed08c92	0.40732247
59	0xbe76809f	-0.24072503
60	0xbea34c7e	-0.31894296
61	0x3f063ddf	0.5243816
62	0x3f301a51	0.68790156
63	0x3ecd43ba	0.40090734
64	0xbe51a459	-0.2047285
65	0x3ec00101	0.37500766
66	0xbd6cd70a	-0.057822265
67	0x3d94c41d	0.07263968
68	0xbdb55f53	-0.08856072
69	0xbe653af0	-0.22385764
70	0xbe9dd47b	-0.30826172
71	0x3f04b15d	0.51833135
72	0xbed74730	-0.420465
73	0x3e8ce7b0	0.27520514
74	0xbe03f88a	-0.12887779
75	0xbdbb75da	-0.09153338
76	0xbeabb980	-0.33539963
77	0x3f97ca3f	1.1858596
78	0x3e02868c	0.12746638
79	0x3dd95317	0.10611551
80	0x3eae2292	0.3401075
81	0xbf8aa7a2	-1.0832407
82	0xbe835a0e	-0.25654644
83	0x3ee46a89	0.4461253
84	0xbdaa0a97	-0.08302801
85	0x3e8dbc39	0.27682665
86	0xbe53032e	-0.20606682
87	0x3dc232b9	0.09482331
88	0xbeb9c543	-0.3628331
89	0x3c570d72	0.013125764
90	0xbecf6e35	-0.4051377
91	0x3e052c91	0.13005282
92	0xbe80d4ba	-0.25162297
93	0x3df079bc	0.11741969
94	0x3f7af37a	0.98027766
95	0xbeef0f16	-0.46691197
96	0x3ed0d65c	0.40788543
97	0xbd8aab3d	-0.06770942
98	0x3e7b9753	0.24569444
99	0x3c8f6a9e	0.017506894
100	0xbe164615	-0.14675172
101	0xbe8f1ef8	-0.27953315
102	0xbf188785	-0.59581786
103	0xbe2075ce	-0.15669939
104	0x3de43fc7	0.11144977
105	0xbd45301f	-0.048141595
106	0x3e99197d	0.2990226
107	0x3f797a86	0.9745258
108	0x3eff0be2	0.49813753
109	0x3e4159ad	0.18881865
110	0xbd699ece	-0.057036214
111	0xbed0925a	-0.40736657
112	0xbdc942e0	-0.098272085
113	0xbea7fc47	-0.3280966
114	0x3e4389c0	0.19095516
115	0x3d8fe648	0.070263445
116	0xbe0541ed	-0.1301343
117	0xbe6dd944	-0.23227412
118	0x3ec57787	0.38567755
119	0x3d73cd68	0.059522063
120	0x3eacbb81	0.33736804
121	0xbe3751a2	-0.17902234
122	0xbdf090e3	-0.11746385
123	0x3eb7363e	0.3578357
124	0x3e875b09	0.26436642
125	0xbda02db0	-0.07821214
126	0x3f1661d5	0.5874303
127	0xbe0d0a8d	-0.13773556
128	0x3f28092c	0.65638995
129	0xbd5f9e70	-0.054594457
130	0x3dc227cf	0.09480249
131	0xbd74244c	-0.059604928
132	0x3e9f926c	0.311664
133	0xbebae1f7	-0.36500522
134	0xbe335bf5	-0.17515548
135	0xbd889bee	-0.06670366
136	0xbef3911e	-0.47571653
137	0x3e43e80c	0.19131488
138	0x3ef8bcfc	0.48581684
139	0xbef5ebcd	-0.48031464
140	0xbe091970	-0.1338861
141	0xbf265584	-0.64974236
142	0x3ea0ad9a	0.31382447
143	0x3dba9c34	0.09111825
144	0xbf0d2050	-0.5512743
145	0xbe1e13fe	-0.15437314
146	0xbb42bc2b	-0.0029714208
147	0xbecf25b4	-0.40458453
148	0x3ef3e178	0.47632957
149	0xbf37eba6	-0.71843946
150	0xbd7a9703	-0.061179172
151	0x3e57fc5f	0.21092366
152	0x3f2622d5	0.648969
153	0xbd9a92a5	-0.075475015
154	0xbe358ee0	-0.17730284
155	0xbe8d52d2	-0.2760225
156	0xbdbd950a	-0.092569426
157	0xbd11641b	-0.03549586
158	0xbebcd87f	-0.36883923
159	0xbd08dc80	-0.03341341
160	0x3f01677c	0.5054853
161	0xbe97c7e0	-0.2964468
162	0x3f254eae	0.6457318
163	0xbea389cd	-0.3194107
164	0xbe3959ed	-0.1810071
165	0xbefdf4eb	-0.4960092
166	0x3ed5db8d	0.41769066
167	0x3ecc876f	0.39947078
168	0x3e1a4a97	0.15067516
169	0x3d935f6c	0.07195935
170	0x3e51a350	0.20472455
171	0xbe52faa5	-0.20603426
172	0x3d567794	0.052360132
173	0xbe7643a2	-0.24049237
174	0xbd1851f6	-0.03718754
175	0x3f6bc307	0.92094463
176	0x3e4780a5	0.19482668
177	0x3e29d076	0.16583428
178	0x3f49a1e1	0.7876263
179	0x3ebd906e	0.37024254
180	0x3e3a4787	0.18191348
181	0xbe474533	-0.19459991
182	0x3dba3835	0.09092752
183	0x3d837f5f	0.064207785
184	0xbe017fa0	-0.12646341
185	0xbeb96eb8	-0.36217284
186	0xbebd3174	-0.36951792
187	0xbe2e6adb	-0.1703295
188	0x3e04a74e	0.12954447
189	0x3d1a17e2	0.037620433
190	0x3e60b72b	0.21944873
191	0x3f841e35	1.0321718
192	0xbf3b2f6b	-0.7311923
193	0xbeb0a842	-0.3450337
194	0x3d09539e	0.03352701
195	0xbf041989	-0.51601464
196	0x3e02cee6	0.12774238
197	0xbebd81c2	-0.3701306
198	0xbeba7709	-0.36418942
199	0xbdc4bc44	-0.09606221
200	0x3f032b65	0.5123809
201	0x3da9eb11	0.082967885
202	0xbd853eb5	-0.06506101
203	0x3ce93c33	0.028471088
204	0x3e46a547	0.19398986
205	0x3ec6b2e0	0.38808346
206	0x3e0ce640	0.13759708
207	0xbf81e590	-1.0148182
208	0xbe58f78d	-0.21188183
209	0x3e31f205	0.1737748
210	0xbd9c0c2a	-0.076195076
211	0xbd67b719	-0.0565711
212	0xbdfb0b10	-0.122579694
213	0x3e058dd6	0.13042387
214	0xbf39b892	-0.72547257
215	0xbee60a9e	-0.44929975
216	0x3f23ced2	0.6398746
217	0xbe117c45	-0.14207561
218	0xbf8bc373	-1.0919021
219	0xbe9ed29c	-0.31020057
220	0x3e53a73e	0.20669267
221	0x3dd766d8	0.10517663
222	0xbe9fd5dd	-0.31217852
223	0xbe720a30	-0.23636699
224	0xbd89ba94	-0.0672504
225	0xbee0c7cf	-0.43902442
226	0xbe5df62d	-0.2167594
227	0xbf2d47d3	-0.6768772
228	0x3e80ffc5	0.25195137
229	0xbe961be6	-0.2931816
230	0x3e7369fe	0.23770902
231	0x3e752e20	0.23943377
232	0xbea2a21b	-0.31764302
233	0xbe476edc	-0.19475883
234	0xbd9fc201	-0.07800675
235	0xbebbbd01	-0.36667636
236	0xbe3a33de	-0.18183848
237	0x3ed8509a	0.42248994
238	0xbcd18f33	-0.025580978
239	0x3e04a85b	0.12954848
240	0xbdf707b4	-0.12062016
241	0xbb0892ab	-0.0020839374
242	0xbdeb4753	-0.114882134
243	0x3f6e33be	0.930477
244	0xbe40633c	-0.18787855
245	0x3f0a00ef	0.53907675
246	0xbe972dc7	-0.29527113
247	0x3e398c45	0.18119915
248	0xbda708a4	-0.08155945
249	0xbcaf9106	-0.021431457
250	0x3e9130c3	0.28357515
251	0xbea8267f	-0.3284187
252	0x3d0a2cd3	0.033734154
253	0xbf0cf596	-0.55062234
254	0x3f2a2d86	0.66475713
255	0x3c93af42	0.018027905

_hidden_layers.0._model.0.bias f4 [80]
0	0x3e01ee78	0.12688625
1	0xbddeecff	-0.10885047
2	0x3d7b8c5f	0.061413165
3	0xbd875488	-0.0660792
4	0x3d0c429e	0.03424322
5	0xbd7ae317	-0.061251726
6	0xbdcd92f4	-0.10037795
7	0xbe1063f9	-0.14100637
8	0xbc6bd18a	-0.01439322
9	0x3d45e226	0.048311375
10	0x3d5eac02	0.05436326
11	0xbd5d882c	-0.05408494
12	0x3c7fb6d8	0.015607558
13	0xbdbfc8e5	-0.093644895
14	0xbcd0cefb	-0.025489321
15	0xbde904fc	-0.11377904
16	0x3d8e773b	0.06956335
17	0x3d7233bc	0.05913137
18	0xbbc9710f	-0.006147511
19	0x3cd0012b	0.025391182
20	0x3bb9ede7	0.005674112
21	0xbcdf083d	-0.027225608
22	0x3bb1054a	0.005402242
23	0x3bab7cb8	0.0052333735
24	0xbdc190ad	-0.09451423
25	0x3cca5fa5	0.02470381
26	0x3d5bf44f	0.053699788
27	0x3e1bcba0	0.15214396
28	0xbdc3da03	-0.09563067
29	0x3d24f80f	0.04027563
30	0xbdc0633f	-0.0939393
31	0xbdf04fc6	-0.117339656
32	0x3c8fdc98	0.017561242
33	0x3e3885a7	0.18019734
34	0x3c339722	0.010961326
35	0x3c9c7c03	0.019102102
36	0xbdb82b3e	-0.08992623
37	0xbd21607e	-0.039398663
38	0x3dc5dadf	0.09660887
39	0x3e190560	0.14943457
40	0x3d54cd55	0.051953632
41	0xbd5642a7	-0.05230966
42	0xbd9fdf08	-0.07806212
43	0xbd140130	-0.036133945
44	0xbdb000a4	-0.08593872
45	0xbc29057f	-0.010316252
46	0xbdd35c70	-0.103203654
47	0xbd28824a	-0.04113988
48	0xbc6d5a7b	-0.014486904
49	0x3b14e6ec	0.0022720648
50	0xbdeee6f9	-0.11665148
51	0x3c9946be	0.01871049
52	0x3daa7503	0.083230995
53	0xbb9351bd	-0.004495828
54	0xbd2c8c13	-0.042125773
55	0x3d86276c	0.06550488
56	0x3dc9f1bb	0.098605596
57	0x3dc746f6	0.097303316
58	0x3d702813	0.058631968
59	0x3dc40090	0.0957042
60	0xbdc4a53a	-0.09601827
61	0x3d37b8ab	0.044853847
62	0x3bcccfa1	0.006250337
63	0xbd37df1f	-0.04489052
64	0xbdcff307	-0.10153776
65	0x3da421b7	0.08014243
66	0x3cb8ae08	0.022543922
67	0xbc7d251b	-0.015450741
68	0x3d8f9400	0.07010651
69	0xbd5d1787	-0.053977516
70	0xbd87e3d2	-0.0663525
71	0x3db363b8	0.08759254
72	0xbd851e1d	-0.06499884
73	0xbd78bdc8	-0.060727865
74	0xbca42a13	-0.020039594
75	0x3d9e469a	0.0772831
76	0x3c43b481	0.011944891
77	0x3d6b6111	0.057465617
78	0x3de4c1d1	0.1116978
79	0x3c668ba2	0.014071377

_hidden_layers.1._model.0.weight f4 [80, 80]
0	0xbdbaf7ae	-0.091292724
1	0xbd36bec8	-0.044615537
2	0xbddeb2de	-0.1087396
3	0x3d41b8ef	0.047295507
4	0x3e3673cd	0.17817612
5	0xbd6a1671	-0.057150308
6	0xbe023039	-0.12713708
7	0xbdd10076	-0.10205166
8	0xbe583159	-0.21112575
9	0x3d0468e8	0.03232661
10	0xbedb311c	-0.42810905
11	0x3d8a5dd0	0.067561746
12	0x3cef43c0	0.02920711
13	0x3ea6deda	0.32591897
14	0x3e95e925	0.29279438
15	0x3e46ba56	0.19407019
16	0xbd9ddc8b	-0.07708081
17	0x3db752c0	0.0895133
18	0x3ebaad28	0.36460233
19	0x3d17eb88	0.037089854
20	0x3d3ebc24	0.046566144
21	0x3e849738	0.2589662
22	0x3e23637c	0.15955919
23	0xbdfe374e	-0.12412892
24	0xbdbb61f4	-0.091495425
25	0x3ea175e2	0.3153525
26	0x3e225483	0.15852551
27	0xbda2bf54	-0.07946649
28	0xbcedd03d	-0.02902996
29	0x3da6f0f6	0.081514284
30	0xbd94944c	-0.07254848
31	0x3d517103	0.051133167
32	0x3dff5836	0.12467997
33	0xbceadd3f	-0.028669951
34	0x3ea000b0	0.31250525
35	0x3e522043	0.2052012
36	0x3e64b305	0.22333916
37	0xbe81e729	-0.25371674
38	0xbd614748	-0.05499962
39	0xbe0630a4	-0.13104492
40	0xbcb2dd15	-0.021833936
41	0x3e87f9ed	0.26557866
42	0x3d71cc35	0.059032638
43	0xbe31360d	-0.17305775
44	0xbe8647f5	-0.26226774
45	0x3e0ecdf6	0.13945755
46	0x3d424dbe	0.047437422
47	0x3ea3582c	0.31903207
48	0x3b82f9e0	0.0039970726
49	0xbe6ac5da	-0.22927037
50	0xbe3df74a	-0.18551365
51	0x3db0e4e6	0.08637409
52	0x3d4249d1	0.047433678
53	0xbd9a4d59	-0.07534284
54	0x3c930cb4	0.017950393
55	0xbb4e922c	-0.003152023
56	0x3e93a6ac	0.28838098
57	0xbd9019ef	-0.070361964
58	0xbdf111f8	-0.117710054
59	0xbe92c888	-0.28668618
60	0xbdc96970	-0.09834564
61	0xbe98a880	-0.29816055
62	0xbde37390	-0.11106026
63	0x3e12832d	0.14307852
64	0x3da8cb03	0.082418464
65	0xbdce51d6	-0.10074203
66	0x3e110654	0.1416257
67	0xbd355192	-0.044267245
68	0x3e188be7	0.14897119
69	0xbda5240c	-0.08063516
70	0x3e303672	0.17208269
71	0x3ef8067d	0.4844245
72	0xbd8f8b29	-0.070089646
73	0x3e85b42b	0.2611402
74	0x3e118df4	0.14214307
75	0x3ca637b5	0.020290235
76	0xbd1304f1	-0.035893384
77	0x3e10358b	0.14082925
78	0xbe08b2e9	-0.13349499
79	0x3e9d5ae1	0.30733398
80	0x3dc85402	0.09781648
81	0xbe3371bb	-0.17523853
82	0x3e5d706b	0.21624915
83	0xbe10d28b	-0.14142816
84	0x3dd9a2b8	0.10626739
85	0x3be6e47d	0.007046281
86	0x3d22572f	0.039633926
87	0xbda4d228	-0.080478966
88	0x3db645fe	0.08900069
89	0x3d0f6118	0.035004705
90	0xbda5a8b1	-0.08088816
91	0x3dac68bc	0.08418414
92	0x3dfe5601	0.12418748
93	0xbd1ce794	-0.038306788
94	0xbe276bb7	-0.16349684
95	0xbde0d483	-0.109780334
96	0x3c3e69a3	0.011621865
97	0xbd05d937	-0.032677855
98	0x3e11cedc	0.14239067
99	0x3d8e3c8c	0.06945142
100	0x3dd8637f	0.105658524
101	0xbe2d6a16	-0.16935
102	0x3d35d3c6	0.044391416
103	0x3d875ca2	0.06609465
104	0xbdbb89ea	-0.091571644
105	0xbbb72010	-0.005588539
106	0x3de84a20	0.11342263
107	0x3e35d9d7	0.1775888
108	0x3db10393	0.0864326
109	0xbd82d83c	-0.063889
110	0xbcab35cc	-0.020899676
111	0x3cf1eee8	0.029532865
112	0xbe1f5fac	-0.1556384
113	0x3e514271	0.20435502
114	0x3e03d279	0.12873258
115	0x3d99d84c	0.075119585
116	0xbd80fa1b	-0.06297704
117	0xbdd2e2de	-0.10297178
118	0x3e5d1fac	0.21594113
119	0x3d90a711	0.070631154
120	0x3dde05f3	0.108409785
121	0xbd4876bd	-0.048941363
122	0xbe433be7	-0.1906582
123	0x3ed6609d	0.41870585
124	0x3d2135fd	0.039358128
125	0xbddb01fe	-0.10693739
126	0xbc53c31a	-0.012924934
127	0xbc25f5ae	-0.010129375
128	0xbdd014cf	-0.10160219
129	0xbe3ca1c7	-0.18421088
130	0xbe3a3f7e	-0.18188283
131	0x3eb54d8b	0.35410723
132	0x3e407629	0.18795075
133	0x3e3a1212	0.18170956
134	0xbdf10024	-0.11767605
135	0x3e40c060	0.18823385
136	0xbce827a9	-0.028339224
137	0x3d6a722b	0.057237785
138	0x3d151300	0.036395073
139	0xbd4a886b	-0.049446505
140	0xbc2fe877	-0.010736576
141	0x3e830709	0.25591305
142	0xbdd7c446	-0.10535483
143	0xbda3b1f8	-0.07992929
144	0x3e16766c	0.14693612
145	0x3e579c65	0.21055754
146	0xbe5166c6	-0.20449361
147	0xbd8944e7	-0.06702595
148	0x3e16c72f	0.1472442
149	0xbc339006	-0.010959631
150	0xbe0ed6b9	-0.13949098
151	0xbd629066	-0.05531349
152	0xbe0b642c	-0.13612431
153	0x3e5be496	0.21473917
154	0x3d810a56	0.063007995
155	0xbc33875d	-0.010957566
156	0x3d4645ec	0.048406526
157	0x3e0ea89a	0.13931504
158	0x3d12ee00	0.035871506
159	0x3c3f43cc	0.011673879
160	0x3e26b077	0.16278253
161	0xbc5f60aa	-0.013633886
162	0x3e7e70b4	0.2484768
163	0xbdd876b3	-0.10569515
164	0x3d872cc1	0.06600333
165	0x3e965e29	0.29368713
166	0xbe765c5d	-0.24058671
167	0x3e669669	0.22518314
168	0x3d7f04ce	0.06226044
169	0xbd7a4da1	-0.06110919
170	0x3e84b33b	0.25917992
171	0xbe831f9b	-0.2561005
172	0x3d451ba1	0.048122052
173	0x3d6deafe	0.058085434
174	0xbd50fe8d	-0.05102401
175	0xbe0f1dad	-0.13976164
176	0xbddb95e1	-0.107219465
177	0xbde83a86	-0.113392875
178	0x3a85342e	0.0010162645
179	0xbd2451a3	-0.040116917
180	0x3cb1d7e0	0.021709383
181	0x3e25fd40	0.16209888
182	0xbde9c3ef	-0.114143245
183	0x3e28ffb0	0.16503787
184	0x3d75c37f	0.060000893
185	0xbe91625a	-0.2839535
186	0xbdaf0535	-0.08545915
187	0x3cf34647	0.029696597
188	0x3e8724d1	0.26395276
189	0xbea1533f	-0.31508824
190	0x3d92f128	0.07174903
191	0x3cff8581	0.03119159
192	0xbbee6c3c	-0.007276086
193	0xbeab586c	-0.33465898
194	0xbd91ff79	-0.07128806
195	0xbe0423bf	-0.12904261
196	0xbe23df1a	-0.16003075
197	0x3e1d1471	0.15339829
198	0xbe4bf013	-0.199158
199	0xbd800a44	-0.06251958
200	0xbda659ad	-0.08122573
201	0xbe522ded	-0.20525332
202	0x3e4746de	0.19460627
203	0x3dc6815a	0.096926406
204	0x3e0f1ab8	0.13975036
205	0xbd839b19	-0.06426067
206	0x3cac28f9	0.021015631
207	0xbe8e71be	-0.27821153
208	0xbe0592d2	-0.13044289
209	0x3e3a93d7	0.18220459
210	0x3e4077a0	0.18795633
211	0xbe2a70e8	-0.16644633
212	0xbe8adaf8	-0.27120185
213	0x3e1e4113	0.15454511
214	0x3e6596d7	0.22420822
215	0x3d1b22ff	0.03787517
216	0xbdca7926	-0.098863885
217	0xbe427237	-0.18988882
218	0x3edb8ba8	0.42879987
219	0x3da87989	0.08226306
220	0x3e09c93b	0.1345567
221	0x3df9de02	0.12200548
222	0xbe224119	-0.15845145
223	0x3d17d12a	0.03706471
224	0x3ccc216a	0.024918277
225	0x3d6bb8f1	0.05754942
226	0xbe017333	-0.12641601
227	0x39dd877a	0.00042253343
228	0x3cc4b0c8	0.024010077
229	0x3e5fe6db	0.21865408
230	0x3d10fa46	0.03539493
231	0xbeb071ae	-0.3446173
232	0x3e1a9266	0.15094909
233	0xbe45d707	-0.19320308
234	0xbdd4bdd3	-0.103877686
235	0xbd9b75be	-0.07590817
236	0x3c7316fd	0.014837024
237	0xbda910a8	-0.0825513
238	0x3deec382	0.11658384
239	0x3d83e075	0.06439296
240	0xbd4e7546	-0.05040481
241	0xbc04ea88	-0.008112557
242	0x3d704574	0.058659986
243	0xbe756cfb	-0.23967354
244	0xbd692388	-0.05691865
245	0x3ddd49c7	0.108050875
246	0xbd9062d4	-0.070501
247	0x3d561e26	0.052274846
248	0x3db4fade	0.088369116
249	0xbdc4a629	-0.09602005
250	0x3b43b272	0.0029861
251	0x3e71bc19	0.2360691
252	0xbe984260	-0.2973814
253	0xbe1a368a	-0.15059868
254	0xbc514bf1	-0.0127744535
255	0xbe6ec685	-0.23317917

_hidden_layers.1._model.0.bias f4 [80]
0	0xbcdf771e	-0.02727848
1	0x3d48b4d3	0.049000572
2	0xbd5146b2	-0.05109281
3	0x3e018e22	0.12651876
4	0xbc9df51e	-0.01928192
5	0x3d4b6525	0.049657006
6	0x3ce6f01f	0.02819067
7	0x3d3ffaee	0.046870165
8	0xbcbafb4d	-0.022824908
9	0xbe114159	-0.14185084
10	0xbcbfcbe7	-0.023412658
11	0x3d8168aa	0.06318791
12	0x3c37015c	0.011169758
13	0x3c8bbef9	0.017058836
14	0x3d2235a0	0.039601922
15	0x3d10ca36	0.035349093
16	0x3d659e09	0.056058917
17	0x3d1ee534	0.038792804
18	0x3e2760ad	0.16345473
19	0xbd2e49b0	-0.042550743
20	0xbc92cb2b	-0.017919144
21	0xbc082123	-0.008308682
22	0xbe1b362e	-0.15157387
23	0xbdfc1825	-0.12309293
24	0x3c83a795	0.01607112
25	0x3c517c09	0.01278592
26	0xbbf18b42	-0.007371337
27	0x3c5a120b	0.013309966
28	0x3e80389a	0.25043184
29	0xbd985105	-0.07437328
30	0x3cfa28bb	0.030537
31	0xbd209103	-0.039200794
32	0x3d9788e2	0.07399155
33	0xbbd3bc00	-0.0064616203
34	0xbaa1abf9	-0.0012334577
35	0xbd9bd2d9	-0.076085754
36	0x3de1b69a	0.110211566
37	0xbc893ee8	-0.016753629
38	0xbc6b0e4d	-0.014346671
39	0xbc4eb6a5	-0.012616788
40	0x3d084388	0.033267528
41	0xbd528d7f	-0.051404472
42	0xbcde7581	-0.02715564
43	0xbd8140ea	-0.063112095
44	0x3d138086	0.03601124
45	0xbdd63b0d	-0.10460482
46	0x3c601006	0.013675695
47	0x3c9a9451	0.01886955
48	0x3cb0381c	0.02151113
49	0x3db74f09	0.08950622
50	0x3cb43160	0.0219962
51	0x3d0780eb	0.03308193
52	0xbce553f0	-0.027994126
53	0x3cd4cb0d	0.025975728
54	0x3dd065c2	0.10175659
55	0x3d8fa911	0.07014669
56	0xbca086fe	-0.01959562
57	0x3d3a754e	0.045522027
58	0x3cc6d3ee	0.024270978
59	0xbd7cb026	-0.061691426
60	0x3c3da2d0	0.011574462
61	0xbab6a0fc	-0.0013933475
62	0xbdc8762e	-0.09788166
63	0xbd875ff0	-0.066100955
64	0x3daee38b	0.08539494
65	0x3c51beff	0.012801885
66	0x3da971ca	0.08273657
67	0xbc16285a	-0.009164894
68	0xbdb07830	-0.08616674
69	0x3c5b989f	0.013403087
70	0x3d15ecd8	0.036602825
71	0x3dae911e	0.08523773
72	0x3cb4f2a8	0.022088364
73	0xbccb279e	-0.024799164
74	0xbdbc8711	-0.092054494
75	0xbc26ccbc	-0.010180648
76	0xbbe45f98	-0.0069694035
77	0xbba87ec5	-0.005142065
78	0xbcbac514	-0.022799052
79	0x3cba4764	0.02273912
