rllib/models/model.onnx (onnx, 33884 bytes, 6 tensors)

_logits._model.0.weight f4 [4, 80]
0	0x3ccdf743	0.025142318
1	0x3972d5e8	0.00023158605
2	0xbb3725f8	-0.0027946215
3	0x3d92072b	0.071302734
4	0x3b523b6b	0.0032078873
5	0x3a39f07b	0.00070930243
6	0xba2ab083	-0.00065112876
7	0x39ecfb37	0.00045200597
8	0xbbd947f5	-0.0066308924
9	0xbdadf75d	-0.084944464
10	0xba620873	-0.0008622475
11	0x399ab154	0.0002950529
12	0x3bc99611	0.0061519225
13	0x39cfe49c	0.00039652444
14	0xbb529041	-0.003212944
15	0x3a863202	0.0010238292
16	0xbc21dfd8	-0.009880029
17	0xb8848448	-6.31889e-05
18	0x3d4f1fb1	0.050567333
19	0x3a1b8e1a	0.00059339555
20	0x3987168c	0.00025766005
21	0x39fbd475	0.00048032744
22	0xbdea6e64	-0.114468366
23	0xbaa54f4e	-0.0012612136
24	0x3c4c9e42	0.0124889035
25	0xb9be2f47	-0.00036274848
26	0xbcd7f2a2	-0.026360814
27	0x3a78c6d8	0.0009490079
28	0x3da65ae9	0.081228085
29	0xb8ce74ef	-9.844626e-05
30	0xb96ca31e	-0.0002256748
31	0xbd673332	-0.056445308
32	0x3a27e12a	0.00064040965
33	0x389210a4	6.964922e-05
34	0xb8a2bdce	-7.760116e-05
35	0x3a5dc5ec	0.00084599736
36	0x3dbe7f09	0.09301574
37	0xba5e12fb	-0.0008471456
38	0xb951dac8	-0.00020013296
39	0x3a8bad17	0.0010656443
40	0xba3f7a64	-0.00073043094
41	0xbc73662c	-0.014855903
42	0xbce70816	-0.028202098
43	0x398028f4	0.00024444575
44	0xba574543	-0.000821192
45	0x3a806ccb	0.0009798048
46	0x3cafe855	0.02147309
47	0xb9f49f20	-0.00046657864
48	0x39680a11	0.00022128994
49	0xba644731	-0.0008708118
50	0xba43b45b	-0.0007465535
51	0xba3efd22	-0.00072856445
52	0x3a225986	0.00061931496
53	0xb98c2653	-0.00026731435
54	0x3d845eb0	0.06463373
55	0xba235369	-0.00062303856
56	0x3957e5fd	0.00020589675
57	0xba655932	-0.0008748948
58	0x38966e0e	7.173057e-05
59	0x3a7ae3d8	0.00095706945
60	0x3a5756e5	0.00082145474
61	0x3a3d2e48	0.0007216674
62	0xbc8de90d	-0.017323041
63	0xbad72d5b	-0.0016416715
64	0x3cfceb5c	0.030873947
65	0x39b72159	0.00034929326
66	0xbb578f4d	-0.003289181
67	0x390d985c	0.00013503566
68	0xb99d2d93	-0.0002997933
69	0xb9e4530f	-0.00043549432
70	0xb9fc6b3c	-0.0004814508
71	0x3c64fe02	0.013976576
72	0xb8bc578b	-8.980845e-05
73	0x3a61fb98	0.0008620559
74	0xbc9d2c13	-0.019186055
75	0xbab69623	-0.0013930242
76	0x3b29bb5f	0.0025899035
77	0xba5817fb	-0.00082433195
78	0x39542510	0.00020231702
79	0xbd4ebd25	-0.05047335
80	0xbdbb5083	-0.09146216
81	0x3ab288d7	0.0013621104
82	0x3d2b0a50	0.04175788
83	0xbb90ee68	-0.0044229515
84	0xbb917bc2	-0.004439802
85	0xbae9bb57	-0.0017832321
86	0xba377157	-0.0006997785
87	0xba1c90e0	-0.0005972516
88	0x3a7895c0	0.00094827637
89	0x3dc55dc0	0.09637022
90	0xbadf7c2a	-0.0017050554
91	0x3adaf49b	0.0016704978
92	0xbbd7c9e7	-0.006585348
93	0xb9dfdc8f	-0.00042698203
94	0x3c17c46c	0.009263139
95	0x3a97907e	0.0011563448
96	0xbcc9ff74	-0.024657942
97	0x39c36284	0.00037266698
98	0xbb061a6f	-0.0020462533
99	0x3a8ffc0e	0.0010985152
100	0x3a746f7b	0.0009324473
101	0x39ea4674	0.0004468445
102	0x3d953d2f	0.072870605
103	0x3d576fab	0.05259673
104	0xbb84e14e	-0.0040551787
105	0x3a1ffae2	0.0006102753
106	0xbe8bed6e	-0.27329582
107	0x3ac2bfb7	0.0014858161
108	0xbd0614f3	-0.032734822
109	0xbb1cb349	-0.0023910573
110	0xba9be0dd	-0.0011892576
111	0xbe8beb65	-0.2732803
112	0x3ab0a371	0.0013476444
113	0xbaa38cfe	-0.0012477932
114	0x39894480	0.00026181713
115	0x3d12f4b9	0.035877917
116	0xbbfa2148	-0.007633362
117	0xbaa5829f	-0.0012627429
118	0x3a9255ed	0.0011164524
119	0xb9543473	-0.00020237434
120	0x3abd4ad9	0.0014441862
121	0xbd178937	-0.036996093
122	0x3d4f3262	0.05058516
123	0xb9375b24	-0.00017486193
124	0x3b87be58	0.004142564
125	0x3990af40	0.00027596392
126	0xbc5c7772	-0.013456212
127	0x3afb803a	0.0019187995
128	0x3a3ec860	0.0007277783
129	0xba594c5f	-0.0008289273
130	0xbae12c4a	-0.0017179337
131	0xbaf42a2b	-0.001862829
132	0xbb2c7f51	-0.0026321004
133	0xba4d58c4	-0.00078333565
134	0xbda0dd9c	-0.07854769
135	0xbd74e199	-0.05978546
136	0xbaa3805f	-0.0012474171
137	0xba8e3f42	-0.0010852593
138	0x39859967	0.0002548203
139	0x3a593ec2	0.0008287245
140	0x3a7fa5a2	0.0009752159
141	0x3a94b0b7	0.0011344169
142	0x3d971bdf	0.07378363
143	0x3ae7ac51	0.0017675256
144	0xbb9ceae6	-0.0047887443
145	0xba2d909b	-0.0006620974
146	0x3c10e3b4	0.008843351
147	0x3a76e462	0.0009418187
148	0xba5410c5	-0.0008089657
149	0x3aca3aa1	0.001542885
150	0x3a44b848	0.00075042667
151	0xbcd9d6e5	-0.026591728
152	0x3b08c952	0.002087195
153	0xb9ba0b26	-0.0003548499
154	0xbd58e7df	-0.052955505
155	0x3b4b0d02	0.0030983095
156	0x3b83cbdb	0.004022104
157	0xba4ebc34	-0.0007886321
158	0x3a5d2056	0.00084352994
159	0x3e035d22	0.12828496
160	0xbe59b41b	-0.21260111
161	0x3ceb004b	0.028686663
162	0xbe084a2d	-0.13309546
163	0xbf4222c9	-0.7583433
164	0x3e2636c8	0.16231835
165	0xbb18f19f	-0.0023337377
166	0xbb0c216e	-0.002138223
167	0x3c34e967	0.011041976
168	0xbe39c5dd	-0.18141885
169	0x3ee07061	0.43835738
170	0xbc71db1c	-0.014761712
171	0x3bdca898	0.006733965
172	0x3e857c21	0.26071265
173	0x3b30a050	0.0026951022
174	0xbf1ba0e3	-0.6079237
175	0x3c9527f8	0.018207535
176	0xbed98fd2	-0.4249254
177	0x3efecd83	0.49766168
178	0xbe72d6b0	-0.2371471
179	0x3c2501af	0.010071202
180	0x3ba01de6	0.0048863767
181	0xb9984ae2	-0.0002904749
182	0x3f2df9fa	0.6795956
183	0x3f3c9f3f	0.7368049
184	0xbf13a95c	-0.57680297
185	0xbc09c588	-0.0084089115
186	0x3db4c8ec	0.08827385
187	0x3ba54dd5	0.0050446787
188	0xbf1feb29	-0.624682
189	0xbd445cd3	-0.047940087
190	0xbcc4e404	-0.024034508
191	0xbe9fef57	-0.3123729
192	0x3c81116c	0.015755378
193	0xbc8a9720	-0.016917765
194	0xbbacf8ff	-0.005278706
195	0xbe546c00	-0.20744324
196	0xbdfa25b2	-0.12214221
197	0xbc8606ab	-0.016360601
198	0x39b05f90	0.00033640536
199	0x3c9c1a6b	0.019055566
200	0xb722ba0f	-9.699273e-06
201	0x3ed886b8	0.42290282
202	0xbe8342c9	-0.2563689
203	0x3b355ea2	0.0027674814
204	0x3d547ff4	0.051879838
205	0xbaac85a2	-0.0013162384
206	0xbf113452	-0.5672046
207	0x3c9e55a9	0.019327955
208	0x3bc84b2f	0.006112478
209	0xbbdb8187	-0.0066987905
210	0xbc2e9e3d	-0.010657844
211	0xbc88d2e3	-0.016702121
212	0xbccf7dbc	-0.02532851
213	0xba260b60	-0.00063340925
214	0xbf17ad5b	-0.59248894
215	0xbeaac453	-0.33352908
216	0xbcf59438	-0.029977903
217	0x3bd8cc52	0.0066161538
218	0x3c8cb4e6	0.017176103
219	0x3b4af60d	0.0030969412
220	0xbaf05c20	-0.0018338002
221	0x3c8d04af	0.017214147
222	0xbee3c3ce	-0.44485325
223	0xbe2041ff	-0.15650176
224	0xbefab89a	-0.48968965
225	0x3a75925e	0.0009367819
226	0x3eca3631	0.3949447
227	0x3a48de0a	0.0007662481
228	0xbbd85af8	-0.006602641
229	0x3c3b89bf	0.011446415
230	0x3c0af5fc	0.008481499
231	0xbe660597	-0.2246307
232	0x3cb76d2c	0.022390924
233	0xbba2fe9f	-0.004974201
234	0x3edb3f40	0.42821693
235	0x3cef4514	0.029207744
236	0x3ce56e2a	0.028006632
237	0xbcd6a637	-0.026202304
238	0xba362a46	-0.0006949048
239	0xbf01d40c	-0.5071418
240	0xbd8480d3	-0.06469884
241	0xbd266dc8	-0.04063204
242	0x3c4f06ae	0.01263587
243	0xbede4b38	-0.43416762
244	0x3e2c35cd	0.16817398
245	0x3b3368d2	0.002737571
246	0x3ac989fa	0.0015376203
247	0xbc28f4a4	-0.010312233
248	0xbee99c7b	-0.45627198
249	0x3ea79ddf	0.32737634
250	0x3c7eb3ea	0.015545825
251	0xbc376fc9	-0.011196085
252	0x3e8f9fc4	0.2805158
253	0xba4e7e97	-0.000787714
254	0xbefaa9df	-0.48957726
255	0xbcd0aad3	-0.02547208

_logits._model.0.bias f4 [4]
0	0x3df4d4a0	0.119546175
1	0x3c08ba5f	0.008345216
2	0x3e3fdf44	0.18737513
3	0x3e0bfca1	0.13670589

_hidden_layers.0._model.0.weight f4 [80, 13]
0	0xbd232deb	-0.039838713
1	0x3e6f163e	0.23348328
2	0x3e97ec0a	0.2967227
3	0x3f05222f	0.52005285
4	0xbe763cb1	-0.2404659
5	0xbdb698b2	-0.08915843
6	0x3e019fc2	0.12658599
7	0x3dfedb96	0.124442264
8	0x3ea2538f	0.31704375
9	0xbe1c76f8	-0.15279758
10	0xbeb4cf48	-0.35314393
11	0x3ec7bb6b	0.39010176
12	0x3ed0a423	0.40750226
13	0x3dfa4a2f	0.12221181
14	0x3d93fe67	0.07226258
15	0x3e0de25c	0.1385588
16	0xbf248f92	-0.6428157
17	0x3d73f0d5	0.059555847
18	0x3f1f21c6	0.6216091
19	0xbddebebe	-0.10876225
20	0x3ec8f2cf	0.39247748
21	0x3e809744	0.25115407
22	0xbf89f91d	-1.0779148
23	0x3ebf09ae	0.37312073
24	0xbef87cda	-0.48532754
25	0xbe84a36a	-0.25905925
26	0xbdfad470	-0.122475505
27	0x3de1f77a	0.110335305
28	0x3d2e0854	0.04248841
29	0x3f44164c	0.7659652
30	0xbc6dcc2d	-0.014514011
31	0xbd38dd07	-0.045132663
32	0xbe7dcf0e	-0.24786016
33	0x3e8411cb	0.25794825
34	0x3e88a92d	0.2669157
35	0x3e0a55b5	0.13509257
36	0x3d807f12	0.06274237
37	0x3f556828	0.83362055
38	0x3f80e1ae	1.0068872
39	0xbe6e6b68	-0.2328316
40	0xbd549bb8	-0.051906317
41	0x3e38f890	0.18063569
42	0x3e2a5f5b	0.16637938
43	0xbe6510d0	-0.22369695
44	0xbe5d97e9	-0.2163998
45	0xbe4d1f3e	-0.20031449
46	0xbd4984a4	-0.04919876
47	0x3f11543f	0.56769174
48	0xbe122654	-0.14272434
49	0xbe966334	-0.2937256
50	0x3ebe51e7	0.37171862
51	0x3fad6b97	1.3548459
52	0xbe32ce27	-0.17461453
53	0xbe553752	-0.20821884
54	0xbe1399f4	-0.14414197
55	0x3c5a0bb8	0.013308458
56	0x3f1c9f61	0.6118069
57	0xbec293a7	-0.38003275
58	0x3f104549	0.5635572
59	0xbea99fcf	-0.33129737
60	0xbea4e744	-0.32207692
61	0x3f7aa6b6	0.9791063
62	0x3f714990	0.9425287
63	0x3ee7ec85	0.45297638
64	0xbe9a7937	-0.30170605
65	0x3ec7a102	0.38990027
66	0xbd9cad2f	-0.0765022
67	0x3d9f32a0	0.07773328
68	0x3c7c54ee	0.015401108
69	0xbe653af0	-0.22385764
70	0xbe987d89	-0.29783276
71	0x3efcca6e	0.49373192
72	0xbeb8661d	-0.36015406
73	0x3e9cbe96	0.30614156
74	0xbf0fc230	-0.5615568
75	0xbe5be6c4	-0.21474749
76	0xbeb2fc4c	-0.34958112
77	0x3fdd0d30	1.726965
78	0x3d8cc370	0.06873214
79	0x3c9bd419	0.019022034
80	0x3ea01e82	0.31273276
81	0xbf88c992	-1.0686514
82	0xbe835a0e	-0.25654644
83	0x3ea323b0	0.31863165
84	0xbdb6959e	-0.08915256
85	0x3eb1ccd0	0.34726572
86	0xbf2765f1	-0.65389925
87	0xbcdda359	-0.02705543
88	0x3e8024ea	0.25028163
89	0xbe8a7edd	-0.27049914
90	0xbecb9af5	-0.3976666
91	0x3d6358f8	0.05550477
92	0xbea7e719	-0.327935
93	0x3e1b95e1	0.15193893
94	0x3f7b0028	0.98047113
95	0xbeef0f16	-0.46691197
96	0x3ea6ad69	0.32554176
97	0xbd9f7c73	-0.07787409
98	0x3ea4e8e9	0.32208946
99	0xbd8e266f	-0.069409244
100	0xbf0a59c1	-0.54043204
101	0xbe005685	-0.12533005
102	0xbf4d65b7	-0.8023333
103	0xbdad5517	-0.08463495
104	0xbb146419	-0.002264267
105	0xbcaabeee	-0.020842995
106	0x3e74b8a8	0.23898566
107	0x3f6a92e5	0.91630393
108	0x3eff0be2	0.49813753
109	0xbcc5a518	-0.024126574
110	0x3c61f929	0.013792315
111	0xbee8bc2d	-0.45456067
112	0xbea22935	-0.31672063
113	0xbf38b19c	-0.7214601
114	0x3f09ce49	0.5383039
115	0xbd8caead	-0.06869254
116	0xbd380770	-0.044928968
117	0xbe3585ee	-0.17726871
118	0x3eeee038	0.4665544
119	0x3d5a851d	0.053349603
120	0x3ec7a4ed	0.38993016
121	0xbe3751a2	-0.17902234
122	0xbd3b0842	-0.045662172
123	0x3ebaf291	0.36513188
124	0x3e0b4b8b	0.13603036
125	0xbe156013	-0.1458743
126	0x3f4bbe15	0.7958692
127	0x3e122aaa	0.14274088
128	0x3f22ae00	0.6354675
129	0xbd2855a4	-0.0410973
130	0x3dcc6423	0.09980037
131	0xbdbca1c7	-0.09210544
132	0x3e8d67b9	0.27618197
133	0xbeb51a3c	-0.35371578
134	0xbe335bf5	-0.17515548
135	0xbd9080e6	-0.070558354
136	0xbf2660bb	-0.6499135
137	0x3e847765	0.2587234
138	0x3ebe7621	0.371995
139	0xbf947984	-1.1599584
140	0xbe55f2aa	-0.2089335
141	0xbf2bed40	-0.6715889
142	0x3f22abfb	0.6354367
143	0x3d66ef0c	0.056380317
144	0xbf1b189f	-0.60584444
145	0xbdd359af	-0.1031984
146	0xbda4f747	-0.08054977
147	0xbecf25b4	-0.40458453
148	0x3eda03a9	0.42580917
149	0xbf3790c3	-0.71705264
150	0xbd00361f	-0.031301614
151	0x3e45b06b	0.1930558
152	0x3f684fec	0.9074695
153	0x3d949503	0.07254984
154	0xbeb5d8df	-0.35517022
155	0xbee32ecf	-0.4437165
156	0xbdba652f	-0.091013305
157	0x3d51ad07	0.051190402
158	0xbe946502	-0.28983313
159	0x3e3c5f0b	0.18395631
160	0x3f01677c	0.5054853
161	0xbdc41777	-0.09574788
162	0x3f6a0ea9	0.9142862
163	0xbed56b50	-0.41683435
164	0x3d9fb953	0.0779902
165	0xbe4bc3e4	-0.19898945
166	0x3f0d1223	0.551058
167	0x3f16602b	0.5874049
168	0x3dbce158	0.092226684
169	0x3d25f45e	0.04051625
170	0x3e872844	0.26397908
171	0xbe5f9870	-0.21835494
172	0x3dd12d40	0.10213709
173	0xbe7643a2	-0.24049237
174	0x3d1f656f	0.038915094
175	0x3fb2a0f0	1.3955364
176	0x3dd0305a	0.10165472
177	0x3ea2aabb	0.31770882
178	0x3fa9509b	1.3227724
179	0x3f22b873	0.635627
180	0x3e38019d	0.17969365
181	0xbeca6e1d	-0.39537135
182	0x3d00945e	0.031391494
183	0x3d9983b0	0.074958205
184	0xbe033158	-0.12811792
185	0xbe8ee86a	-0.27911693
186	0xbebd3174	-0.36951792
187	0xbd223cf7	-0.03960892
188	0x3e3126d1	0.17299964
189	0x3d11453d	0.03546642
190	0x3ef2d899	0.47430876
191	0x40045ea9	2.0682776
192	0xbf9a03a7	-1.2032365
193	0xbe884744	-0.2661687
194	0x3d941934	0.072313696
195	0xbf00c866	-0.50305784
196	0x3e1c79d7	0.15280853
197	0xbedbf66c	-0.42961442
198	0xbed2349f	-0.41055772
199	0xbdc4bc44	-0.09606221
200	0x3f090b1a	0.53532565
201	0x3e0e4439	0.13893212
202	0xbe0b453f	-0.13600634
203	0xbd80f5d9	-0.06296892
204	0x3f29d246	0.66336477
205	0x3f1ae53f	0.6050605
206	0x3dde67e8	0.10859662
207	0xbfc0934d	-1.5044953
208	0xbe189aa7	-0.14902745
209	0x3e103ca4	0.14085633
210	0xbd92e9fc	-0.07173535
211	0xbdc7831d	-0.09741805
212	0xbdfb0b10	-0.122579694
213	0x3ddda8c3	0.10823204
214	0xbf95503d	-1.1665112
215	0xbec36f2c	-0.38170755
216	0x3f145a08	0.57949877
217	0xbefb4b9d	-0.49081126
218	0xbfb147e4	-1.3850064
219	0xbe2ff356	-0.17182669
220	0x3ed426c2	0.4143582
221	0x3cfeedb3	0.031119203
222	0xbeaa11e9	-0.3321679
223	0xbe11561e	-0.14193007
224	0xbe59644d	-0.21229668
225	0xbee0c7cf	-0.43902442
226	0xbea5e2a0	-0.32399464
227	0xbf388e2d	-0.72091943
228	0x3e831d25	0.25608173
229	0xbec8615c	-0.3913678
230	0x3f19512d	0.5988949
231	0xbe6336ad	-0.22188826
232	0xbcb465cb	-0.022021195
233	0xbe8408b5	-0.25787893
234	0xbd96842c	-0.073494285
235	0xbeb5497f	-0.35407636
236	0xbe629c38	-0.22129905
237	0x3ed00fb1	0.40636972
238	0xbcd18f33	-0.025580978
239	0x3e146ba5	0.14494188
240	0xbdd0f114	-0.10202232
241	0xbd3687ab	-0.044562977
242	0xbdbc529c	-0.09195444
243	0x3fceca55	1.6155497
244	0xbe500b22	-0.20316747
245	0x3f287135	0.6579774
246	0xbf0aa26b	-0.5415408
247	0x3e08dadc	0.13364738
248	0xbe1a2a1f	-0.1505513
249	0xbc3db174	-0.011577953
250	0x3e80a6fc	0.251274
251	0xbea8267f	-0.3284187
252	0xbdc68bff	-0.09694671
253	0xbf490040	-0.78516006
254	0x3f47d953	0.78065985
255	0xbc415d59	-0.011802041

_hidden_layers.0._model.0.bias f4 [80]
0	0x3e4e0bfc	0.20121759
1	0xbe2cf688	-0.16890919
2	0x3de77d96	0.113032505
3	0xbd9380fe	-0.07202338
4	0x3db8eeb3	0.09029903
5	0xbda3b347	-0.07993179
6	0xbe3ff8dc	-0.18747276
7	0xbe5e87cc	-0.2173149
8	0x3c537208	0.012905605
9	0x3e044996	0.12918696
10	0x3cb3167b	0.021861305
11	0xbdde8241	-0.10864688
12	0x3dd17eb3	0.10229244
13	0xbd0cdb9d	-0.034389127
14	0xbc717ac2	-0.01473874
15	0xbdb5b109	-0.088716574
16	0x3d161b7a	0.036647297
17	0x3d2057bc	0.03914617
18	0x3bd31997	0.0064422595
19	0xbd3296fe	-0.04360103
20	0xbc165da4	-0.009177599
21	0xbd5646f6	-0.052313767
22	0x3d8bb0b7	0.06820815
23	0x3cf9a002	0.030471805
24	0xbe2cf5ac	-0.16890591
25	0x3d1cd451	0.03828842
26	0xbd207293	-0.039171766
27	0x3e3feb15	0.1874202
28	0xbdf8aee9	-0.121427365
29	0x3d8fa6e1	0.070142515
30	0xbdf6f606	-0.12058644
31	0xbdf20320	-0.11817002
32	0x3d5a6082	0.053314693
33	0x3e81e946	0.25373286
34	0x3d368853	0.044563603
35	0x3c8bf25e	0.017083343
36	0xbddf774e	-0.109114274
37	0xbc93696c	-0.017994605
38	0x3e389f76	0.1802958
39	0x3e056069	0.13025059
40	0x3cd830e1	0.026390495
41	0xbd311a86	-0.043238185
42	0xbd881615	-0.06644837
43	0xbdca293b	-0.09871145
44	0xbd13847d	-0.036015023
45	0xbc447a04	-0.011991981
46	0xbddc57af	-0.10758912
47	0xbd4d1274	-0.050066426
48	0xbd499338	-0.049212664
49	0xbd670eef	-0.056410726
50	0xbe3e6615	-0.18593629
51	0x3e13f67f	0.144495
52	0x3e3fc045	0.18725689
53	0xbc36a271	-0.0111471275
54	0xbdde93d7	-0.10868042
55	0x3db2b560	0.08726001
56	0x3e02a999	0.12760009
57	0x3dfba3c7	0.122870974
58	0x3d34bd6a	0.04412595
59	0x3dac5667	0.084149174
60	0xbdaa3526	-0.083109185
61	0x3d81969c	0.063275546
62	0xbc56cde2	-0.01311061
63	0x3d612406	0.054965995
64	0xbe58f31a	-0.21186486
65	0x3e072cb8	0.13200653
66	0xbd3a83a5	-0.045535702
67	0xbd597210	-0.053087294
68	0x3de6628e	0.112492666
69	0xbc995386	-0.018716585
70	0xbda89f52	-0.08233513
71	0x3df57ebe	0.11987065
72	0xbd80f75d	-0.06297181
73	0xbd99b585	-0.07505325
74	0xbd719cec	-0.058987543
75	0x3e13aaab	0.14420573
76	0xbd46f586	-0.048573993
77	0x3ddcff67	0.10790902
78	0x3e33b574	0.17549688
79	0x3c901da2	0.017592255

_hidden_layers.1._model.0.weight f4 [80, 80]
0	0xbd02c9cf	-0.03193074
1	0xbb85f169	-0.004087616
2	0xbc300959	-0.010744416
3	0xbba9bd12	-0.0051800096
4	0x3e1e258c	0.1544401
5	0xbe3a9b2e	-0.18223259
6	0xbe04bcfe	-0.1296272
7	0xbe330e47	-0.17485915
8	0xbe2a2681	-0.1661625
9	0x3d95d4fc	0.07316014
10	0xbf1651d4	-0.5871861
11	0x3cffba46	0.031216752
12	0x3dd71703	0.10502436
13	0x3e91bfe6	0.2846672
14	0x3dd55076	0.10415737
15	0x3e8bae52	0.27281433
16	0x3c549fc0	0.0129775405
17	0xbd0ff775	-0.035148103
18	0x3f026f32	0.5095092
19	0x3e11a73c	0.14223951
20	0x3e1fdeb1	0.15612294
21	0x3e3bea55	0.1835111
22	0x3db01d6e	0.08599363
23	0xbd9080b2	-0.07055797
24	0x3d080d3f	0.033215757
25	0x3e9c2e96	0.30504292
26	0x3e9dbbc5	0.3080732
27	0xbe4cf014	-0.20013458
28	0xbe01bf5e	-0.12670657
29	0x3dcecfcf	0.1009823
30	0x3decfbf3	0.11571493
31	0x3ba322eb	0.004978528
32	0x3e2156f5	0.15755828
33	0xbc190dbb	-0.0093416525
34	0x3e940a48	0.28914094
35	0x3e90bb46	0.28267878
36	0x3e3a911a	0.18219414
37	0xbead3452	-0.3382898
38	0xbe0771ce	-0.13227007
39	0x3a22b1ef	0.0006206324
40	0xbd066952	-0.032815285
41	0x3eb11c42	0.34591872
42	0xbd4ebd46	-0.050473474
43	0xbe249b86	-0.16074952
44	0xbe1b3e72	-0.1516054
45	0x3d3cbdbb	0.04607938
46	0xbd047b75	-0.0323443
47	0x3ee2a575	0.4426686
48	0xbd577f01	-0.052611355
49	0xbe79ae0d	-0.24382801
50	0xbe94c469	-0.290561
51	0x3de9bea7	0.11413317
52	0x3dc21758	0.09477109
53	0x3da5220b	0.08063134
54	0x3dca2ad7	0.09871452
55	0x3d6f39f6	0.058404885
56	0x3eb6aa2d	0.3567671
57	0xbca73a70	-0.020413607
58	0xbe36e8e4	-0.17862278
59	0xbe24c649	-0.16091265
60	0xbe35bc57	-0.17747627
61	0xbe396643	-0.18105416
62	0xbe273e84	-0.16332442
63	0x3e276e86	0.16350755
64	0x3d600850	0.054695427
65	0xbd99c1fa	-0.07507701
66	0x3e86e763	0.2634841
67	0x3bf2fb5e	0.007415219
68	0x3e074496	0.13209757
69	0x3d38ef9b	0.04515038
70	0x3e6b47c4	0.22976595
71	0x3f11aa1b	0.56900185
72	0xbe04de6a	-0.12975469
73	0x3e6b6ac1	0.22989942
74	0x3e41a741	0.18911459
75	0x3bb99b2d	0.0056642503
76	0x3d11ce8c	0.03559737
77	0x3db2ffa9	0.087401696
78	0xbe6a5505	-0.22883995
79	0x3e8cf6d1	0.27532056
80	0xbd3d01c9	-0.04614428
81	0xbdc02ca6	-0.09383516
82	0x3d5fd3d6	0.054645382
83	0xbde4d95c	-0.111742705
84	0x3d77a37b	0.06045864
85	0x3d766583	0.060155403
86	0x3d864c32	0.06557502
87	0x3df7d903	0.121019386
88	0x3ce2da58	0.027692005
89	0xbe47f9e3	-0.19528918
90	0x3844f444	4.695753e-05
91	0x3e4a34b7	0.19746672
92	0x3d56f250	0.05247718
93	0xbd6062c6	-0.054781698
94	0x3c3265fa	0.010888571
95	0xbd5a1b51	-0.053248707
96	0x3d8daac3	0.06917336
97	0x3d7cb088	0.06169179
98	0x3ca54715	0.020175496
99	0xbb317065	-0.002707505
100	0x3be6153e	0.0070215752
101	0xbd27e27f	-0.040987488
102	0xbe18c251	-0.14917876
103	0x3d68965a	0.05678401
104	0xbdf35b0a	-0.11882599
105	0x3dbf4c8a	0.093407705
106	0x3db93c96	0.09044759
107	0x3b44f9ab	0.003005604
108	0x3d93cf4e	0.072172746
109	0xbd7eec7f	-0.06223726
110	0xbd2bb314	-0.04191883
111	0x3e3100d8	0.17285478
112	0xbdb28926	-0.08717565
113	0x3dffa304	0.12482265
114	0x3df574a5	0.11985139
115	0xbd59d0ad	-0.053177524
116	0xbc23ca96	-0.009997031
117	0xbd31679a	-0.043311693
118	0x3d886e05	0.066616096
119	0xbd5a0170	-0.053224027
120	0x3a012e4d	0.0004927859
121	0xbdbc630a	-0.09198578
122	0xbe0fc6bf	-0.1404066
123	0x3ea4a319	0.32155684
124	0x3e00df0d	0.12585087
125	0xbda515c4	-0.08060792
126	0x3d518e7b	0.05116127
127	0xbd97d705	-0.074140586
128	0xbe051354	-0.12995654
129	0xbde75b76	-0.11296742
130	0x3d41ed94	0.047345713
131	0x3e9a0a17	0.30085823
132	0x3de1109e	0.109894976
133	0x3e17898f	0.14798568
134	0xbdce381f	-0.10069298
135	0x3d4edaa2	0.050501473
136	0xbe120ef3	-0.14263515
137	0xbc27e87b	-0.010248299
138	0x3cee0cd6	0.029058855
139	0xbd73bf9b	-0.0595089
140	0x3d665230	0.056230724
141	0x3e55b121	0.2086835
142	0x3c04f3cb	0.008114765
143	0xbce01259	-0.027352499
144	0x3e513ec2	0.20434096
145	0x3e3858d2	0.18002632
146	0xbe247364	-0.16059643
147	0xbdecc9c3	-0.115619205
148	0x3dc0dc90	0.09417069
149	0x3cb458a6	0.022014927
150	0x3b445093	0.0029955253
151	0xbc9565eb	-0.018237075
152	0xbdd0c19e	-0.101931795
153	0x3e1b7e1d	0.15184827
154	0x3d03b83e	0.03215813
155	0xbe0b622d	-0.1361167
156	0x3c7fef90	0.015621081
157	0x3d8540b4	0.06506482
158	0xbd8294d4	-0.06376043
159	0x3e2af68c	0.16695613
160	0x3d017a1c	0.031610593
161	0xbd9347f1	-0.07191456
162	0x3e8e527b	0.27797303
163	0xbd9c2170	-0.07623565
164	0x3ddbec71	0.10738457
165	0x3ecfa178	0.40552878
166	0xbea34328	-0.31887174
167	0x3e6705ec	0.22560853
168	0x3a949d64	0.001133841
169	0x3d82b002	0.06381227
170	0x3e1d4d48	0.15361512
171	0xbe51ba4d	-0.20481224
172	0x3e07d146	0.13263425
173	0x3dfe3252	0.124119416
174	0xbbd2176c	-0.0064114835
175	0xbe092294	-0.13392097
176	0xbde49144	-0.1116052
177	0xbc874d56	-0.016516369
178	0x3dbfbb17	0.093618564
179	0xbde05767	-0.10954171
180	0x3d8caf49	0.068693705
181	0x3e3f8128	0.18701613
182	0xbe2d57db	-0.16928045
183	0x3e3cd704	0.18441397
184	0xbd4bba48	-0.0497382
185	0xbeac1986	-0.33613223
186	0xbcd55760	-0.02604264
187	0x3d26de59	0.04073939
188	0x3e3d96e5	0.18514593
189	0xbeab6f0a	-0.33483154
190	0xbbdc2bd1	-0.0067190905
191	0xba0795db	-0.00051721715
192	0x3cf12196	0.02943496
193	0xbebec1c5	-0.3725721
194	0xbd2d6e52	-0.042341538
195	0xbe1b5639	-0.1516961
196	0xbea066eb	-0.3132852
197	0x3db940de	0.090455756
198	0xbe3d452d	-0.1848342
199	0xbd8ad6d4	-0.067792565
200	0xbdc5cae2	-0.096578375
201	0xbe988d1a	-0.29795152
202	0x3def99c7	0.116992526
203	0x3e0def64	0.13860852
204	0x3dd02cc9	0.10164792
205	0xbde990bf	-0.11404561
206	0xbd032e71	-0.03202671
207	0xbec71f74	-0.38891184
208	0xbe4205cf	-0.18947528
209	0x3e0902dc	0.13379997
210	0x3e0269f1	0.12735726
211	0xbe443869	-0.19162144
212	0xbea2f91a	-0.31830674
213	0x3e819e3c	0.25316036
214	0x3e925680	0.2858162
215	0x3e41e032	0.1893318
216	0xbdfd5af0	-0.123708606
217	0xbd8d48ae	-0.06898628
218	0x3edf5fd0	0.43627787
219	0x3cbd0f6b	0.02307864
220	0x3e3e90bb	0.18609898
221	0x3be6f404	0.007048132
222	0xbe2ef688	-0.17086232
223	0x3dc14e9c	0.09438822
224	0x3d70da20	0.05880177
225	0x3e03fa65	0.12888487
226	0xbda86597	-0.08222502
227	0x3cb308d5	0.021854797
228	0xbda4856c	-0.08033261
229	0x3e8a78a5	0.2704517
230	0x3d9a2b25	0.075277604
231	0xbe90bc89	-0.2826884
232	0x3e2da499	0.1695732
233	0xbeb170f3	-0.34656486
234	0xbdb3c803	-0.087783836
235	0x3db2af3f	0.08724832
236	0x3d531df8	0.051542252
237	0xbe1d960a	-0.15389267
238	0x3df7e4b7	0.12104171
239	0x3e40a516	0.18812975
240	0x3e675453	0.22590761
241	0x3e667e44	0.22509104
242	0xbdb7375c	-0.08946106
243	0xbf74eb15	-0.95671207
244	0xbeb87b6c	-0.36031663
245	0x3e41e602	0.18935397
246	0xbd523a49	-0.051325116
247	0xbee6f985	-0.45112243
248	0xbe6e5dc4	-0.23277956
249	0xba0d4fd0	-0.0005390616
250	0x3e6986d9	0.22805347
251	0x3e0d5903	0.13803487
252	0xbe7357c8	-0.23763955
253	0xbe248b83	-0.16068844
254	0x3ec60870	0.38678312
255	0xbf0900c2	-0.5351678

_hidden_layers.1._model.0.bias f4 [80]
0	0x3cf1109a	0.029426862
1	0x3cd5c93a	0.026096929
2	0xbda7885a	-0.08180304
3	0x3f64b037	0.8933138
4	0x3dcbd475	0.09952632
5	0x3d0b3947	0.03399017
6	0xbcb908ac	-0.022587143
7	0x3d129e43	0.03579546
8	0xbe0f6f69	-0.14007343
9	0xbec248a3	-0.37946042
10	0xbd024285	-0.03180172
11	0x3cf80d0f	0.030279664
12	0x3dedd724	0.116133004
13	0x3db5f2e4	0.08884218
14	0xbd9e1066	-0.077179715
15	0xbd19c245	-0.037538785
16	0x3dc70a4d	0.097187616
17	0x3e0f3cb3	0.13987999
18	0x3dbad931	0.09123457
19	0x3c0f083c	0.008729991
20	0x3b4340f3	0.0029793351
21	0xbc849517	-0.016184373
22	0xbecd806c	-0.4013704
23	0xbefe4ef0	-0.496696
24	0xbe310bdb	-0.17289679
25	0x3ca6678f	0.020313052
26	0x3d0dbf76	0.03460642
27	0xbd1ce012	-0.038299628
28	0x3f5fd08a	0.8742758
29	0xbd8b57bd	-0.06803844
30	0xbd0626e0	-0.032751918
31	0xbdf9bd12	-0.121942654
32	0x3d85fe0a	0.06542595
33	0xbca6f692	-0.020381246
34	0x3c50d4f3	0.012746084
35	0xbdc84205	-0.09778217
36	0x3e8db1e2	0.27674776
37	0xbd6ad565	-0.057332415
38	0x3bf55ac2	0.007487626
39	0x3cc20161	0.023682298
40	0x3d23208c	0.03982596
41	0x3d4d1dad	0.05007713
42	0xbdb6b8fb	-0.08922001
43	0xbb806e85	-0.003919425
44	0xbbcab417	-0.006186019
45	0xbd7ff560	-0.062489867
46	0x3dc2c4fc	0.09510228
47	0xbce1ec36	-0.027578454
48	0xbcdf364e	-0.027247574
49	0xbd03a9cf	-0.032144364
50	0x3d81bc0f	0.063346975
51	0x3c0d2a1c	0.008615997
52	0xbd1ea466	-0.038731
53	0x3d5cb028	0.053878933
54	0x3f1d08ae	0.6134137
55	0x3df9112f	0.12161481
56	0xbd52a643	-0.05142809
57	0x3d4a7557	0.04942831
58	0xbc8d34ec	-0.01723715
59	0xbd8373dd	-0.064185835
60	0x3c62bb3e	0.013838587
61	0xbd8663c3	-0.06561997
62	0xbe25b717	-0.16183124
63	0xbe0bd507	-0.13655482
64	0xbde0af2f	-0.109709136
65	0x3c299e9a	0.010352755
66	0x3e03c9bd	0.12869926
67	0xbc0fb6ca	-0.008771608
68	0xbcdb44c7	-0.026766194
69	0x3c8b4dc7	0.01700486
70	0x3c832534	0.01600895
71	0xbcb952fa	-0.022622574
72	0x3d45df7a	0.048308827
73	0xbb14e9da	-0.0022722394
74	0xbdc9aca8	-0.09847385
75	0xbd19cc75	-0.0375485
76	0x3d7bb97b	0.061456185
77	0xbd139f17	-0.03604039
78	0xbae67823	-0.0017583411
79	0x3c2ad448	0.010426588
